mutation/target_models/citeseer_tagcn.pt (torch, 952647 bytes, 10 tensors)

conv1.bias f4 [16]
00000000: 5a35 aabc f689 163b 81b8 8dbb d305 99bb
00000010: 96e0 3e3b f2d6 26bb 7dbe 8e3c e125 8e3c
00000020: 4a63 90bb bbcf 2c3c ae63 683b 78a0 a93b
00000030: 406c 5cba 0358 893c 9c1f 293a 2ad1 99bc
-0.020777393 0.0022970415 -0.004324973 -0.0046698838 0.0029125563 -0.0025457707 0.017424816 0.017352046
-0.0044063674 0.010547574 0.0035459804 0.0051766 -0.00084084645 0.0167656 0.00064515485 -0.018776495

conv1.lins.0.weight f4 [16, 3703]
00000000: 9a7d 6cbc 1c9f f4bc 3eba bcbb ee79 d43c
00000010: c4e0 9d3b 167b 003d 9def 023d 4513 f03c
00000020: ba0b ffbc e210 b73c 3d53 003c 12af 0e3d
00000030: 1d76 02bd 6d48 f93c 0fcd b8bb e848 873b
00000040: b845 a0bc 0eef 2abc 9afb 79bc 3e51 16bd
00000050: 90ea 8abb a409 babc 40bf d4bc 1593 08bd
00000060: 78e6 afbc 1cd8 c83c 5b8e 88bc cee3 cebc
00000070: 0117 98bc ce78 13bd 2c89 77bc 7659 c33c
00000080: 342b 2bbc dc62 0abd 48e3 a23c 6a9b 10bd
00000090: 5cd6 c33c 9c6e 323c aa5f 9abc 8925 bd3c
000000a0: a979 64bc 30c6 94bc b9c8 01bd 00fc ba3b
000000b0: 0ad0 023d cd2e 06bd 8f03 02bd f206 11bc
000000c0: 1ac7 e0bc 0589 333c 7915 96bc 1de3 f2bb
000000d0: b6e0 6ebc 227e 27bc 032e cabc 467e 5b3c
000000e0: 297e 113b 0b7e 08bd def6 9b3c d4cf cfbb
000000f0: 2a9a 8a3b 0e89 25bc 77a4 5dbc 2a04 be3c
00000100: b2c1 04bc 0fdc 193d df30 9a3c cdbe 103d
00000110: aaec 8abb bf12 c1bc 307c 6ebc c109 99bc
00000120: 2d75 d6bb a666 01bd 0488 42bc dd43 0ebd
00000130: 8cdd 16bd 4287 adbc e40a d73c 605d f43c
00000140: 372f 5f3c 122b d5bc 9a2e 0abc 6a80 4dbc
00000150: 77d5 fa3c 8892 a3bc 7b0b 113c a304 80bc
00000160: 0607 df3c 84f7 f4ba 88df eabc ef73 88bb
00000170: a69a c4bc 73b8 15bd 4e4f 01bd ce1c dabb
00000180: ae8e aabc f214 80bc e27f f6bc f6a2 803b
00000190: 2555 83bc 52b1 743c 54ea 1abd 3a4f cabc
000001a0: be7e dfbb c267 06bc 2a47 35bc 9b94 7ebc
000001b0: 099f 03bd b251 383c 96e8 08bd f219 04bd
000001c0: 867d 13bd 1228 c7bc 496d 91bc 7465 8abc
000001d0: f385 8a3c 07e4 923c 768c 09bc ecdf 2cbc
000001e0: 2753 41bc 4095 81bc 351f cb3b 7acd b93c
000001f0: ad81 cfbb 052b 39bc 234c c4bb 2b35 e6bc
00000200: 18ed a63c a0a8 46bc e0bc 133d 0859 ddbc
00000210: 2f0c 06bd c6ea febc 18a9 053d bc25 08bd
00000220: 1aab fcbb fe5a 093c 4968 8ebc e85e 0abd
00000230: ea1e 4fbc 5df2 8fbc d5f1 f7bb 3408 e5bc
00000240: d0e5 233b 0979 ec3c 068d c1bc ae3d f0bc
00000250: 545a df3b 5fb0 66bc aa77 ce3c bec5 22bc
00000260: 256a 0a3d f060 f3bb 0a6e bdbc f664 8f3c
00000270: 4650 48bc 0412 86bc 6713 023d e451 643c
00000280: 887a 7b3c 753f d6bc a696 08bc 8ee4 75bc
00000290: 7104 2b3c c642 b1bc 52f7 b4bc 8238 05bc
000002a0: 621d c2bc 32db 08bd a689 13bc a916 08bd
000002b0: a43b 0dbd e015 10bd 1055 ceba 76de 98bc
000002c0: f0f3 d9bc e986 6b3c 9386 15bd 8e10 81bc
000002d0: 60fd 3ebc 7164 063c ea4d 24bc ce8d d03c
000002e0: a714 b0bc 9721 44bc 2c27 0dbc 0607 d2bc
000002f0: 4c2e f03c 3d7c b73c 18f9 f93b b6e5 03bd
00000300: feef d2bc 5cc4 dfbc a921 d0bb 1cdf eebc
00000310: ac57 1b3c 1935 ebbc 7ff3 2ebc fc11 e8bb
00000320: ff90 363d fdce 0f3c b25b 2d3c 765a 1fbb
00000330: 3cb4 01bd 177b d7bc 9bd9 0dbd a01f ce3c
00000340: a81a cbbc cc18 01bd 60df 193c 44de c8bc
00000350: e32f 00bd 8d6d 60bc 1786 0dbd 4922 bb3c
00000360: 24a1 78bc 2569 01bc c0d3 3cbc 4007 eabb
00000370: 1ce9 b8bc 00f0 93bc e864 14bd 38e4 ad3c
00000380: 2814 bfbc 2e75 753c c4b4 56bc 169f f33b
00000390: b1f3 acbc f845 1abc d9f3 a73c b2dc 05bd
000003a0: 4ad6 e43c ccfd 06bd ef37 bebc 1e2d b6bb
000003b0: 6b98 36bc 7da1 293d dba5 8b3c 0ff0 afbc
000003c0: dda0 fb3c 2004 223c 603c 07bd 6564 0c3d
000003d0: dbde e0bb 245e 0abd c6ee 98bc ea37 e63c
000003e0: 7b9d e03c 7c11 ecbc 22af f13c af72 c2bc
000003f0: faf0 76bc 2b6a 14bc 2cc5 02bc bb34 88bc
-0.014434243 -0.029861026 -0.0057595065 0.025937047 0.004818054 0.031367384 0.031966794 0.029306063
-0.031133521 0.022346918 0.007832346 0.03483493 -0.031850923 0.030430043 -0.0056396793 0.004128564
-0.019564494 -0.010432972 -0.01525774 -0.036698572 -0.004239388 -0.022709675 -0.025970101 -0.033343393
-0.0214722 0.024517111 -0.016669443 -0.02525511 -0.018565657 -0.03600388 -0.015108388 0.02384637
-0.010447312 -0.033785686 0.019883767 -0.035304464 0.023905925 0.010890629 -0.018844444 0.023089187
-0.013945022 -0.01816091 -0.031685565 0.0057063103 0.031936683 -0.032759476 -0.031741675 -0.008851754
-0.027438689 0.010957961 -0.018320786 -0.007412328 -0.014579942 -0.0102229435 -0.024680143 0.013396805
0.0022200441 -0.03332333 0.019038614 -0.0063419137 0.0042298036 -0.010103477 -0.013527981 0.023195345
-0.008102821 0.03756338 0.018822132 0.03533821 -0.0042396383 -0.02356851 -0.014555976 -0.018681409
-0.00654473 -0.031592034 -0.011873249 -0.03473269 -0.036832377 -0.02118266 0.02625031 0.02982968
0.013622097 -0.026021514 -0.008433962 -0.012542823 0.030619366 -0.019967332 0.008852835 -0.015627211
0.027225029 -0.0018689488 -0.028671041 -0.004164211 -0.023999523 -0.036552858 -0.03156977 -0.006656266
-0.020819988 -0.015634988 -0.030090276 0.0039256765 -0.016031811 0.014934855 -0.03782113 -0.024695981
-0.006820529 -0.008203449 -0.01106433 -0.01553836 -0.03213409 0.011249946 -0.033424936 -0.032251306
-0.03600838 -0.0243111 -0.017752307 -0.01689408 0.016909575 0.017930998 -0.008395305 -0.010551434
-0.01179961 -0.015818238 0.0061987885 0.022680987 -0.006332597 -0.011301761 -0.0059905215 -0.028101524
0.020376727 -0.012125164 0.036068797 -0.027019992 -0.032726463 -0.031117808 0.032631963 -0.03323911
-0.0077108266 0.008383511 -0.017383711 -0.033781916 -0.012641648 -0.017571623 -0.0075666704 -0.027958013
0.0025008805 0.028866308 -0.023626816 -0.029326286 0.006816188 -0.014080136 0.025203545 -0.009934841
0.033792634 -0.0074273273 -0.02312376 0.017504197 -0.01222617 -0.016366012 0.031756785 0.01393554
0.015349038 -0.026153306 -0.008336699 -0.015008105 0.010438071 -0.021638285 -0.022090588 -0.008131148
-0.023695651 -0.033412166 -0.009004986 -0.033224735 -0.034480706 -0.03517711 -0.0015741903 -0.018660765
-0.026605576 0.014375427 -0.036505293 -0.015754964 -0.011657089 0.008202658 -0.010028342 0.025458243
-0.021494223 -0.011970899 -0.008615296 -0.025638115 0.029318951 0.022398109 0.0076285712 -0.03220149
-0.025749203 -0.027315311 -0.006351669 -0.029159121 0.009481352 -0.028711842 -0.010678171 -0.007082222
0.044571873 0.008777377 0.010580944 -0.0024315394 -0.031666026 -0.026303811 -0.034631353 0.025161564
-0.024792984 -0.03151779 0.009391636 -0.024520047 -0.03129567 -0.013697994 -0.034551706 0.022843497
-0.015175138 -0.007898604 -0.0115250945 -0.0071419775 -0.022572093 -0.018058777 -0.036229044 0.021226987
-0.023325041 0.014981551 -0.013104621 0.007434736 -0.021112295 -0.009416096 0.020502018 -0.032681175
0.027934212 -0.032956883 -0.02322003 -0.0055595776 -0.011144738 0.041413773 0.01704686 -0.021476774
0.030716354 0.009888679 -0.033016562 0.03427543 -0.006862504 -0.033781186 -0.018668544 0.028102834
0.027418843 -0.028816931 0.029502455 -0.023736326 -0.015072102 -0.009058516 -0.00798158 -0.016626706

conv1.lins.1.weight f4 [16, 3703]
00000000: 0285 863c 0225 bbbc 9c27 bbbc 296e 05bd
00000010: ee2f 2cbb 76f3 7b3c a392 863c b750 9f3c
00000020: cab0 6cbc 9478 193d 8053 ebbb d26f 08bd
00000030: 3610 d2bc e0f4 f9bc 128e 99bc 8385 e5bc
00000040: 3ce9 f4bc c0d3 fc39 5068 10bd a9ab b7bb
00000050: 698e 133c a441 e3bc 11e9 28bc 4efd 943c
00000060: 65ba 8fbc 4300 2f3d 27fe a3bc c616 e3bc
00000070: 6339 b5bb b2e4 00bd d4d0 8b3c 90e0 9e3c
00000080: 4870 0fbd 3364 dbbc b01b b0bc c4aa f9bb
00000090: 49e7 f73c f235 32bc 2d1b 9ebc 8e59 9cbc
000000a0: edcd d1bb aab8 8ebc b210 0cbd 6ec3 eabc
000000b0: 03c1 d0bb 2e46 31bc e265 e8bc fc7a fcbc
000000c0: 6383 d8bc d599 46bc 9d3b babc 41d0 073d
000000d0: 92bd a3bc 07bc d3bc f597 ccbc 4b00 0f3c
000000e0: e032 a0bc 1c4c e2bc e0b4 fb3c 7753 ccbc
000000f0: 374f b53c 5e97 11bd 08b7 abbc 1241 69bc
00000100: f283 5abc 4ccc 9a3c 0d36 ec3c b28a 313c
00000110: 02b1 293c fcdd a5bc 1814 56bc 4560 113d
00000120: 5a66 a7bc 0c02 d1bc 1a69 65bc f922 813c
00000130: 006b 03bd 163e 5bbc b12d 80bc 95de 693c
00000140: 6e44 003d 5ed2 fcbc ed0f 0ebd 6a98 c2bc
00000150: 9ab2 5d3c e9d3 0c3c 0968 0d3c 2cef 17bc
00000160: 0b3f ed3b e609 c3bb ab76 54bc 8616 01bc
00000170: a32e a5bc cba8 93bc 8bf1 dd3c 2803 2bbc
00000180: 5b8f fbbb f2b1 a0bc ee97 88bc 626a c43c
00000190: 4099 fcbc 7611 02bc 1f06 babc 3655 33bc
000001a0: ec8e 96bc 210e acbc 67b1 0b3d d6ca e4bc
000001b0: c663 36bc f901 c93c 38dc 86bc 49bd dcbb
000001c0: c4d9 f6bc c96e 7cbc b4b0 e0bc 385a 11bd
000001d0: 1f66 d93c 68eb c13b e948 3bbc 1012 b5bc
000001e0: 4632 a1bc a22f 8fbc 6440 913c 0d63 6b3c
000001f0: 758c f2bc 2e60 4fbc 325e babc ec28 5d3c
00000200: 3e78 a13c d44c 333c dbe9 853c dc15 e4bc
00000210: ddd3 e3bc b0cc 1fbc 1ce5 643c c2cb 02bd
00000220: 70df 6cbc b273 a43c d110 89bc d21c 8b3c
00000230: 643d bdbc f6fd a1bc 470d f6bc 9e84 ebbc
00000240: 8cb7 3dbc 7486 dcbc f070 04bd ca17 0dbd
00000250: fd3e 62bc 7e3e 1fbc 4065 ba3c 090c b3bc
00000260: 8966 163d 496f 9fbc 76a9 36bc 1c5d 9f3c
00000270: a89d e4bb 76ab d83c f887 8c3c a940 003d
00000280: 00d4 bd3c a0ec 82bc 96e7 11bd 9254 15bd
00000290: 2e25 ee3c f3ee 03bd a3ad d0bb 0c64 8abc
000002a0: 2406 acbc 068b 95bc dd5f b0bc 2a2a adbc
000002b0: de1f 893c 246c 3c3c 3c27 a9bc 159c 8b3c
000002c0: 09a0 ebbc 0af1 1a3d e8fd 13bd d8c9 1abd
000002d0: 395c b3bc a8f5 dbbc 8f15 ea3c b466 e23c
000002e0: e722 bebc 3278 ddbc b195 31bc 00ca febc
000002f0: fa4b 83bb a651 6d3c 829f 48bb 8823 43bc
00000300: b297 fa3c 20f6 96bc 4b9d 73bc 27c8 d83c
00000310: 2c68 593c c693 3cbc 6735 debc 52a1 74bc
00000320: bd5d 2bbb 9a39 14bc c5e8 cb3c ae44 63bc
00000330: 42b9 9ebc 28bf 03bc 6b34 d3bb a9c9 dbbc
00000340: 5b99 8abc a4c3 fcbc 5802 c1bc 91e5 a1bc
00000350: 3501 52bc 101a 2cbc 9205 a1bc 3369 853c
00000360: 36e4 3bbc b2e7 85bc d804 d7bc ba80 61bc
00000370: 0a70 a9bc ed80 1d3c 52ed 13bd 52be 1abc
00000380: 650b 12bd 6606 5cbc 222a b4bc ba0d 163c
00000390: 2236 d9bc 9019 febc 331d d23b 9837 f8bc
000003a0: f49c 003c 362d 11bd ba08 e6bc b640 af3c
000003b0: 414a 08bd ad2a bbbc 2916 d4bc da5e 82bc
000003c0: 6a46 6f3c 491d dbbc 78a5 00bd dfad 03bd
000003d0: f8cc 4dbc cdf1 f2bb 62df 99bc 2872 8e3c
000003e0: 7cbc 693c ba3b b0bc fddf 0b3d 50f3 32bc
000003f0: 1dd6 9ebc 9290 d4bc 18ac d5bb 846b f3bc
0.016420845 -0.022844795 -0.022846036 -0.03257576 -0.0026273686 0.01537787 0.016427344 0.019447668
-0.014446447 0.037468508 -0.007181585 -0.033309765 -0.025642496 -0.030512273 -0.018744502 -0.028017765
-0.029896371 0.00048222952 -0.03525573 -0.0056051803 0.009006121 -0.02774126 -0.010309474 0.018187191
-0.017544935 0.04272486 -0.02001865 -0.02772082 -0.0055305227 -0.0314681 0.01706735 0.01939419
-0.03501919 -0.026781177 -0.021497577 -0.007619234 0.030261653 -0.010877119 -0.019300068 -0.019085672
-0.006402722 -0.017422039 -0.03419561 -0.028657641 -0.006370665 -0.010819955 -0.028368894 -0.030820362
-0.026429838 -0.012121637 -0.022733504 0.03315759 -0.019987855 -0.025846494 -0.024974803 0.008728097
-0.01955551 -0.027624182 0.030725896 -0.024942143 0.0221325 -0.035544746 -0.0209613 -0.014236705
-0.013337122 0.018896244 0.028834367 0.01083629 0.010357143 -0.020247452 -0.013066314 0.0354922
-0.020434547 -0.025513671 -0.014002109 0.015763747 -0.032084465 -0.013381502 -0.015646787 0.014274259
0.03131526 -0.03086203 -0.034683157 -0.023754317 0.013531351 0.008595445 0.008630761 -0.009273332
0.0072401813 -0.0059521077 -0.012967746 -0.007878905 -0.02016384 -0.018024823 0.027092716 -0.010437764
-0.0076770014 -0.019616101 -0.016674008 0.023976509 -0.030834794 -0.007938733 -0.022707997 -0.010945609
-0.018378697 -0.021002831 0.03410473 -0.027928751 -0.011132186 0.024537073 -0.01646243 -0.0067364317
-0.030133136 -0.015407273 -0.027428009 -0.03548643 0.026537953 0.005917955 -0.011430957 -0.02210334
-0.019677293 -0.017478768 0.0177309 0.014366877 -0.02960799 -0.012657208 -0.022749994 0.013498526
0.019710656 0.01094361 0.016346863 -0.027842455 -0.027810985 -0.009753391 0.01397064 -0.0319326
-0.0144575685 0.0200747 -0.016731651 0.016981516 -0.023100562 -0.019774418 -0.030035628 -0.02874976
-0.0115794055 -0.026919581 -0.032334268 -0.034446515 -0.013808963 -0.009719489 0.022753358 -0.021856325
0.03671888 -0.019462245 -0.011148801 0.019453578 -0.006976802 0.026448946 0.017154679 0.031311665
0.023172379 -0.015981972 -0.03562125 -0.036457606 0.029070463 -0.0322103 -0.0063683554 -0.01689341
-0.020999022 -0.018254768 -0.021530086 -0.02113827 0.016738828 0.011500392 -0.020648591 0.0170422
-0.028762834 0.03782753 -0.036130816 -0.03779015 -0.021894561 -0.026850536 0.028574733 0.027636863
-0.023210002 -0.027034853 -0.010838912 -0.03110218 -0.00400686 0.014484799 -0.0030612652 -0.011910327
0.030589912 -0.018427908 -0.014869045 0.026462628 0.013269465 -0.011509841 -0.027125074 -0.01493104
-0.0026148402 -0.009046936 0.024891267 -0.013871355 -0.019375447 -0.008041181 -0.0064454577 -0.026829557
-0.016918829 -0.030855007 -0.023560688 -0.019762786 -0.012817671 -0.010504261 -0.019655976 0.016285514
-0.011467984 -0.016345832 -0.026247427 -0.013763601 -0.020683307 0.009613258 -0.036115 -0.00944479
-0.035655398 -0.01342926 -0.021992747 0.009158546 -0.02651507 -0.031018049 0.006412172 -0.030299947
0.007849921 -0.035443507 -0.028080333 0.021393161 -0.03327394 -0.022847498 -0.025889473 -0.01591437
0.01460419 -0.026747363 -0.031407803 -0.03214824 -0.012561075 -0.007414079 -0.018783275 0.017388418
0.01426613 -0.021512855 0.03414916 -0.010922268 -0.019389207 -0.025947843 -0.0065207593 -0.029714353

conv1.lins.2.weight f4 [16, 3703]
00000000: 26db a13c 5405 ef3c 7f86 61bc d936 b73c
00000010: 49c1 8d3c 4eaf be3c f878 cb3c 0505 ac3c
00000020: fed2 c6bc d7fb d83c a6a4 cebc 9a2b 123c
00000030: 5431 b2bc 026a c83c ee6c 94bc 0b51 c6bc
00000040: d1ba a2bc 789d a7bc 3a86 0fbd 8640 debc
00000050: 0cd5 143c a750 18bd 4431 17bd acd4 09bc
00000060: ca03 0cbd 5281 ba3c bec2 2cbc 0954 54bc
00000070: a6ab e3bc c963 15bc 64fb 56bc 73bd 093d
00000080: 9ae1 46bc f954 8dbc 138a fc3b 22f8 d4bc
00000090: 7770 b33c 86ca b0bc b2dc 11bd 695d 843c
000000a0: ece8 0fbd 6630 ddbb 226e eabb c372 cf3c
000000b0: 8ea6 18bc 40e1 c43b 46ef 12bd d2ba 1ebc
000000c0: b0f6 1cbc bec0 d43b ff5d 14bd 720f 56bc
000000d0: 2b46 893c 12dd d6bc 84ff dbbc ac30 0b3d
000000e0: 7fc1 60bc df5f 04bd b2dc 493c 5b6c 453c
000000f0: 26e1 cb3c d4de b3bc c4db 19bc 6035 55bc
00000100: aedd b5bc 2ac7 263c 9224 c93b b256 6e3c
00000110: c70f 963c 4e4b d7bc fe5c a1bc e49d 61bc
00000120: 9a3f 05bd 35d6 dcbc 26e9 0fbd a751 023d
00000130: e048 f9bc becb 82bc 44b4 d03c b871 2e3d
00000140: c4cc 193c 30fd ff3c 5a41 b1bc fd08 12bc
00000150: 42de d03c 496b 87bc 28e0 803c 6707 08bd
00000160: ff9c f43c 85c0 cdbc b855 8dbc 7689 363c
00000170: e2d2 1fbc bebb efbb 8ca6 79bc 7108 0cbc
00000180: 536b a3bc ea31 07bc 220c f1bb c92d b43c
00000190: 12c8 68bc 3ba5 ebbb 5cd1 10bc 7d19 a3bc
000001a0: 0f91 90bc 9056 50bc 312b 8fbc 4c94 1fbc
000001b0: bc8e 7fbc 4ea0 ea3c d4c3 8dbc 5adc 59bc
000001c0: d454 7abc c5c5 8f3c c627 0fbc 80e9 0abd
000001d0: bc91 d33c 918b ba3c 7646 53bb 0b10 fdbc
000001e0: e703 c7bc 2243 8cbc b08a 823c 5207 e13c
000001f0: c97f b4bc 5eb3 fbbb 2681 c3bc be3b fb3c
00000200: de5e 0f3d 6b25 0fbc 5193 ac3c 001f cebc
00000210: f6e8 04bd d3de eebc 204d 2a3c d763 3dbc
00000220: 62d8 bdbc 511b 0d3d 0ef1 23bc a626 07bc
00000230: aaf8 a6bc 0293 c5bb 68bb 0cbc 5dcf 903c
00000240: 402b a83c acdc 653c f5a5 b8bc cd56 bbbc
00000250: 883a b73c b8c0 ddbc 11a6 c73c 52fc 86bc
00000260: d6e5 0a3d 88a3 f4bc e022 ebbc c55e e13b
00000270: db17 15bc 8c51 f6bb cfdb 093c b09c ed3c
00000280: 2774 a93c 20dd aebc de71 28bc cfc4 a4bc
00000290: 04ce 073d 708a b5bc 46fb 7abc 22a0 81bc
000002a0: bcdc 01bc 8d3e 18bd a2cb ccbc e888 96bc
000002b0: e93a f9bb 21ef d6bc 9f1f 0bbd bed2 09bd
000002c0: 40e9 23bc 748a 163d 2a63 f4bc 9c81 a8bc
000002d0: 614f 0abc c461 33bc c234 64bc ae96 053d
000002e0: f819 39bc 4d4e 99bc 7887 d6bc 7bbb f8bc
000002f0: e49f d13c caff f13c 543c 89bc 9849 14bd
00000300: feb5 b8bc 36b4 18bc 44f0 8bbc 7ca5 13bd
00000310: 9dff fe3c 1544 08bd 24b3 cebc 3d6d 0abd
00000320: 22d6 9e3c 4221 013c acf2 383c 470e 063c
00000330: df9c 12bd 26e3 22bc 56f2 14bc 0a8c ba3c
00000340: 8cca a0bc d2cd 5ebc 7ae9 08bd 5887 b4bb
00000350: f328 c1bc df75 12bc f0f6 69bc cc74 683c
00000360: 9cce 00bd 1858 92bc 4261 9dbc 0beb 2abc
00000370: 3045 06bd d80d d8bc 73fb 84bc 2ffc b5bc
00000380: 808e ccbb cb73 0bbd 125c 12bd 4b0c a43c
00000390: 6e3b 43bc 9a46 d2bb a09b 8e3c c299 a8bc
000003a0: ea6d 7d3c 3544 61bc 28de 09bd 9269 86bc
000003b0: ced9 06bd a838 1c3d d757 debc 9314 aabc
000003c0: 9b90 1f3c 0ffb 5e3c 9ad9 52bc 5579 adbc
000003d0: 3897 51bc 3c12 81bc f903 bcbc 9d60 7f3c
000003e0: 09ce 813c 19b3 e2bc ff51 063d a643 edbc
000003f0: 6b7f 8dbc bc28 eabc 0e83 51bc a493 d4bb
0.019757818 0.029177345 -0.0137649765 0.02236502 0.01730408 0.023276951 0.024837956 0.020998487
-0.02427053 0.026487274 -0.025224995 0.008921528 -0.021752037 0.024464611 -0.018118348 -0.024208566
-0.019864472 -0.02046083 -0.035040118 -0.027130377 0.009083997 -0.03718629 -0.036912218 -0.008412521
-0.0341833 0.022766743 -0.010544477 -0.012959489 -0.02779181 -0.009118029 -0.01312146 0.03362794
-0.012138749 -0.017252432 0.0077068894 -0.025997225 0.021904213 -0.021580946 -0.035610862 0.016157823
-0.03513424 -0.0067501543 -0.007154242 0.025323277 -0.0093170535 0.006008297 -0.03587272 -0.009688096
-0.009580299 0.006492703 -0.036222454 -0.013065206 0.016757092 -0.026228461 -0.026855238 0.033981964
-0.013718008 -0.032317992 0.012320684 0.01204976 0.024887633 -0.021956839 -0.009390775 -0.013013214
-0.022200432 0.01017932 0.0061383927 0.014547037 0.01831807 -0.026281025 -0.019697662 -0.013770554
-0.03253136 -0.02695761 -0.035134457 0.03181615 -0.030430257 -0.015966292 0.025476582 0.04258892
0.009387199 0.031248659 -0.021637607 -0.008913276 0.025496606 -0.01653065 0.015731886 -0.033210184
0.029860018 -0.025116215 -0.017252788 0.011141172 -0.009754868 -0.007316082 -0.015237462 -0.008546934
-0.019948637 -0.0082516465 -0.0073561827 0.021994488 -0.014207857 -0.007191328 -0.008838978 -0.019909615
-0.017647294 -0.012715951 -0.01747665 -0.009739947 -0.015597995 0.028640892 -0.017305292 -0.013297165
-0.015279014 0.017550359 -0.00873751 -0.03391409 0.025826328 0.022771629 -0.0032238043 -0.030891439
-0.024293853 -0.017121855 0.015935272 0.02746931 -0.022033589 -0.0076812943 -0.023865294 0.030668136
0.03500258 -0.0087369485 0.02106634 -0.025161266 -0.03244873 -0.029158985 0.010394365 -0.011559448
-0.023174468 0.03444988 -0.010006202 -0.008248961 -0.020382244 -0.0060294876 -0.008589603 0.017677004
0.020528436 0.014029663 -0.022540072 -0.022868538 0.022366777 -0.027069435 0.024371179 -0.016477738
0.033910595 -0.029863134 -0.028703153 0.0068777525 -0.009099926 -0.0075170454 0.008414223 0.029005378
0.020685269 -0.021345675 -0.010281054 -0.020113377 0.033155456 -0.022160739 -0.015318697 -0.015823428
-0.007926162 -0.037169028 -0.024999443 -0.018375829 -0.0076058996 -0.026237072 -0.033965703 -0.033648245
-0.010004342 0.036753133 -0.029832441 -0.020569615 -0.008441777 -0.010948602 -0.013928594 0.032614402
-0.011297695 -0.018714095 -0.026187643 -0.030362835 0.025588937 0.029540915 -0.0167524 -0.036202997
-0.022547718 -0.009320309 -0.017082341 -0.03604649 0.031127745 -0.033268053 -0.025231905 -0.033795584
0.019389216 0.007881464 0.011288326 0.008182115 -0.035794135 -0.009941852 -0.0090909805 0.022771854
-0.019627832 -0.013598876 -0.033425786 -0.0055092983 -0.023579096 -0.0089392355 -0.014280066 0.014188003
-0.031447038 -0.017864272 -0.019211415 -0.010432015 -0.032780826 -0.026373789 -0.016233182 -0.022214977
-0.0062425733 -0.034045976 -0.035732336 0.020025393 -0.011916025 -0.006417108 0.017408192 -0.02058113
0.0154681 -0.013749172 -0.03365913 -0.016407762 -0.03292256 0.03813997 -0.027141495 -0.020761764
0.0097390665 0.013609662 -0.012869263 -0.02117602 -0.012792401 -0.015755765 -0.022951113 0.015586999
0.015845316 -0.027673291 0.03279304 -0.028962921 -0.017272672 -0.028583877 -0.0127875935 -0.0064873267

conv1.lins.3.weight f4 [16, 3703]
00000000: d611 ea3c 5c9b f5bc 100d 07bd 4020 aebc
00000010: b078 993c 7797 f03c b8e3 1d3c 0119 a73c
00000020: ad05 9ebc 4796 4a3c 2425 17bc 8ca3 d5bc
00000030: 42ad 0abc 5cc6 e2bc 8413 dcbc 2213 fdbc
00000040: 1283 a0bc 86f0 b0bc fed2 85bc e02f 2bbc
00000050: e3ec e13b 0b83 16bd 6b1d b4bc 7274 4e3c
00000060: 54eb e7bc 4ffb 103d bcc3 35bc 70a7 f7bc
00000070: 1a7a d5bc 3364 75bc 5ee2 04bc e26e 653c
00000080: a216 c0bc 307a 04bd 5ce1 95bc d895 d2bb
00000090: a881 4abb 0eea 5abc acdc 09bd f53a 8abc
000000a0: 462c 9fbc 003f 0cbd 7d6d a7bc 5869 38bc
000000b0: d69c e4bc a0a8 0bbd d0b8 87bc 6ea2 0abd
000000c0: 9ea7 d8bc 8083 6fbc e708 c0bc 947d 853c
000000d0: 789e 88bc d632 1abd 4055 0bbd cdad 733c
000000e0: 6082 f03b 64a8 f2bc 4737 75bc fd19 883c
000000f0: 30ad 173d de58 4dbc dfe9 b8bb 34c6 e9bc
00000100: 57f1 dfbc 4e5e 6e3c 5a71 ba3c e98c 993c
00000110: 3094 bf3c 604e 1bbd d280 1abd f9ac dc3b
00000120: 19f1 debc 9192 36bc eaed eebc fe0f 343c
00000130: d247 fabc f4ad 6bbc 1096 81bc 88fa 203d
00000140: 9042 053d 06cc e6bc ea69 16bd 684e 04bd
00000150: 6bfe cd3c c414 18bc 06ee a93c d02b 0fbc
00000160: 1419 923c 304e d0bc 171b c6bc 5c06 08bc
00000170: e64b 9ebc 6263 1dbc 1ad7 81bc fc9e e9bc
00000180: 2f2d f8bc b8ee 9bbc c195 64bc dc36 a23c
00000190: 9ce7 a5bc 26ac 25bc 3acf abbc f36a eb3b
000001a0: 5c8e a9bc 3a2a 07bd 3816 043d 9191 f9bc
000001b0: b650 a8bc 5f6d 3c3c f854 d8bc 0237 9abc
000001c0: 586a ddbc 76e7 04bd 2092 f8bc 0c9a 0fbc
000001d0: b0df 563c 3a16 013d 8469 21bc 360b 43bc
000001e0: 82a9 fdbb 63e6 b9bc 52d8 4f3c f999 333c
000001f0: ca01 39bc 10f3 22bc ac73 49bc 50c7 8a3c
00000200: a4e9 3e3c 6092 7f3c 7437 c73c e619 9abc
00000210: 5671 d9bb 80fb febc 6eec 3d3c eae1 5ebc
00000220: 61f5 abbc d291 1d3c 2966 7cbc 66a7 0a3c
00000230: cdf7 03bd 21d3 f8bc abe2 0dbd 76b1 5bbc
00000240: e67b 82bc 389d a7bc fd47 f6bc a112 d8bc
00000250: 735a 40bc c40d b1bc a56a 003d f38f d6bc
00000260: 863f ae3c 8928 02bd 6def 7bbc 9752 cc3c
00000270: cca6 6e3c ef50 0b3d 2ab2 1c3d 46fd cf3b
00000280: 0e8f c43c 08c1 06bd 0a9b e5bc 3725 c6bb
00000290: 7fec 0b3d 43c0 fabc 0ef8 62bc 6669 42bc
000002a0: 4cb2 02bd 4759 07bd 283c 26bc bd60 82bc
000002b0: 0b45 b23c d650 94bc 8287 86bc bfc5 efbc
000002c0: 198c a2bc ed4c 943c 53ee cabc 2d18 aebc
000002d0: f7cd f2bb a093 c9bb 137e 5ebc 5641 cb3c
000002e0: 7d3a e7bc f996 dcbc a091 f7bc aafc d7bc
000002f0: 5fdd fe3b 2792 833c 84d3 0dbc 2cda 15bd
00000300: 8571 ba3c a1b3 c7bc 4265 aabc 00e5 ee3c
00000310: 074e de3b d871 9cbc 201c 5abc 1f66 0dbd
00000320: 73d4 9dbc 20c4 883c 1c76 0d3d 2813 fdbc
00000330: 763b e2bc 39dd c3bb 5272 b3bb 00cd a6bc
00000340: b27a 21bc 3b61 f6bc a5df babb 7ea0 09bd
00000350: b088 8dbc 7380 e3bb f31a 03bd e0cf 0b3c
00000360: 465d bfbc 19e3 5abc a4f1 9abc dca4 13bb
00000370: 4e97 a0bc 5e98 403c b9bd b9bc 3c29 acbc
00000380: 839d 29bc 9c84 d7bb 0404 85bc 5841 043d
00000390: 75bf ffbb 578d 34bc ff15 103d 2459 17bd
000003a0: c477 1a3d 96b9 c4bc e44a 16bc 09eb dd3b
000003b0: b4e9 eebc e87b a4bc 1ea0 5abc 64ed f5bc
000003c0: bc1e b53c 6f13 15bd f81b 8dbc 064c adbc
000003d0: 71b2 c13c 600f 5cbc d2f3 36bc 3f4f 083d
000003e0: 5c84 c23c fcbb 07bd 15fd 813c 459e 60bc
000003f0: abef e0bc 2cf6 77bc 47ad 59bc fa1f d2bc
0.028572958 -0.029981308 -0.03297144 -0.021255612 0.018734306 0.029369099 0.009636812 0.020397665
-0.019289816 0.0123649305 -0.009225164 -0.026078962 -0.008464159 -0.027682476 -0.026864775 -0.030892912
-0.01959375 -0.021599066 -0.01633596 -0.010448426 0.006894694 -0.036746066 -0.021986684 0.012601005
-0.028310455 0.035395917 -0.01109403 -0.030231208 -0.0260592 -0.014977503 -0.008110611 0.014003487
-0.023448292 -0.03234309 -0.018295936 -0.006426554 -0.0030900035 -0.013361467 -0.033657715 -0.016873816
-0.01943029 -0.03423977 -0.02043795 -0.011255585 -0.027906816 -0.03409636 -0.016567618 -0.03384631
-0.026447114 -0.014618754 -0.023441745 0.016295232 -0.016677126 -0.037646137 -0.034016848 0.01487298
0.0073397607 -0.02962131 -0.014966792 0.016613955 0.0370304 -0.012533395 -0.005643114 -0.028536893
-0.02733676 0.014548851 0.022759128 0.018743949 0.023386091 -0.03791654 -0.03772051 0.006734487
-0.027214574 -0.011143343 -0.02916618 0.010990141 -0.030551825 -0.014384735 -0.015818626 0.039301425
0.032534182 -0.028173458 -0.0367221 -0.032301337 0.02514573 -0.009282295 0.020743381 -0.008738473
0.017834224 -0.025427908 -0.02418284 -0.008302297 -0.0193233 -0.009606214 -0.015849639 -0.028518192
-0.030294983 -0.019034728 -0.01395172 0.01980155 -0.020252042 -0.010111844 -0.020972837 0.00718438
-0.020697765 -0.032999255 0.032247752 -0.03046492 -0.020546298 0.0115006855 -0.026407704 -0.018825058
-0.027028248 -0.0324473 -0.030343115 -0.008764755 0.013114855 0.031515338 -0.009851817 -0.011904528
-0.007741154 -0.022692865 0.012685852 0.010962003 -0.01129193 -0.009945646 -0.012295645 0.016940743
0.011652384 0.015598863 0.024318434 -0.018811177 -0.006635825 -0.031125784 0.011592014 -0.013603667
-0.02099103 0.009617286 -0.015405216 0.008462762 -0.032218743 -0.030374112 -0.034639996 -0.013409009
-0.01592822 -0.02046071 -0.030063624 -0.02637607 -0.011740315 -0.02161301 0.031351704 -0.026191687
0.021270525 -0.03177694 -0.015376908 0.024941726 0.014566135 0.03401273 0.038255848 0.006347331
0.023993995 -0.032898933 -0.02802803 -0.006046917 0.034161087 -0.030609256 -0.013853086 -0.011865949
-0.03190832 -0.033044126 -0.010146178 -0.015915269 0.021761438 -0.018104952 -0.016422037 -0.029269097
-0.019842194 0.018103087 -0.024771845 -0.021251762 -0.007409807 -0.0061516315 -0.013579863 0.024811428
-0.028226132 -0.026927458 -0.030220807 -0.026365597 0.0077778543 0.016060902 -0.008656386 -0.036585018
0.022759208 -0.024377646 -0.020800237 0.02916193 0.006784204 -0.019097254 -0.01331237 -0.03452122
-0.019266343 0.016695082 0.034536466 -0.030892923 -0.027616244 -0.0059772995 -0.0054762745 -0.020361423
-0.009855913 -0.03007566 -0.00570293 -0.033600323 -0.017277092 -0.0069428026 -0.032008123 0.008533448
-0.023359906 -0.013359808 -0.018914051 -0.0022528684 -0.019603398 0.011755077 -0.022673475 -0.021015756
-0.010352495 -0.0065770876 -0.016237266 0.03228888 -0.007804806 -0.011020026 0.035177227 -0.036950245
0.037711874 -0.024014276 -0.009173129 0.006772403 -0.029164173 -0.020078614 -0.013343839 -0.030020423
0.022109382 -0.036395486 -0.01722525 -0.021154415 0.023644658 -0.0134314 -0.01116653 0.0332787
0.023744754 -0.03313826 0.01586775 -0.013709609 -0.027458033 -0.015134376 -0.013285941 -0.025650013

conv2.bias f4 [6]
00000000: f2da 9cbc 4f1d ee3c 2088 103c e2ef df3c
00000010: a8c9 d93c 5033 cbbc
-0.01914737 0.02906671 0.008821517 0.027336065 0.026585415 -0.024804741

conv2.lins.0.weight f4 [6, 16]
00000000: f484 4c3e 976c 70bd ae4c 413c 81c7 853d
00000010: 8a63 5fbe 5366 81bd 44cf cc3d 9029 53be
00000020: d9c3 76be c9f0 04be 1163 55be 1f8f 64be
00000030: 8cc4 1fbe 518f 87be ab9b ce3d a27f 183e
00000040: f677 4ebe 62c5 263c 230d 25be 6022 00bd
00000050: d909 093d 3daa 4f3e cbcb 3ebe deca 7bbe
00000060: 4e91 a6bc 60bb 293d 00e1 e43d 2b04 883e
00000070: 0a0d 3e3d 91be ffbd 78b4 753e febe 4f3e
00000080: 883b 243d a5df 9ebb 993b 2d3d 0fc3 8cbd
00000090: f25f 89bd 4243 5bbe 34ef 4a3e 4b37 6a3d
000000a0: ee56 77be c2b1 b83d 75c9 65be d9b0 c13d
000000b0: c348 c73d deb6 99bd 8cad 18bd f140 8a3d
000000c0: 3d0a 4abe 9efc 033e 3c0e dcbd 1bff 2abd
000000d0: 2c95 4e3e 0986 8abd 3b3d 833d 5efd 023e
000000e0: 2eec f63c 5873 22be 0a04 503d b52e 813d
000000f0: 634b 943d 3f0c 363e 48fa 6dbb 29ee b33d
00000100: 34a8 483e 4744 9abd c189 58be 99a1 2c3d
00000110: 7c1f debc bfa2 80be cf16 673d b4a5 2b3b
00000120: 6f24 07bd 4e4f 15be 322f e53d 9dfc 623e
00000130: 1ea4 a43d c64b 713e 739e c33c 0baa e73d
00000140: 324d 413d 1432 20be 02b9 093e 6b55 533c
00000150: 4955 c63d e5b5 0d3e 6b7b 5ebd 5ccf 75bd
00000160: bf62 89bd 5791 3f3d 1647 4f3e 6ef5 0c3e
00000170: 020c a43b 47c6 28be 76bf f43c 8306 e43d
0.19972593 -0.05869731 0.011798067 0.06532193 -0.21815315 -0.06318345 0.1000047 -0.20621324
-0.24098147 -0.12982477 -0.20838572 -0.22320221 -0.1560232 -0.2647653 0.10088285 0.14892438
-0.20162949 0.010178896 -0.16118293 -0.031282783 0.033456657 0.20279785 -0.18632428 -0.24589106
-0.020332959 0.04143846 0.11175728 0.2656568 0.046399154 -0.124875195 0.23994625 0.20287701
0.040095836 -0.004848438 0.042293165 -0.06873142 -0.06707753 -0.21412376 0.19817811 0.057181638
-0.24154255 0.090182796 -0.22440131 0.09457559 0.09730675 -0.07505582 -0.037274882 0.06750668
-0.19730468 0.12889335 -0.107449025 -0.041747194 0.20174092 -0.067638464 0.06408163 0.12791964
0.030141916 -0.15864313 0.050785102 0.06307737 0.072409414 0.17778109 -0.003631251 0.0878566
0.19595414 -0.07532554 -0.21146299 0.0421463 -0.027114622 -0.25124165 0.056418236 0.0026191296
-0.03299373 -0.14581034 0.111906424 0.22166677 0.08039115 0.23564062 0.023879265 0.1131173
0.04719276 -0.15644103 0.13449481 0.012898783 0.096842356 0.13838919 -0.05431692 -0.060012206
-0.067082874 0.046769466 0.20241961 0.13765499 0.0050063143 -0.16481887 0.029876452 0.111340545

conv2.lins.1.weight f4 [6, 16]
00000000: fd25 dd3d f0e9 3d3e 6333 413d eb39 d7bd
00000010: 5e9d 2fbe 429f e0bd 5403 0b3e ba15 efbb
00000020: c056 f93d 42f6 adbd b9a6 593e 0e4e 99bd
00000030: d867 7ebe 4b29 21be 8de9 0fbe 372a 583e
00000040: a7b7 6abe 9997 afbc 59c6 5e3e 483d f1bc
00000050: a648 303e 7d26 013e 8619 f13c 3979 6d3d
00000060: 0d99 55be 0acc 1dbe b6c9 dc3d b41a 5ebd
00000070: 68bf 10be 35c3 04be 6ef1 973d f439 2dbe
00000080: 1f02 66be 7e9d f3bd f5ea 45be b6ad 073e
00000090: f21a d43d e4dd 8dbd e292 463e 37e5 653e
000000a0: 9e9a 113d 61e9 aabd ef90 c53d c0c5 15bd
000000b0: b518 5abe 5af8 b33d 9485 743e 0b51 5d3e
000000c0: ac9f d33d 4837 053e 4488 0cbe 21ef 2b3e
000000d0: 432a 41be 58f1 a03d e0df a0bd 9b39 52be
000000e0: f065 33be 1e55 4d3e ca87 c0bc ac89 2e3e
000000f0: a905 a8bd 505b 0b3d 3d75 c13d 9bfc 53bd
00000100: 3eec 5d3e 889e 61be 6e8a 8fbc 7fee 4d3e
00000110: 70c0 2d3a e2fe 7b3d acb1 e53d 35ad 343e
00000120: 68fe 4f3c 74d3 3bbe 0988 49be d9be ef3d
00000130: e6f0 433d d7c9 653e 4fca 75be 5d20 603e
00000140: 3db0 67be e6c1 c9bd aa50 3cbe cd42 143e
00000150: 3857 c83c b7b5 d23d 6f98 893c 7172 6dbd
00000160: e738 193d becf 7a3d c3aa 733e 3227 60be
00000170: 68fc bd3d ab9e 0c3e 5ec5 4cbe 90ec dabd
0.10798261 0.18546271 0.047168147 -0.10509094 -0.17149875 -0.10967876 0.13575488 -0.007296291
0.121747494 -0.084942356 0.21255006 -0.07485591 -0.24844301 -0.15738408 -0.14053936 0.21109854
-0.2292162 -0.021434592 0.21755351 -0.029448166 0.17215213 0.12612338 0.029431116 0.057976935
-0.20859165 -0.15409866 0.10780661 -0.054224685 -0.14135516 -0.1296509 0.07419096 -0.16916639
-0.22461747 -0.118952736 -0.1932791 0.13249859 0.10356702 -0.06927088 0.19391969 0.2245072
0.035547845 -0.08345295 0.096467845 -0.036565542 -0.21298487 0.08787604 0.23879081 0.21612947
0.10333189 0.1300937 -0.13723856 0.16790439 -0.18863778 0.07858533 -0.07855201 -0.20529787
-0.17519355 0.20052001 -0.02350225 0.17044705 -0.082042046 0.03402263 0.094461896 -0.051754575
0.2167215 -0.22033131 -0.017522063 0.2011051 0.00066281017 0.061522372 0.11215529 0.17644198
0.0126949325 -0.18342382 -0.196808 0.11706323 0.04783716 0.22440277 -0.24002956 0.21887346
-0.22625823 -0.09851436 -0.18390146 0.14478607 0.024455652 0.102885656 0.016796319 -0.057970468
0.037407782 0.061233275 0.23795609 -0.21889952 0.09276658 0.13732402 -0.19997165 -0.10689652

conv2.lins.2.weight f4 [6, 16]
00000000: 71d6 033e 5572 323e a944 62be 5e79 6c3e
00000010: abe1 2bbe 7823 49be 0516 5abe 8215 923d
00000020: 3777 123e b22b 73be 1ffb 5abe cbbc bf3d
00000030: db5c 553e 90dc 283e 0a74 eebd ab92 dcbc
00000040: 1568 40be 21c2 5c3e 9b3a 4cbe 4114 d23d
00000050: f792 263e 38d4 5f3e 51d7 1dbe d5b5 753c
00000060: 7804 c6bd d4da e7bb 21a5 5abe f616 8ebc
00000070: dde1 78be 8c33 08be c62e 1dbe 0e0d bb3d
00000080: ec37 8bbc c830 3c3e 776c f0bc d139 cfbd
00000090: f8a3 75bd 9b65 ed3c a214 f8bd 8c28 e53c
000000a0: 97af 38be ad5a 783d 7f9e 323d ee4c dcbd
000000b0: 8d55 d8bd 8e95 7f3e b8f8 2e3e 82d3 f13d
000000c0: dd01 9abb 08d1 a0bd 9cde 2a3e d101 113e
000000d0: 44d4 19be 1d97 67be fd76 4e3e 4236 5d3e
000000e0: ac99 7b3d 464b 0bbe d290 873e e21f 64bd
000000f0: c3da 7a3e b64d fa3c a690 66be 1e71 7bbd
00000100: 49c6 903d 8e17 a93c 2d3b 44be c6eb d9bd
00000110: a205 9cbc 0de5 4dbe e7ac ab3d 70d5 32be
00000120: b6ed c4bc 2c64 bcbd 0bc6 b2bd d604 7cbe
00000130: 497b 03be 091d 0f3e e9c7 a33d ea20 783e
00000140: f333 86bc 3249 59be c3a1 60bd 4952 2bbd
00000150: 39e6 223e 1afd aa3d 07f2 653d a0ae b13c
00000160: 23f5 4fbd 1e56 5b3e d574 273e 1351 b73d
00000170: 935c 4d3e a2d2 2d3e f31e 5f3e 1a7a 443e
0.12874772 0.17426427 -0.22096504 0.23093173 -0.16785304 -0.19642437 -0.21297462 0.071330085
0.1430329 -0.23747137 -0.21384858 0.09362181 0.20836203 0.16490388 -0.116432264 -0.026925405
-0.18789704 0.2155843 -0.19944231 0.102577694 0.16267 0.21858299 -0.15414168 0.014996965
-0.09668821 -0.007075647 -0.21352054 -0.017344933 -0.2430491 -0.13300914 -0.15349874 0.09133349
-0.016994439 0.18377984 -0.029348595 -0.101184495 -0.059970826 0.028979113 -0.121133104 0.027973436
-0.18035732 0.06063335 0.043608185 -0.10756861 -0.105631925 0.24959394 0.17087066 0.1180792
-0.004699929 -0.078523695 0.16686481 0.14160849 -0.15022379 -0.22616239 0.20162578 0.21602729
0.06142585 -0.13602933 0.26477677 -0.05569447 0.24497513 0.030554634 -0.22516116 -0.061387174
0.0706907 0.020641115 -0.19163199 -0.10640673 -0.019045655 -0.20106907 0.08382588 -0.17464232
-0.02403913 -0.09198794 -0.0872918 -0.2461122 -0.12839998 0.1397592 0.07997114 0.24231306
-0.016382193 -0.21219328 -0.054841768 -0.04182652 0.15908135 0.083490565 0.05613902 0.021689713
-0.05077089 0.2141957 0.16353162 0.089510106 0.20054846 0.16974881 0.2178915 0.19187203

conv2.lins.3.weight f4 [6, 16]
00000000: 3769 353e 5f34 9f3d 7d28 543d 7d4c 063e
00000010: 6ee8 0abe 9d5a 243e 76ed 5e3d 5ad3 8cbe
00000020: a802 003e 2eb8 85be 9d59 2d3e bfea 193e
00000030: 87bf d4bd d236 2e3e b64f d83d 6251 923d
00000040: 898b 6a3d 5ebf e43d 90fd 413e f487 b83d
00000050: 58da 2abe 471e 123e cda9 663e 3e69 15be
00000060: d685 2abe ff60 24be 629c 3abe fb0c 1c3c
00000070: 442c aa3a 9f49 b13d 1e65 f23d b46c 1fbe
00000080: 8a7c 90bd a6f1 703e 0a1b 3cbd 37cc 4ebe
00000090: b44f c4bd cc53 523d 7a88 203e 8bf6 05be
000000a0: 1bc3 773e f0e9 56bc 049f 1e3e 0b46 353e
000000b0: 96cc 26be 5dc2 153e cdd2 a5bd 2091 483e
000000c0: 1678 30be 0a5d 503e ee28 9fbc 5b3d 233d
000000d0: 800b 06be aad2 a1bd 1bf5 07be 975d 6d3e
000000e0: 0730 223e 04f2 cebd 62e3 403e d30d 52be
000000f0: c0b5 05be 12cf 253d 9ebd 773d 15ee b53c
00000100: bdb1 2fbe dfdb ac3c 288e 8cbe 1415 803e
00000110: 8a12 643e 844d ef3d c7a0 323e 8822 e23d
00000120: 96df dfbd 1ad9 78be 42cd 333d 99ac 70be
00000130: 30a9 74be 397a 673e bf59 ffbd 4813 6cbe
00000140: 450e 78be 3c7c 57be 660e 683e 26c4 aabb
00000150: 2d99 7bbd bb52 9e3b 6000 e5bd 3cf2 52bc
00000160: d9df 7dbe 85c5 3ebe aabf 5cbe ccfa 583e
00000170: 2863 70bd 24d8 87bb 0f5b 963d 2669 f8bc
0.17715918 0.07773661 0.051796425 0.13115115 -0.13565227 0.16050191 0.05442568 -0.27504998
0.12501013 -0.2611708 0.16928716 0.15030955 -0.103880934 0.170131 0.10562079 0.07144429
0.057261977 0.11169313 0.18944383 0.09010306 -0.16684854 0.14269362 0.22525711 -0.14590928
-0.16652617 -0.16052626 -0.18223718 0.009524579 0.0012983163 0.0865662 0.11835693 -0.1556881
-0.07055004 0.23529682 -0.045924224 -0.2019509 -0.09585515 0.051349446 0.15677062 -0.1308233
0.2419552 -0.0131172985 0.15490347 0.177025 -0.16288981 0.14624925 -0.08096848 0.19586611
-0.17233309 0.20347992 -0.019428696 0.039853435 -0.13090324 -0.07901509 -0.13277094 0.23180233
0.15838633 -0.101047546 0.1883674 -0.20513086 -0.13057613 0.04048068 0.060483567 0.022208253
-0.17157646 0.021100936 -0.27452207 0.2501608 0.22272697 0.11684707 0.17444144 0.110417426
-0.109313175 -0.24301568 0.04389692 -0.23503341 -0.23892665 0.22605218 -0.124682896 -0.2305423
-0.24224193 -0.21043485 0.22661743 -0.005211371 -0.061425377 0.0048316396 -0.11181712 -0.012875136
-0.24792422 -0.18630035 -0.21557489 0.21189421 -0.058688313 -0.004145639 0.07341587 -0.030323576
