mutation/target_models/citeseer_graphsage.pt (torch, 476951 bytes, 6 tensors)

sage1.lin_l.weight f4 [16, 3703]
0.040028915 0.0058609024 -0.0248403 0.028248172 -0.0008979975 0.012130924 0.021652091 0.036646005
-0.032574985 -0.012832871 0.029958855 0.04196463 -0.027130235 0.023334963 -0.025144756 0.012230365
0.0064833662 0.00051594013 0.013824551 0.014642645 0.009549726 -0.00400617 0.037753932 -0.015645737
0.022283927 0.01287554 0.0251788 -0.009736298 0.016584668 0.024200507 0.035527647 0.02241823
0.02480181 -0.00019711303 0.007688403 -0.028033603 0.02144544 0.0354003 0.014796769 -0.014838328
-0.02827613 0.011781028 0.004036408 0.011814067 6.190245e-05 0.03750283 0.03243709 0.035086337
0.022212453 -0.041981675 -0.01619914 0.027914954 0.015054936 0.008411736 0.0029457905 -0.008020064
-0.013086555 -0.02667575 -0.0063161156 -0.011331943 0.029358355 0.026355468 -0.026749475 -0.025133107
0.022616373 0.01663797 0.042723663 0.03357719 0.042228863 -0.015448854 -0.015286649 0.037590615
-0.013028488 -0.02421323 -0.013875465 0.029453153 -0.023943823 0.019612774 0.026390158 -0.029012607
0.0011706753 0.039565057 0.023917764 0.013725344 0.033643074 0.022533052 -0.0008362634 -0.01658566
0.013669087 -0.029861622 -0.012644966 -0.013299218 -0.015179129 0.022820126 0.02203944 -0.0048139254
-0.018849023 -0.00054969895 -0.021434665 -0.01909522 -0.02942384 -0.03363152 -0.015804112 -9.882776e-05
-0.029582134 -0.0011040372 0.013089396 0.008310547 -0.041394304 0.012408033 0.022509214 -0.021412265
0.034860246 -0.026165629 -0.012554023 -0.010221617 0.0434129 -0.03805796 -0.028224979 -0.019286402
0.035210684 0.0021300004 0.013479162 0.01590538 0.02554745 0.036387224 -0.016102225 -0.002248209
0.017741697 -0.018216677 0.014144968 0.02697793 -0.03836048 0.024235448 0.032262024 -0.011566436
-0.026903823 0.011249327 0.039522093 0.0037165983 0.020383067 0.028604139 0.0037627819 -0.020739604
0.038071953 -0.026221557 0.043811128 0.03184209 -0.03209298 -0.013175486 0.027499534 -0.027932223
0.02013655 -0.03272711 -0.011821095 0.009212341 -0.01455163 -0.030468233 0.038015276 0.03316514
0.020013914 -0.037447866 -0.025807291 -0.038710285 0.00812023 0.026213408 0.021869939 -0.02068669
0.017766457 0.013787264 0.0126579385 -0.015606027 -0.017312024 0.01959524 -0.027073128 -0.025675766
0.044235513 0.026763052 0.031034175 0.009693306 -0.0302645 -0.012134696 -0.024649091 -0.01591753
-0.015576465 0.01515558 0.028952258 -0.0074391244 -0.022197578 -0.0146493735 0.010318694 -0.0013157455
-0.03190016 0.0068222256 0.019136898 -0.033020806 0.022233753 0.021894569 -0.020183448 -0.0077108927
0.030236252 0.0028376465 0.017751027 0.02099641 -0.023742475 -0.013346678 0.020802636 -0.03590035
0.04145643 0.032215685 0.035648655 0.019372832 0.021483703 -0.0065460242 0.015051079 0.03219734
0.0030158232 0.01972901 0.011974852 0.023428386 -0.024813395 -0.017619878 0.041054964 -0.003813075
-0.016990172 0.017939756 0.03443979 0.01897242 0.042595454 -0.022993328 0.03786129 -0.0050155385
0.030925885 -0.012039766 -0.014117199 0.032565538 -0.022335988 0.0051678726 0.0038043808 0.035297405
0.015082156 0.013484627 -0.022794321 0.03920484 0.028400332 0.0267998 -0.025348974 0.032176286
0.019212991 0.025280396 0.032473687 -0.00020637317 0.037145644 -0.015276011 -0.03228966 0.0282861
00000000: 5cf5 233d d00c c03b e37d cbbc b668 e73c
00000010: 9867 6bba c8c0 463c ba5f b13c 1f1a 163d
00000020: 596d 05bd f640 52bc 466c f53c 1be3 2b3d
00000030: 3a40 debc f728 bf3c 60fc cdbc de61 483c
00000040: 6b72 d43b 2840 073a 5f80 623c b4e7 6f3c
00000050: 7476 1c3c 3146 83bb dea3 1a3d 7d2b 80bc
00000060: c88c b63c eef3 523c c543 ce3c fe84 1fbc
00000070: 92dc 873c 2440 c63c 7085 113d 70a6 b73c
00000080: 2a2d cb3c 20b0 4eb9 00ef fb3b baa6 e5bc
00000090: 59ae af3c e8ff 103d 266e 723c 751c 73bc
000000a0: 58a3 e7bc 3605 413c d843 843b ca8f 413c
000000b0: a0d1 8138 919c 193d c1dc 043d b1b6 0f3d
000000c0: e4f6 b53c faf4 2bbd 0fb4 84bc e7ad e43c
000000d0: faa8 763c 61d1 093c 2a0e 413b 9666 03bc
000000e0: fd68 56bc 1a87 dabc 6bf7 cebb 9da9 39bc
000000f0: ef80 f03c 6ce7 d73c b721 dbbc f2e3 cdbc
00000100: f945 b93c 5a4c 883c 02ff 2e3d 3c88 093d
00000110: 2cf8 2c3d 311d 7dbc da74 7abc 9ef8 193d
00000120: 7075 55bc d35a c6bc eb55 63bc bd47 f13c
00000130: d625 c4bc f8aa a03c 2c30 d83c d9ab edbc
00000140: 5871 993a f80e 223d 30ef c33c 44e0 603c
00000150: 52cd 093d 3c97 b83c b038 5bba a6de 87bc
00000160: 4ef4 5f3c 5ca0 f4bc d52c 4fbc f7e4 59bc
00000170: e2b1 78bc 46f1 ba3c 0e8c b43c 22be 9dbb
00000180: 4469 9abc ac19 10ba c097 afbc 946d 9cbc
00000190: 440a f1bc 34c1 09bd a077 81bc c041 cfb8
000001a0: 3b56 f2bc 57b5 90ba e874 563c f628 083c
000001b0: 138d 29bd 104b 4b3c 3e65 b83c c668 afbc
000001c0: 9ec9 0e3d 4d59 d6bc 64af 4dbc 9278 27bc
000001d0: bad1 313d aae2 1bbd 1238 e7bc 84fe 9dbc
000001e0: 1439 103d 7a97 0b3b b4d7 5c3c 004c 823c
000001f0: e348 d13c c50a 153d d0e8 83bc b056 13bb
00000200: 0957 913c 243b 95bc 4cc0 673c d200 dd3c
00000210: e11f 1dbd 6b89 c63c 2f25 043d 2681 3dbc
00000220: 6865 dcbc 194f 383c ebe1 213d 2c92 733b
00000230: 64fa a63c 3a53 ea3c 0199 763b 1ae6 a9bc
00000240: 56f1 1b3d 97ce d6bc 4c73 333d da6c 023d
00000250: ee73 03bd fedd 57bc b446 e13c 1ed2 e4bc
00000260: 68f5 a43c dd0c 06bd 44ad 41bc 5cef 163c
00000270: f669 6ebc 8498 f9bc e8b5 1b3d 2bd8 073d
00000280: 38f4 a33c ef62 19bd d069 d3bc ad8e 1ebd
00000290: b70a 053c 80bd d63c 9628 b33c 2277 a9bc
000002a0: f68a 913c fae3 613c 3e63 4f3c 6cb0 7fbc
000002b0: f2d1 8dbc 3286 a03c 77c8 ddbc fc55 d2bc
000002c0: 4c30 353d 303e db3c 623b fe3c acd0 1e3c
000002d0: 42ed f7bc 9bd0 46bc e4ec c9bc 7b65 82bc
000002e0: 6e34 7fbc 1c4f 783c 492d ed3c e6c3 f3bb
000002f0: b2d7 b5bc ed03 70bc bd0f 293c 1875 acba
00000300: bea9 02bd fa8c df3b fcc4 9c3c d340 07bd
00000310: 8f23 b63c 3d5c b33c c257 a5bc a8ab fcbb
00000320: 04b2 f73c cff7 393b 9a6a 913c aa00 ac3c
00000330: 947f c2bc 06ac 5abc 4a6a aa3c 3f0c 13bd
00000340: 38ce 293d 98f4 033d 5304 123d c6b3 9e3c
00000350: 97fe af3c 0880 d6bb cd98 763c 5ce1 033d
00000360: 1ea5 453b bc9e a13c 2b32 443c e3ec bf3c
00000370: 7645 cbbc 9057 90bc 4029 283d c8e4 79bb
00000380: f92e 8bbc 65f6 923c bd10 0d3d 0c6c 9b3c
00000390: 9278 2e3d 815c bcbc 7114 1b3d 6359 a4bb
000003a0: 4858 fd3c 7042 45bc d34b 67bc 7163 053d
000003b0: f6f9 b6bc 4257 a93b eb52 793b 0394 103d
000003c0: 261b 773c a0ee 5c3c 28bb babc 4195 203d
000003d0: d0a7 e83c 418b db3c a7a8 cfbc 48cb 033d
000003e0: 9064 9d3c d518 cf3c 2103 053d e065 58b9
000003f0: 0826 183d 3c48 7abc 2a42 04bd 40b8 e73c

sage1.lin_l.bias f4 [16]
0.03704399 -0.0065523395 -0.0187143 0.023631118 0.010255927 0.03450876 0.034774143 0.005198128
0.015416475 -0.0032465411 0.024440877 0.036601223 0.0327761 0.014106313 0.016971953 0.0053781453
00000000: 70bb 173d 02b5 d6bb bb4e 99bc 0c96 c13c
00000010: 7a08 283c 0f59 0d3d 556f 0e3d 0f55 aa3b
00000020: 6295 7c3c ecc3 54bb 3c38 c83c 2aeb 153d
00000030: 3b40 063d 2a1e 673c c408 8b3c 273b b03b

sage1.lin_r.weight f4 [16, 3703]
-0.017565425 -0.04242617 -0.016347349 0.023068521 0.004884211 0.017054962 0.013364742 0.01613855
0.020089008 -0.033322334 0.0020841025 0.026029544 -0.03133644 0.011705328 -0.017283304 0.034671906
0.024721727 -0.012253347 0.03603109 0.03360495 -0.031509932 -0.00024705078 0.027982697 0.015036948
-0.038394533 0.019915294 0.009787828 -0.007849794 -0.03040989 -0.038472295 -0.031069892 0.025813252
0.037214305 0.014577858 -0.02257521 -0.01738969 0.03328304 -0.014933911 0.027240891 0.01773405
-0.012348344 0.019487273 -0.044871002 -0.031407535 0.03205765 -0.016785283 0.035450693 -0.01881526
-0.004865379 -0.032778136 0.015560449 0.028200338 -0.008557976 0.0035820273 0.0044264537 0.023008563
-0.0015411626 0.004659537 -0.020452978 0.015247965 0.031204307 -0.006032261 0.0011125668 0.03464396
0.020124678 0.043607153 0.03899947 -0.0063924696 0.043733027 -0.013612348 -0.01702232 0.018457655
0.034577865 -0.013615156 -0.011232477 0.013309559 -0.0108408285 0.017448004 0.028006813 -0.0130102355
-0.012539447 0.018847372 -0.027071908 -0.01975201 0.023850145 0.040872395 0.023794001 0.0051648743
0.016852943 0.012508089 -0.018302394 0.0073555754 0.030386798 0.0056561865 0.04099927 0.001411777
-0.026634144 -0.017430872 -0.006180647 -0.016197905 -0.021211617 -0.0014698813 -0.032343097 -0.01968417
0.023115361 -0.014085422 0.01790221 0.044416353 -0.035186205 0.0215412 -0.00500497 0.03973272
-0.032265462 -0.021499742 -0.010434613 0.013467273 0.009795548 -0.03639689 0.029048845 -0.030350318
-0.018648887 -0.004281968 0.010087292 0.034047056 0.016594583 0.03392765 0.0152519345 0.034987625
0.011944882 0.0005752337 0.02584768 0.015033022 -0.0036578947 0.013838105 0.030605957 0.021540344
0.019373232 0.0013478067 0.030438963 -0.018337473 -0.041407287 0.043694533 0.006135471 -0.015152134
0.020664481 0.011170857 0.024861012 0.021946136 -0.022327017 0.018344868 0.011902349 0.015070425
-0.012741486 0.009389735 0.0015866188 -0.01034987 -0.014999198 -0.030782081 0.02388397 0.033710275
0.030606885 0.019582078 -0.003867867 -0.041982878 0.025904642 -0.03476424 -0.015346116 -0.018385906
0.018055521 0.011556087 -0.004384863 -0.0152659025 -0.013853125 0.033674136 -0.022723258 -0.022992048
-0.015041105 0.033432037 -0.028516352 0.017713644 -0.033227354 -0.0006584693 0.016225625 0.0064769518
-0.0033180541 -0.02242886 0.024456417 0.03331694 -0.042298846 0.015110407 0.024551492 -0.010835348
-0.016696703 -0.008588634 -0.023729704 0.007771566 0.010873128 0.031188559 -0.01629761 -0.03419743
-0.027507197 -0.0034486111 0.04371491 -0.008495422 0.001889301 0.03240731 0.024537422 -0.014550043
0.011245875 0.015141456 0.018753918 0.030944372 -0.034594197 -0.012457302 0.02967785 0.019626077
0.037035063 0.01456269 -0.022131514 0.008126659 -0.016346298 -0.014756991 -0.026519433 -0.0015299921
-0.021161038 -0.016192736 0.008135437 -0.02370834 -0.005111061 -0.03429209 0.04403871 -0.043947674
0.030863607 -0.01226812 0.041680347 0.0002040281 -0.03437329 0.04190962 0.0036638617 0.0024426514
0.031141367 0.00025708153 0.01787964 0.017798448 0.014971504 0.03997211 0.009548464 0.022381917
0.03569547 0.016241359 0.025137959 0.0011220877 -0.029579083 0.029254783 -0.034953803 -0.02684796
00000000: 5ee5 8fbc 10c7 2dbd e0ea 85bc 32fa bc3c
00000010: bb0b a03b d9b6 8b3c caf7 5a3c fe34 843c
00000020: b491 a43c 007d 08bd 7095 083b e93b d53c
00000030: a45a 00bd b4c7 3f3c b795 8dbc 2104 0e3d
00000040: 3885 ca3c 43c2 48bc 5695 133d 58a5 093d
00000050: 8f10 01bd 9886 81b9 f83b e53c 885d 763c
00000060: 9643 1dbd 6625 a33c 205d 203c 6c9c 00bc
00000070: 291e f9bc 2095 1dbd 4986 febc 5076 d33c
00000080: 076e 183d f8d7 6e3c a6ef b8bc d374 8ebc
00000090: cc53 083d 5dad 74bc 4a28 df3c 0047 913c
000000a0: b550 4abc c6a3 9f3c a8ca 37bd 30a5 00bd
000000b0: e24e 033d 4a81 89bc bf34 113d 7622 9abc
000000c0: c26d 9fbb 5e42 06bd 41f1 7e3c 6504 e73c
000000d0: c136 0cbc 72c0 6a3b c90b 913b 747c bc3c
000000e0: d600 caba 08af 983b 018d a7bc 9ad2 793c
000000f0: 2da0 ff3c 46aa c5bb 8cd3 913a d3e6 0d3d
00000100: 82dc a43c 6a9d 323d e9bd 1f3d ec77 d1bb
00000110: 6721 333d 5306 5fbc 6472 8bbc 8234 973c
00000120: 85a1 0d3d 1a12 5fbc 6c08 38bc 5610 5a3c
00000130: bb9d 31bc 1eef 8e3c 8b6e e53c e228 55bc
00000140: 4172 4dbc ce65 9a3c e8c5 ddbc f8ce a1bc
00000150: 6161 c33c d069 273d a3eb c23c 1b3e a93b
00000160: 2f0f 8a3c baee 4c3c e7ee 95bc 0a07 f13b
00000170: bced f83c 8857 b93b daee 273d 600b b93a
00000180: d92f dabc 30cb 8ebc 0687 cabb 78b1 84bc
00000190: fcc3 adbc 08a9 c0ba 327a 04bd b240 a1bc
000001a0: 6d5c bd3c 8bc6 66bc a8a7 923c eced 353d
000001b0: 691f 10bd 2c77 b03c bb00 a4bb c7be 223d
000001c0: ca28 04bd 3a20 b0bc f0f5 2abc d6a5 5c3c
000001d0: 827d 203c e814 15bd d8f7 ed3c 3ba1 f8bc
000001e0: 8dc5 98bc c04f 8cbb 2b45 253c ed74 0b3d
000001f0: 5df1 873c b8f7 0a3d 40e3 793c 2f4f 0f3d
00000200: 77b4 433c 48cb 163a 84be d33c 104d 763c
00000210: 4ab9 6fbb 38b9 623c 58b9 fa3c 6075 b03c
00000220: 9db4 9e3c e3a8 b03a 225b f93c 7838 96bc
00000230: b09a 29bd 0af9 323d 100c c93b a840 78bc
00000240: 8f48 a93c f805 373c 52a9 cb3c 62c8 b33c
00000250: 26e7 b6bc fa47 963c 1202 433c f2e9 763c
00000260: aac1 50bc 67d7 193c 18f6 cf3a 8092 29bc
00000270: 32bf 75bc b42a fcbc 51a8 c33c c913 0a3d
00000280: 4abb fa3c 986a a03c 0a7c 7dbb 3df6 2bbd
00000290: f935 d43c f364 0ebd 476e 7bbc 0a9e 96bc
000002a0: 2ce9 933c be55 3d3c e6ae 8fbb d61d 7abc
000002b0: 38f8 62bc e4ed 093d 2026 babc d259 bcbc
000002c0: f86e 76bc 08f0 083d 209b e9bc 341c 913c
000002d0: 6819 08bd 209d 2cba 9aeb 843c 9c3c d43b
000002e0: b673 59bb bbbc b7bc d358 c83c 5877 083d
000002f0: 8e41 2dbd a491 773c 3620 c93c be86 31bc
00000300: 86c7 88bc 58b7 0cbc cc64 c2bc 9fa8 fe3b
00000310: 3425 323c 267f ff3c 9182 85bc 9b12 0cbd
00000320: c656 e1bc 1802 62bb 680e 333d 6230 0bbc
00000330: 6ca2 f73a 87bd 043d b402 c93c 4e63 6ebc
00000340: 9e40 383c df13 783c d1a1 993c 0d7f fd3c
00000350: a5b2 0dbd b619 4cbc f61e f33c dec6 a03c
00000360: 14b2 173d 5998 6e3c 264d b5bc ae25 053c
00000370: ace8 85bc 4ec7 71bc 483f d9bc 048a c8ba
00000380: ea59 adbc a1a6 84bc 7f4a 053c fe37 c2bc
00000390: b07a a7bb dd75 0cbd ef61 343d 7a02 34bd
000003a0: add5 fc3c 3a00 49bc 03b9 2a3d 60f0 5539
000003b0: 02cb 0cbd 6ca9 2b3d 661d 703b e414 203b
000003c0: 2e1c ff3c e6c8 8639 5378 923c 0dce 913c
000003d0: 0a4b 753c ccb9 233d 2971 1c3c 485a b73c
000003e0: 6a35 123d 990c 853c 1fee cd3c 0413 933a
000003f0: d54f f2bc baa7 ef3c b82b 0fbd 41f0 dbbc

sage2.lin_l.weight f4 [6, 16]
-0.13516729 0.22250424 0.13258728 -0.17847683 -0.24591482 -0.1131896 -0.038195435 -0.23675053
0.07382318 0.20701416 -0.016181737 -0.23289064 -0.17812747 -0.054479416 0.07536162 -0.007875694
-0.21819238 -0.13201307 -0.22548294 0.24530989 0.10795421 -0.112346075 0.16490217 -0.15700601
-0.15236102 0.03659125 -0.18522045 -0.18835442 0.0042454274 -0.14202419 0.21688883 0.19781145
-0.17259213 -0.06645005 -0.17545946 -0.077429496 -0.09376834 0.033248045 0.21682808 -0.17263494
-0.08346249 0.076123275 -0.04846166 -0.21302998 0.24110354 0.23092282 0.20030338 0.0140540395
0.08615138 -0.04180201 0.061527584 0.08547512 -0.038226414 -0.0395784 0.1371019 -0.08160688
-0.23155846 -0.06469318 -0.11141108 0.18535265 0.2538915 0.19787398 0.0019059507 -0.028674899
-0.06240367 0.045119733 -0.12668517 0.026370939 -0.005789467 0.09188004 0.085259795 0.0099419905
0.02807495 -0.074838206 0.1708651 0.119187705 -0.26064858 -0.13016179 -0.18926395 0.016073382
-0.16137283 0.20627105 0.22973803 -0.0683542 0.05661524 0.1154797 -0.09267128 -0.049237855
-0.055666294 -0.21652098 0.17033245 0.12149574 -0.029483851 0.21821786 0.18318078 -0.23910388
00000000: 4b69 0abe 27d8 633e f6c4 073e a1c2 36be
00000010: 18d1 7bbe f3cf e7bd d172 1cbd bb6e 72be
00000020: 9b30 973d 85fb 533e 908f 84bc e27a 6ebe
00000030: 0c67 36be cf25 5fbd 3157 9a3d 0e09 01bc
00000040: d36d 5fbe 6f2e 07be 00e5 66be 8432 7b3e
00000050: 1917 dd3d b315 e6bd 1ddc 283e 2fc6 20be
00000060: 8704 1cbe b5e0 153d 6eaa 3dbe fbdf 40be
00000070: 3a1d 8b3b ca6e 11be 1b18 5e3e 168f 4a3e
00000080: febb 30be f716 88bd a5ab 33be 5b93 9ebd
00000090: 9e09 c0bd 1a2f 083d 2e08 5e3e 37c7 30be
000000a0: 62ee aabd 85e6 9b3d bc7f 46bd 8824 5abe
000000b0: d9e3 763e 0877 6c3e 541c 4d3e ea42 663c
000000c0: 2270 b03d 9638 2bbd 5904 7c3d 940d af3d
000000d0: 4d93 1cbd f61c 22bd 7164 0c3e 8221 a7bd
000000e0: a91d 6dbe dc7d 84bd 7e2b e4bd 16cd 3d3e
000000f0: 11fe 813e 7a9f 4a3e 18d1 f93a 9fe7 eabc
00000100: fe9a 7fbd 78cf 383d c2b9 01be de07 d83c
00000110: 92b5 bdbb 9a2b bc3d b09c ae3d bbe3 223c
00000120: 70fd e53c c644 99bd 43f7 2e3e af18 f43d
00000130: bb73 85be 2249 05be 69ce 41be 53ac 833c
00000140: eb3e 25be b838 533e 7240 6b3e 49fd 8bbd
00000150: 62e5 673d 9f80 ec3d 71ca bdbd a2ad 49bd
00000160: 5702 64bd adb7 5dbe a16b 2e3e c2d2 f83d
00000170: 1e88 f1bc 8174 5f3e be93 3b3e a6d7 74be

sage2.lin_l.bias f4 [6]
0.16522247 0.08772555 -0.09935838 0.25403035 0.11301892 -0.10811479
00000000: 1430 293e 74a9 b33d 687c cbbd 4410 823e
00000010: 7776 e73d 496b ddbd

sage2.lin_r.weight f4 [6, 16]
-0.1661228 -0.035679013 0.09097853 -0.08619352 0.14679909 -0.05994693 -0.039278988 0.18241517
-0.14663006 0.1019999 -0.26203287 -0.07581247 -0.025814313 -0.085171685 -0.19660187 0.1392137
-0.035487983 -0.10739217 -0.23015812 0.14579247 0.19021954 0.13333972 0.1935486 -0.136854
0.072279096 -0.111702606 0.015300157 0.08087137 -0.12221848 -0.14694801 -0.123253345 0.1862104
0.18052652 0.100429475 0.14081311 0.16696128 -0.16953357 -0.15111367 0.19362135 -0.13601607
0.2666791 0.1591436 0.20943621 -0.09067535 0.0537832 -0.012718805 0.016866118 0.1789431
-0.21521764 0.22581206 -0.08872173 0.06648931 -0.116748326 0.15502965 0.0995947 0.13504304
0.22786984 -0.0059718937 -0.08998105 -0.04649103 -0.16054165 -6.384123e-05 -0.053368483 0.24213667
0.1259281 -0.04419986 -0.1581115 -0.15855798 0.09648895 -0.14411753 -0.18666603 -0.18360864
-0.1301908 -0.04885968 0.05036763 -0.07437909 -0.02989336 -0.040271245 -0.23745224 0.20690864
-0.04464062 -0.06035068 0.17387286 0.27021825 -0.016209006 -0.15712269 -0.028224308 -0.21649882
-0.1211417 0.13341148 0.035313535 0.1717597 -0.23564874 0.19004025 0.089256465 -0.02438595
00000000: 181c 2abe 2824 12bd f452 ba3d 3a86 b0bd
00000010: 8052 163e e98a 75bd 01e3 20bd 0bcb 3a3e
00000020: 3126 16be 53e5 d03d 2c29 86be 9143 9bbd
00000030: 8a78 d3bc 7e6e aebd 0052 49be 098e 0e3e
00000040: d95b 11bd 6df0 dbbd 92ae 6bbe 9f4a 153e
00000050: e9c8 423e 358a 083e 9b31 463e 7423 0cbe
00000060: 1007 943d 56c4 e4bd 82ad 7a3c e49f a53d
00000070: af4d fabd 8a79 16be 406c fcbd f0ad 3e3e
00000080: f2db 383e f8ad cd3d 5031 103e e6f7 2a3e
00000090: 359a 2dbe 8bbd 1abe ad44 463e cc47 0bbe
000000a0: 2a8a 883e 8af6 223e 7276 563e ffb3 b9bd
000000b0: c64b 5c3d 8962 50bc d02a 8a3c dc3c 373e
000000c0: 0362 5cbe 473b 673e bdb3 b5bd 8c2b 883d
000000d0: bf19 efbd 18c0 1e3e 4ef8 cb3d b948 0a3e
000000e0: b656 693e e0af c3bb fc47 b8bd 616d 3ebd
000000f0: 0865 24be 80e2 85b8 e998 5abd adf2 773e
00000100: 4cf3 003e ea0a 35bd fbe7 21be 065d 22be
00000110: 009c c53d 8c93 13be 6125 3fbe e703 3cbe
00000120: bd50 05be 1621 48bd 4a4e 4e3d 1054 98bd
00000130: ebe2 f4bc 76f3 24bd ae26 73be dcdf 533e
00000140: 15d9 36bd 4632 77bd ba0b 323e 0c5a 8a3e
00000150: c0c8 84bc c5e4 20be aa36 e7bc deb1 5dbe
00000160: 2419 f8bd 059d 083e eda4 103d c6e1 2f3e
00000170: e74d 71be e999 423e 18cc b63d 0bc5 c7bc
