mutation/target_models/citeseer_gcn.pt (torch, 239071 bytes, 4 tensors)

conv1.bias f4 [16]
0	0xbabdff94	-0.0014495724
1	0xbbb5049e	-0.005524232
2	0x3d2b3278	0.041796178
3	0x3cf4bbbc	0.029874675
4	0x3d3061f2	0.043062158
5	0x3c8cdc81	0.017194988
6	0x3d10a427	0.035312798
7	0x3c464176	0.012100568
8	0x3c5a3812	0.013319032
9	0x3c7e473c	0.015519913
10	0x3d354fb8	0.04426548
11	0x3d2e9a0d	0.042627383
12	0x3c9f463a	0.019442666
13	0x3bc2e648	0.005947862
14	0x3d3c6a8e	0.046000056
15	0x3c6d767f	0.014493584

conv1.lin.weight f4 [16, 3703]
0	0x3d57b6f6	0.05266472
1	0x3db51c19	0.0884325
2	0xbd4667a7	-0.048438694
3	0x3d4c431b	0.049868684
4	0x3d6e8e02	0.058240898
5	0x3d016a4a	0.031595506
6	0x3d9b6ad0	0.07588732
7	0x3d65015c	0.0559095
8	0xbd260231	-0.040529434
9	0x3d0a3a34	0.033746913
10	0xbb52f182	-0.0032187407
11	0xbb5e89da	-0.0033956678
12	0xbcfd14f2	-0.030893777
13	0x3d1b95c0	0.03798461
14	0x3cb87fb6	0.022521835
15	0x3cbf99ac	0.023388706
16	0x3d0a6bfd	0.033794392
17	0x3bcb72cc	0.006208753
18	0xbc773190	-0.0150875
19	0xbcd16059	-0.025558637
20	0xbd0719f4	-0.032983735
21	0xbd288a4c	-0.041147515
22	0xbd6f571b	-0.05843268
23	0x3d4ec82b	0.050483864
24	0x3cb819ee	0.022473302
25	0xbd019e4f	-0.031645115
26	0xbb13b0be	-0.0022535766
27	0x3d6197e1	0.055076484
28	0xbb3ae415	-0.0028517295
29	0x3d6db21b	0.058031183
30	0x3d9a04de	0.075204596
31	0xbc2ced86	-0.010554677
32	0x3bf0fc07	0.0073542628
33	0xbcc28d52	-0.023749027
34	0xbce7d0ac	-0.028297745
35	0xbc4ba7cc	-0.012430143
36	0x3d3ce584	0.04611732
37	0x3d96d7a3	0.07365348
38	0x3c3f0d07	0.011660821
39	0x3ab0d754	0.0013491907
40	0x3db66c22	0.089073434
41	0x3be373ca	0.0069412934
42	0xbcf8d598	-0.030375287
43	0x3d850461	0.06494976
44	0x3d3e4da0	0.046460748
45	0xbc326c46	-0.010890072
46	0x3d5439e2	0.051813014
47	0xbd26adb5	-0.040693004
48	0xbc240d17	-0.0100128865
49	0x3d731dcb	0.059354585
50	0xbc561945	-0.013067548
51	0x3d29cc21	0.041454438
52	0x3d72b50a	0.059254684
53	0xbaff2350	-0.001946548
54	0x3a0e7008	0.0005433564
55	0x3d5dc8d6	0.05414661
56	0xbd60bee2	-0.05486954
57	0x3c3042ac	0.010758083
58	0x3d8b4b84	0.06801513
59	0x3db129a2	0.08650519
60	0x3c733301	0.014843703
61	0x3c71f108	0.014766939
62	0xbd39a710	-0.04532534
63	0x3cc3ebd6	0.023916166
64	0x3c315d7b	0.01082551
65	0x3d287f57	0.041137066
66	0x3cfbd3ab	0.03074058
67	0x3d379424	0.044819012
68	0x3d178898	0.0369955
69	0xbd215cf4	-0.039395288
70	0xbd88707d	-0.066620804
71	0xbc9de480	-0.019273996
72	0xbc18f776	-0.009336343
73	0x3bc43c70	0.00598865
74	0x3b277f48	0.0025558043
75	0x3dad5fa8	0.084655106
76	0xbce00ba3	-0.027349299
77	0x3ad79b78	0.0016449532
78	0xbcd2a033	-0.025711155
79	0x3d3d7b6a	0.046260275
80	0xb9541b40	-0.00020228047
81	0x3d62c54a	0.05536393
82	0xbcc5e9b8	-0.024159297
83	0x3cb9f732	0.02270088
84	0x3d2016b5	0.039084155
85	0x3ba02f83	0.0048884763
86	0x3c5dbcb8	0.013533764
87	0x3c09b76c	0.008405548
88	0x3c4f091a	0.012636447
89	0xbcd1254c	-0.02553048
90	0x3cfbcd8e	0.030737665
91	0x3bb8ec59	0.005643409
92	0xbd1f514a	-0.038895883
93	0xbd13a899	-0.03604946
94	0xbcbac019	-0.022796677
95	0xbd6c518a	-0.05769495
96	0xbd2301b3	-0.039796542
97	0x3b769506	0.0037625446
98	0x3d9cbe07	0.07653432
99	0x3a935238	0.0011239713
100	0xbd59f04f	-0.05320769
101	0xb90ce6fc	-0.00013437489
102	0x3d0c9046	0.034317277
103	0x3c1bb4b2	0.00950353
104	0x3c8bed2c	0.017080866
105	0x3c9c92af	0.019112913
106	0x3ce6ba19	0.02816491
107	0x3bfcc8ae	0.0077143526
108	0x3ca63154	0.020287193
109	0x3d94caa8	0.07265216
110	0xbc2f0a16	-0.010683557
111	0xbc900780	-0.017581701
112	0xbd4d75e7	-0.05016127
113	0xbab97bd8	-0.0014151288
114	0xbb46b938	-0.0030322801
115	0xbd0116c4	-0.03151585
116	0x3c299c75	0.010352244
117	0x3cebf1df	0.028801857
118	0x3da5900c	0.080841154
119	0xbc943fd6	-0.018096846
120	0x3b8f0866	0.004365015
121	0xbcad9c96	-0.02119283
122	0x3db0ec19	0.08638782
123	0x3d615eda	0.055022098
124	0xbce62e84	-0.028098352
125	0xbc3bb067	-0.011455632
126	0xbce0bb47	-0.02743305
127	0x3d6e8650	0.05823356
128	0xbc9fe309	-0.019517438
129	0x3d9ebd1d	0.07750914
130	0x3d15e9ae	0.036599807
131	0xbd2219da	-0.039575435
132	0x3a9e4290	0.001207428
133	0xbd7676cd	-0.06017189
134	0x3cef6faa	0.02922805
135	0xbd75df69	-0.060027514
136	0x3cd0e744	0.025500901
137	0x3d2bf903	0.041985523
138	0xbd0a49f1	-0.033761922
139	0x3b37641c	0.0027983254
140	0xbab89128	-0.0014081346
141	0xbd728a96	-0.059214197
142	0x3d54bb54	0.051936463
143	0xbd150943	-0.036385786
144	0xbbd72056	-0.006565134
145	0xbc2fe9d8	-0.010736905
146	0x3b764d54	0.0037582712
147	0xbd7897de	-0.060691707
148	0x3d668162	0.056275733
149	0xbb788b95	-0.0037924994
150	0x3d6ee15e	0.058320396
151	0xbd5c6675	-0.05380865
152	0x3ccee4e6	0.025255632
153	0xbc79c669	-0.015245059
154	0x3c02ddb9	0.007987433
155	0xbd0824e9	-0.033238325
156	0x3d696ec0	0.056990385
157	0x3cebbb14	0.02877573
158	0x3d7bfbf7	0.06151959
159	0x3d6ea4ba	0.058262564
160	0x3c20e7c8	0.009820886
161	0x3b4a05f6	0.0030826307
162	0xbcba7375	-0.022760132
163	0x3bf4ffc6	0.0074767796
164	0xbce4a79c	-0.027911954
165	0xbc0857fe	-0.00832176
166	0xbb8aa2e0	-0.004230842
167	0x3d87e3f2	0.06635274
168	0xbbbd5984	-0.0057784934
169	0xbb64fe50	-0.003494162
170	0x3a2ebcf0	0.0006665727
171	0x3c07d520	0.008290559
172	0x3c9269e6	0.017872762
173	0x3d3398a3	0.043846738
174	0x3da78594	0.08179775
175	0x3c9fdbfc	0.019514076
176	0x3b2f88ce	0.0026784423
177	0x3d28b40a	0.041187324
178	0xbb3a0616	-0.0028384975
179	0xbc34393b	-0.010999973
180	0xbbad8bd3	-0.0052962094
181	0xbd23bfbf	-0.039977785
182	0x3d8fddb4	0.070247084
183	0x3c29787d	0.010343668
184	0xbc334a20	-0.010942966
185	0xbc849ee0	-0.016189039
186	0xbce057ec	-0.027385674
187	0xbab1b41a	-0.0013557703
188	0x3ce40042	0.027832154
189	0x3d11a834	0.0355608
190	0xbbf09e0a	-0.0073430585
191	0x3d819a8b	0.06328305
192	0x3d6a33ed	0.057178427
193	0x3bf5ac50	0.007497348
194	0x3ad6544a	0.0016352024
195	0x3d4003a5	0.046878476
196	0x3ceec41a	0.029146243
197	0x3cc53ae8	0.02407594
198	0x3d31bcf5	0.043393094
199	0x3d89ec30	0.06734502
200	0x3d842129	0.06451637
201	0x3d861f06	0.06548886
202	0x3cf20e52	0.029547844
203	0x3d27dbd2	0.04098112
204	0xbd01801a	-0.031616308
205	0x3be44b79	0.006967005
206	0x3d1cc090	0.03826958
207	0x3d12d2b0	0.03584546
208	0xbc68ac55	-0.014201243
209	0x3cd75d5f	0.02628964
210	0x3c851b50	0.016248375
211	0x3c9b42f4	0.018952824
212	0xbd217418	-0.039417356
213	0x3c65a634	0.014016677
214	0x3d2d3c77	0.042293992
215	0x3d4cbbbe	0.049983732
216	0xbc32169f	-0.010869651
217	0xbc7c0fb6	-0.015384605
218	0x3d502ce8	0.050824076
219	0xbbde2f78	-0.006780561
220	0x3b8f4046	0.0043716757
221	0xbca8388b	-0.020534774
222	0xba294f08	-0.0006458615
223	0x3d012d5e	0.031537406
224	0x3d09e7b9	0.033668254
225	0xba9e0668	-0.0012056353
226	0x3b91ca34	0.0044491533
227	0x3cc8993f	0.024487136
228	0x3d597ca7	0.053097393
229	0xbcf6d3d1	-0.030130299
230	0xbcc7c2cc	-0.024384879
231	0xbc5273d9	-0.012845003
232	0x3d9b7b75	0.07591907
233	0x3db1fab8	0.08690399
234	0xbd4b59eb	-0.0496463
235	0x3cf4d19a	0.029885102
236	0x3d60229d	0.05472051
237	0xbcd19d7e	-0.025587793
238	0xbccc5e4c	-0.024947308
239	0x3c18a510	0.009316698
240	0x3d7d00eb	0.061768454
241	0xbca5099c	-0.020146184
242	0xbcc0972f	-0.02350959
243	0x3cf4772a	0.029841978
244	0x3d450c34	0.04810734
245	0x3b4f9616	0.0031675152
246	0xbc73e891	-0.014886991
247	0x3d91c885	0.07118324
248	0x3d1cfb66	0.03832569
249	0xbce8e0e1	-0.028427543
250	0x3b8f1712	0.004366764
251	0xbc3b30af	-0.011425181
252	0xbc69a04c	-0.014259409
253	0x3d11d625	0.035604615
254	0x3d89f6b1	0.06736506
255	0xbc9cba23	-0.019131726

conv2.bias f4 [6]
0	0xbd32d794	-0.043662623
1	0x3cdb0664	0.026736446
2	0x3d31bac0	0.04339099
3	0x3d4546ce	0.048163228
4	0xbcc40b3f	-0.023931144
5	0xbc90e0b7	-0.017685277

conv2.lin.weight f4 [6, 16]
0	0x3efed807	0.4977419
1	0x3d020b62	0.031749137
2	0x3e1c6023	0.15271048
3	0xbef69ad4	-0.48165
4	0xbf0e4f34	-0.55589604
5	0x3c81b445	0.01583303
6	0xbc9fcba8	-0.01950629
7	0x3ed882b6	0.42287225
8	0x3e03220c	0.12805957
9	0x3e7df88b	0.24801843
10	0xbe91f5bc	-0.28507793
11	0xbe5362de	-0.20643184
12	0x3ea1b134	0.31580508
13	0x3edbff08	0.4296801
14	0xbf0df24e	-0.5544785
15	0x3e9d1fbf	0.30688283
16	0x3ea090c4	0.31360447
17	0xbe609fc0	-0.2193594
18	0x3e96181e	0.29315275
19	0x3d10c516	0.035344206
20	0xbcb14d66	-0.021643352
21	0xbe9993ae	-0.29995483
22	0xbedecfec	-0.43518007
23	0x3e9c43cd	0.30520478
24	0xbc995303	-0.01871634
25	0xbe9c30bd	-0.30505934
26	0x3d9a6704	0.0753918
27	0x3de08e8b	0.10964688
28	0xbd550b14	-0.052012518
29	0xbeeece1b	-0.4664162
30	0x3e5eb814	0.21749908
31	0x3c7c113a	0.0153849665
32	0x3ca96e8e	0.0206826
33	0x3dd34678	0.10316175
34	0x3eb1f4d7	0.3475711
35	0xbe4712be	-0.19440743
36	0xbad20f50	-0.0016026292
37	0x3ef3fd34	0.47654116
38	0x3e4b11c5	0.19830997
39	0x3ef4deed	0.4782633
40	0xbdb7cc51	-0.08974517
41	0x3e19267d	0.14956088
42	0x3ede869b	0.4346207
43	0xbec11b54	-0.37716162
44	0xbf0e1cdc	-0.55512786
45	0xbf07117e	-0.52761066
46	0xbe557fa3	-0.20849471
47	0xbe1c8bcd	-0.15287705
48	0xbe71c34c	-0.23609656
49	0xbef69bff	-0.4816589
50	0xbcfb237c	-0.030656569
51	0xbdb97b91	-0.090567715
52	0xbdb0d92d	-0.08635173
53	0xbe44b6a8	-0.19210303
54	0x3e932bcc	0.28744352
55	0xbedf87d2	-0.4365831
56	0xbf026ff7	-0.50952095
57	0x3e141a17	0.14463077
58	0x3e2dfe22	0.16991475
59	0x3ecb0b26	0.39656943
60	0x3e1fda2a	0.15610567
61	0x3ec9ad07	0.39389822
62	0xbdad2e28	-0.08456069
63	0x3e8d18b8	0.2755792
64	0x3ed53daf	0.41648623
65	0x3b6b9c0c	0.0035951165
66	0xbeaa9676	-0.33317918
67	0x3ec42b16	0.38314122
68	0xbcffca7a	-0.031224478
69	0xbe1a8eb3	-0.15093498
70	0x3f03e142	0.5151559
71	0x3e69026c	0.2275483
72	0x3efbbc46	0.4916708
73	0xbe29e602	-0.16591647
74	0xbd7adc14	-0.06124504
75	0x3e11fc54	0.14256412
76	0xbebfdc8e	-0.37472957
77	0x3dcf3ead	0.10119376
78	0xbe1001cc	-0.14063185
79	0x3ebc1ab4	0.36739123
80	0x3ea00234	0.3125168
81	0x3d632cc8	0.05546263
82	0x3e1003ec	0.14063996
83	0xbebb4e78	-0.36583304
84	0x3e89df15	0.2692801
85	0x3e22f5cb	0.15914075
86	0xbec650a6	-0.38733405
87	0xbeb31909	-0.34980038
88	0x3ebe0d47	0.37119505
89	0xbcfd97ae	-0.030956116
90	0xbf0c2060	-0.547369
91	0x3db42db1	0.087977774
92	0xbeb20f97	-0.3477752
93	0x3edff17b	0.43738922
94	0x3d0ae7b5	0.03391238
95	0x3e45f95a	0.19333401
