mutation/target_models/citeseer_gat.pt (torch, 953039 bytes, 10 tensors)

gat1.att_src f4 [1, 4, 16]
0	0xbeb8bd04	-0.36081707
1	0x3ec99288	0.39369607
2	0xbec7c529	-0.3901761
3	0xbed4d144	-0.41565907
4	0x3f000e17	0.500215
5	0x3dfe77bd	0.12425182
6	0xbdb726f0	-0.089429736
7	0xbe86e196	-0.26343983
8	0xbf00207f	-0.50049585
9	0xbe0d3370	-0.13789153
10	0xbe794270	-0.2434175
11	0xbea67c50	-0.32516718
12	0x3e64b62b	0.22335117
13	0xbedaa6ac	-0.42705286
14	0x3eb9f3b7	0.36318752
15	0x3ee3ae56	0.44468945
16	0xbe174a42	-0.14774421
17	0x3e9ae18b	0.302502
18	0xbef4a703	-0.4778367
19	0xbe04dbe6	-0.1297451
20	0xbd5c25de	-0.05374705
21	0x3e88e4cf	0.26737067
22	0xbeed16a1	-0.46306327
23	0xbd6e7950	-0.05822116
24	0xbcf46522	-0.02983338
25	0xbe80503c	-0.25061214
26	0x3db83a43	0.089954875
27	0xbec8e50d	-0.39237252
28	0x3d9a483d	0.075333096
29	0x3e8cd00d	0.2750248
30	0xbd96e6dd	-0.073682524
31	0xbeac3d93	-0.33640727
32	0xbd7d6235	-0.061861236
33	0xbf029dc2	-0.5102197
34	0xbefa91fe	-0.48939508
35	0x3f010e24	0.504122
36	0x3eea8abb	0.45808968
37	0xbe4a4121	-0.19751407
38	0xbf00386b	-0.50086087
39	0x3ea8838f	0.3291287
40	0x3ead38ad	0.33832303
41	0xbe1dfec1	-0.15429212
42	0x3e2fef8a	0.1718122
43	0xbe3c832c	-0.18409413
44	0x3e606532	0.21913603
45	0x3ecd9922	0.40155894
46	0x3eadb49a	0.3392685
47	0x3d258a40	0.04041505
48	0x3ef8f61c	0.48625267
49	0xbe8ddd24	-0.2770778
50	0x3e6afd22	0.22948125
51	0xbe9d2d8c	-0.30698812
52	0x3dd7190d	0.10502825
53	0x3dba87a9	0.09107906
54	0xbdc0b864	-0.0941017
55	0xbe740fea	-0.23834196
56	0x3e9bbe68	0.30418706
57	0x3e758dd9	0.23979892
58	0xbf037a94	-0.51358914
59	0xbefb02c2	-0.49025542
60	0x3ef4d5dc	0.47819412
61	0x3effd3b2	0.49966198
62	0xbdee822c	-0.11645922
63	0x3ce23c86	0.02761675

gat1.att_dst f4 [1, 4, 16]
0	0xbe734251	-0.23755766
1	0xbca5ef05	-0.020255575
2	0xbe1819b3	-0.14853553
3	0x3e3518b1	0.176852
4	0x3ea77d56	0.3271281
5	0xbe814e87	-0.25255224
6	0xbea82f19	-0.32848433
7	0xbea7548b	-0.3268169
8	0x3e77d194	0.24201041
9	0xbf040319	-0.51567227
10	0xbf06a274	-0.52591634
11	0xbd2cd7a0	-0.042197824
12	0x3e535440	0.20637608
13	0x3ed8187c	0.4220618
14	0xbe939337	-0.28823254
15	0xbe9d887d	-0.30768195
16	0x3e8e6247	0.27809355
17	0x3e9a95b5	0.30192342
18	0x3ede7827	0.43451044
19	0xbee3983f	-0.44452092
20	0xbe9b1492	-0.3028913
21	0x3eff5336	0.49868172
22	0xbee9898b	-0.4561275
23	0x3e8f99c9	0.28047016
24	0xbec5ed20	-0.38657475
25	0xbe64f7da	-0.22360173
26	0x3ef18cd0	0.47177744
27	0xbbb058c0	-0.0053816736
28	0xbee44af3	-0.44588432
29	0xbf04ad07	-0.5182652
30	0x3e078acf	0.13236545
31	0x3d3e4fe7	0.04646292
32	0xbe33eec1	-0.17571546
33	0xbe0cd283	-0.13752179
34	0x3eb636dc	0.3558873
35	0xbe98e245	-0.2986013
36	0x3d52aca5	0.051434178
37	0xbea17978	-0.31537986
38	0x3e416680	0.18886757
39	0xbdfe43e1	-0.124152906
40	0x3e44e06e	0.19226238
41	0x3e2efe09	0.17089094
42	0xbccfded6	-0.025374811
43	0xbd481f7a	-0.048858143
44	0xbe717aa2	-0.23581937
45	0x3ebf031c	0.3730706
46	0x3dae18ce	0.08500825
47	0x3ebf6238	0.37379622
48	0x3ec6c312	0.38820702
49	0xbe73384b	-0.23751943
50	0x3ddcb1d9	0.10776109
51	0xbecfd6e7	-0.40593645
52	0xbd0be65b	-0.03415523
53	0x3d09dde4	0.033658877
54	0x3eaa8d77	0.33311054
55	0xbdc2b0f5	-0.09506408
56	0xbf008ec7	-0.5021786
57	0xbef48447	-0.4775717
58	0xbe8cdafa	-0.27510816
59	0xbd38c1db	-0.04510675
60	0xbed4af08	-0.41539788
61	0x3eaeb59b	0.3412293
62	0x3e04280e	0.12905905
63	0xbe692742	-0.22768882

gat1.bias f4 [64]
0	0x3c93d54e	0.018046048
1	0xbc09bca0	-0.008406788
2	0xbb3b8360	-0.002861224
3	0xbb3bafa4	-0.0028638626
4	0xbb81fad0	-0.0039666668
5	0xbc688b98	-0.014193438
6	0x3c9f69ae	0.019459572
7	0x3c99b244	0.018761761
8	0x3c9ecc02	0.019384388
9	0x3c90d334	0.017678834
10	0x3ca0e0a6	0.01963837
11	0xbbd67a32	-0.0065453285
12	0x3c944576	0.018099528
13	0x3c849054	0.016182102
14	0xbc80b3f2	-0.015710805
15	0xbb870a58	-0.004121106
16	0x3ca02e74	0.0195534
17	0x3ca3b78a	0.01998498
18	0x3c9d2bab	0.019185862
19	0x3c906074	0.017624117
20	0x3c9c25d8	0.019061014
21	0xbbbded1d	-0.0057960884
22	0xbc2794ff	-0.0102283945
23	0x3c96784e	0.018367913
24	0xbbcd8140	-0.0062715113
25	0x3c97e5d2	0.018542204
26	0xbb80e97c	-0.0039340835
27	0x3c91d8f2	0.017803643
28	0xbb494422	-0.0030710776
29	0x3c91e176	0.017807703
30	0xbc71c9c2	-0.0147575755
31	0x3c9d41a4	0.019196339
32	0xbc78948e	-0.015172137
33	0x3ca3cf26	0.019996237
34	0x3c90610c	0.0176244
35	0xbc0a37ea	-0.0084361825
36	0x3ca102b8	0.019654617
37	0xbc520036	-0.012817433
38	0x3c948db8	0.018133983
39	0xbbbec97e	-0.0058223596
40	0xbc0f25f7	-0.008737079
41	0x3c91b946	0.01778854
42	0xbc6a5c82	-0.014304282
43	0xbba33c57	-0.0049815583
44	0xbc0d0017	-0.008605978
45	0x3c8ffdc4	0.01757706
46	0x3ca356d7	0.01993887
47	0xbb947e0e	-0.0045316285
48	0xbc339c05	-0.010962491
49	0xbb2934f6	-0.002581892
50	0xbb286522	-0.0025695045
51	0xbc1e46a8	-0.0096604
52	0xbb314834	-0.0027051093
53	0xbc71c362	-0.014756056
54	0xbb720b44	-0.0036932984
55	0x3ca2f75e	0.019893344
56	0xbb76c3f6	-0.0037653423
57	0x3c99fa48	0.018796101
58	0xbba00825	-0.0048837834
59	0xbb292090	-0.0025806762
60	0xbb4bd812	-0.003110413
61	0xbc7951e2	-0.015217276
62	0xbb4575a2	-0.003012993
63	0x3ca0602c	0.019577108

gat1.lin_src.weight f4 [64, 3703]
0	0x3cd91962	0.026501361
1	0x3d236db5	0.039899547
2	0xbce8ade8	-0.028403237
3	0x3cce2db8	0.025168285
4	0xbc810c78	-0.015753016
5	0xbbfde786	-0.007748547
6	0xbb80840e	-0.003921992
7	0x3c997384	0.01873184
8	0xbd150bba	-0.036388136
9	0x3b6aa4a0	0.003580369
10	0x3c96d6a6	0.0184129
11	0x3cf0b316	0.02938227
12	0xbca5c6f4	-0.02023647
13	0xba8f52f8	-0.0010934761
14	0xbc835251	-0.016030462
15	0x3d2eecb5	0.04270621
16	0xbc874152	-0.01651064
17	0x3c5b0b6a	0.013369421
18	0xbc29800e	-0.010345472
19	0x3d055860	0.032554984
20	0x3c5c8bf8	0.0134611055
21	0xbcfbf642	-0.030757073
22	0xbbdb6b86	-0.0066961674
23	0xbc15c8e2	-0.0091421325
24	0x3cc785d8	0.024355814
25	0x3c67c5c6	0.014146274
26	0x3d23a609	0.039953265
27	0xbc5bcfe1	-0.013416261
28	0x3b51c840	0.0032010227
29	0xbd06be37	-0.032896247
30	0x3bf24b64	0.007394241
31	0x3d226044	0.039642587
32	0x3c92d497	0.017923636
33	0xbca8af50	-0.020591408
34	0xbbea8488	-0.0071569122
35	0xbcb5478b	-0.02212884
36	0x3ba6de98	0.005092453
37	0xbd341f7e	-0.043975346
38	0x3b67eea4	0.0035390044
39	0x3b876628	0.004132051
40	0x3d541cc4	0.051785246
41	0x3d5c3248	0.05375889
42	0xbc6311cf	-0.013859226
43	0x3bf2b31c	0.0074066054
44	0xbb0a39ec	-0.0021091653
45	0x3ce11920	0.0274778
46	0x3bf80862	0.0075693587
47	0x3cb8095c	0.0224654
48	0x3ca68cb4	0.020330764
49	0xbc282372	-0.010262357
50	0x3c094978	0.008379333
51	0xbd3ec0ba	-0.046570517
52	0x3a643d00	0.00087065995
53	0xbd182783	-0.037147056
54	0x3c4d5ebc	0.0125347935
55	0xbc8a3cd6	-0.016874712
56	0x3c559a64	0.013037298
57	0xbb880d7a	-0.004151997
58	0x3c9e755a	0.019343067
59	0xbc8f99ec	-0.01752945
60	0x3b7a3a2e	0.003818165
61	0xbd129866	-0.03578987
62	0x3b776871	0.003775146
63	0x3c888ee6	0.016669702
64	0xbc87cc5c	-0.016576938
65	0x3ce01128	0.02735193
66	0xbc9efa02	-0.019406322
67	0xbb3df5e8	-0.0028985683
68	0xb98822e0	-0.00025965925
69	0xbc4114df	-0.011784761
70	0xbc6ef4a9	-0.014584699
71	0xbc0db705	-0.008649592
72	0x3d53372e	0.051566295
73	0xbb8e2953	-0.0043384223
74	0x3ae44698	0.0017416058
75	0x3d13750e	0.036000304
76	0x3b8ee96f	0.0043613235
77	0x3d38d18f	0.045121726
78	0xbc5b50e2	-0.013385983
79	0xbd435063	-0.047684085
80	0x3c595638	0.013265185
81	0xbc687aad	-0.014189404
82	0x3d2837ee	0.041068964
83	0x3a8be7b0	0.0010673907
84	0xbc2b497f	-0.010454535
85	0x3d48c1bf	0.049012896
86	0x3c588b12	0.013216751
87	0x3cf134dc	0.02944415
88	0x3c14df46	0.009086436
89	0xbd56ddb7	-0.052457538
90	0xbae10db8	-0.0017170226
91	0x3bf763e6	0.0075497506
92	0x3c75281b	0.014963175
93	0xbcb104fe	-0.021608826
94	0x3ae78228	0.0017662691
95	0x3bdc3ef6	0.0067213727
96	0xbb86f130	-0.0041181073
97	0x3d0b9b8b	0.034083884
98	0xbc529b53	-0.012854415
99	0xbbf32dfe	-0.007421254
100	0x3c8a4ae5	0.016881416
101	0xbd13d7f9	-0.03609464
102	0x3ca4ac82	0.02010179
103	0xbd20f793	-0.039298605
104	0xbb91c45e	-0.0044484576
105	0x3cf86744	0.030322678
106	0x3ca82ce3	0.020529216
107	0xba53a304	-0.00080733025
108	0x3c6e45ba	0.014542991
109	0x3c29f82c	0.01037411
110	0x3c564bd9	0.013079607
111	0x3af73178	0.0018859347
112	0xbc80178e	-0.015636232
113	0x3c754517	0.014970086
114	0xbcf0a0e2	-0.02937359
115	0xbd4781ce	-0.048707776
116	0xbbe24fdc	-0.0069064926
117	0x3c9ca68e	0.019122388
118	0xbc8964f0	-0.016771764
119	0x3c09b7b2	0.008405613
120	0xbcb60f2b	-0.02222403
121	0xbd350a80	-0.044199467
122	0x3c184629	0.009294071
123	0x3d441209	0.047868762
124	0xbc79efbc	-0.015254911
125	0x3ce1dbce	0.027570631
126	0xbbb7a21a	-0.005604041
127	0xbc8af226	-0.016961168
128	0x3c6231fc	0.0138058625
129	0x3bb41856	0.005496065
130	0xbcd5eb9e	-0.026113328
131	0x3c77cc82	0.015124442
132	0x3c2eeb9c	0.010676291
133	0x3cee12fd	0.029061789
134	0x3cf2848a	0.029604215
135	0xbd3e6776	-0.046485387
136	0x3a885390	0.001040088
137	0x3b289b4a	0.0025727325
138	0x3b747430	0.0037300698
139	0xbcf4167a	-0.029795874
140	0xba335b10	-0.00068418775
141	0x3a5d4560	0.00084408186
142	0xbd52e91a	-0.051491834
143	0x3cfe2b00	0.031026363
144	0x3c9a3c92	0.01882771
145	0x3c598e5e	0.013278572
146	0x3c34050d	0.010987532
147	0x3cac371a	0.021022368
148	0xbd00d788	-0.031455547
149	0xbc85e3b0	-0.016343921
150	0x3cce0a1a	0.025151301
151	0xbc583de4	-0.01319835
152	0x3a721960	0.00092353486
153	0x3b567b00	0.0032727122
154	0x3d02da4e	0.031946473
155	0xbc583933	-0.013197231
156	0xbb499af8	-0.0030762535
157	0x3c214203	0.009842399
158	0x3b94aa5b	0.0045369095
159	0x3c2e3291	0.010632173
160	0x3d2e03f4	0.04248424
161	0x3c9b2ea5	0.01894314
162	0xbb299fc8	-0.002588259
163	0x3cead0e8	0.028664067
164	0xbca63103	-0.020287042
165	0xbcaa305c	-0.020775013
166	0x3d358564	0.044316664
167	0xbbd497c4	-0.0064878184
168	0x3d1de5b8	0.038549155
169	0x3d422f95	0.04740866
170	0xbc94eaba	-0.018178333
171	0x3bd66042	0.0065422365
172	0x3b9e240e	0.0048260754
173	0xbcb738fa	-0.022366036
174	0xbcb8895a	-0.022526432
175	0x3cbb72cd	0.02288189
176	0x3bbf1e42	0.0058324644
177	0xbc9a6ea6	-0.01885159
178	0x3c4442c8	0.0119788125
179	0xbd113409	-0.035450015
180	0xbcb1e94f	-0.021717696
181	0xbd15e11f	-0.036591645
182	0xbbcb98fd	-0.006213306
183	0xbc90c896	-0.017673772
184	0xbcf04d9b	-0.02933388
185	0x3d1bdaca	0.03805045
186	0xbbbf3e62	-0.005836294
187	0xbc2578db	-0.010099615
188	0xbc01236c	-0.00788198
189	0xbc9b7a7d	-0.018979305
190	0x3c918401	0.01776314
191	0xbc810140	-0.015747666
192	0x3bccdb7d	0.006251751
193	0xbc607bfb	-0.013701434
194	0xbba05964	-0.0048934687
195	0xbca57f88	-0.020202413
196	0x3b11aec2	0.0022229408
197	0xbc8045ad	-0.015658224
198	0xbc76d63a	-0.015065724
199	0xbd001bf2	-0.03127665
200	0x393253c0	0.00017006602
201	0x3c6a54d7	0.014302454
202	0x3a261c10	0.0006336579
203	0x3cb35ad1	0.02189389
204	0x3ce58d0e	0.028021362
205	0x3cf989a0	0.030461133
206	0xbd2b298e	-0.041787677
207	0x3ca02f50	0.01955381
208	0xbc85ca77	-0.016331894
209	0x3cbf0dac	0.023321949
210	0x3cfc69d0	0.030812174
211	0xbca94b9f	-0.020665942
212	0xbd655e94	-0.0559984
213	0xbce83390	-0.0283449
214	0x3be64488	0.0070272125
215	0xbc38511d	-0.011249808
216	0x3d13c6be	0.036078207
217	0x3bad9b4d	0.0052980543
218	0xbd32e230	-0.04367274
219	0xbab4a668	-0.0013782503
220	0xbd082296	-0.03323611
221	0x3d027fc6	0.031860135
222	0x3cfbd17e	0.030739542
223	0x3d0da134	0.034577563
224	0xbcb75864	-0.022381015
225	0xbc85fe10	-0.016356498
226	0x3d1b2c5e	0.03788411
227	0x3baea6c9	0.005329941
228	0xbbf40cc2	-0.00744781
229	0xbc106e52	-0.008815365
230	0xbbc209f1	-0.0059215953
231	0x3c9742d0	0.018464476
232	0x3d45a78a	0.04825548
233	0xbba2bf64	-0.004966663
234	0x3cf44a54	0.029820599
235	0x3cc35ec0	0.023848891
236	0x3ce44437	0.027864559
237	0x3c99dd90	0.018782407
238	0xbc71140f	-0.014714255
239	0x3d4db60c	0.05022244
240	0x3bdba7c4	0.006703349
241	0x3b3710b2	0.0027933535
242	0xbd2f3b3c	-0.0427811
243	0xbc8284a2	-0.015932385
244	0x3c764a7e	0.015032409
245	0x3d604204	0.054750457
246	0xbc2d41fd	-0.010574815
247	0x3c484976	0.012224546
248	0x3ce715b0	0.028208584
249	0x3cf5b956	0.029995602
250	0x3c99c143	0.018768912
251	0x3c2b90e4	0.010471556
252	0xbb85433f	-0.0040668542
253	0x3c4e602e	0.012596173
254	0x3ce1f18e	0.027581003
255	0xbcdb581a	-0.026775409

gat1.lin_dst.weight f4 [64, 3703]
0	0x3cd91962	0.026501361
1	0x3d236db5	0.039899547
2	0xbce8ade8	-0.028403237
3	0x3cce2db8	0.025168285
4	0xbc810c78	-0.015753016
5	0xbbfde786	-0.007748547
6	0xbb80840e	-0.003921992
7	0x3c997384	0.01873184
8	0xbd150bba	-0.036388136
9	0x3b6aa4a0	0.003580369
10	0x3c96d6a6	0.0184129
11	0x3cf0b316	0.02938227
12	0xbca5c6f4	-0.02023647
13	0xba8f52f8	-0.0010934761
14	0xbc835251	-0.016030462
15	0x3d2eecb5	0.04270621
16	0xbc874152	-0.01651064
17	0x3c5b0b6a	0.013369421
18	0xbc29800e	-0.010345472
19	0x3d055860	0.032554984
20	0x3c5c8bf8	0.0134611055
21	0xbcfbf642	-0.030757073
22	0xbbdb6b86	-0.0066961674
23	0xbc15c8e2	-0.0091421325
24	0x3cc785d8	0.024355814
25	0x3c67c5c6	0.014146274
26	0x3d23a609	0.039953265
27	0xbc5bcfe1	-0.013416261
28	0x3b51c840	0.0032010227
29	0xbd06be37	-0.032896247
30	0x3bf24b64	0.007394241
31	0x3d226044	0.039642587
32	0x3c92d497	0.017923636
33	0xbca8af50	-0.020591408
34	0xbbea8488	-0.0071569122
35	0xbcb5478b	-0.02212884
36	0x3ba6de98	0.005092453
37	0xbd341f7e	-0.043975346
38	0x3b67eea4	0.0035390044
39	0x3b876628	0.004132051
40	0x3d541cc4	0.051785246
41	0x3d5c3248	0.05375889
42	0xbc6311cf	-0.013859226
43	0x3bf2b31c	0.0074066054
44	0xbb0a39ec	-0.0021091653
45	0x3ce11920	0.0274778
46	0x3bf80862	0.0075693587
47	0x3cb8095c	0.0224654
48	0x3ca68cb4	0.020330764
49	0xbc282372	-0.010262357
50	0x3c094978	0.008379333
51	0xbd3ec0ba	-0.046570517
52	0x3a643d00	0.00087065995
53	0xbd182783	-0.037147056
54	0x3c4d5ebc	0.0125347935
55	0xbc8a3cd6	-0.016874712
56	0x3c559a64	0.013037298
57	0xbb880d7a	-0.004151997
58	0x3c9e755a	0.019343067
59	0xbc8f99ec	-0.01752945
60	0x3b7a3a2e	0.003818165
61	0xbd129866	-0.03578987
62	0x3b776871	0.003775146
63	0x3c888ee6	0.016669702
64	0xbc87cc5c	-0.016576938
65	0x3ce01128	0.02735193
66	0xbc9efa02	-0.019406322
67	0xbb3df5e8	-0.0028985683
68	0xb98822e0	-0.00025965925
69	0xbc4114df	-0.011784761
70	0xbc6ef4a9	-0.014584699
71	0xbc0db705	-0.008649592
72	0x3d53372e	0.051566295
73	0xbb8e2953	-0.0043384223
74	0x3ae44698	0.0017416058
75	0x3d13750e	0.036000304
76	0x3b8ee96f	0.0043613235
77	0x3d38d18f	0.045121726
78	0xbc5b50e2	-0.013385983
79	0xbd435063	-0.047684085
80	0x3c595638	0.013265185
81	0xbc687aad	-0.014189404
82	0x3d2837ee	0.041068964
83	0x3a8be7b0	0.0010673907
84	0xbc2b497f	-0.010454535
85	0x3d48c1bf	0.049012896
86	0x3c588b12	0.013216751
87	0x3cf134dc	0.02944415
88	0x3c14df46	0.009086436
89	0xbd56ddb7	-0.052457538
90	0xbae10db8	-0.0017170226
91	0x3bf763e6	0.0075497506
92	0x3c75281b	0.014963175
93	0xbcb104fe	-0.021608826
94	0x3ae78228	0.0017662691
95	0x3bdc3ef6	0.0067213727
96	0xbb86f130	-0.0041181073
97	0x3d0b9b8b	0.034083884
98	0xbc529b53	-0.012854415
99	0xbbf32dfe	-0.007421254
100	0x3c8a4ae5	0.016881416
101	0xbd13d7f9	-0.03609464
102	0x3ca4ac82	0.02010179
103	0xbd20f793	-0.039298605
104	0xbb91c45e	-0.0044484576
105	0x3cf86744	0.030322678
106	0x3ca82ce3	0.020529216
107	0xba53a304	-0.00080733025
108	0x3c6e45ba	0.014542991
109	0x3c29f82c	0.01037411
110	0x3c564bd9	0.013079607
111	0x3af73178	0.0018859347
112	0xbc80178e	-0.015636232
113	0x3c754517	0.014970086
114	0xbcf0a0e2	-0.02937359
115	0xbd4781ce	-0.048707776
116	0xbbe24fdc	-0.0069064926
117	0x3c9ca68e	0.019122388
118	0xbc8964f0	-0.016771764
119	0x3c09b7b2	0.008405613
120	0xbcb60f2b	-0.02222403
121	0xbd350a80	-0.044199467
122	0x3c184629	0.009294071
123	0x3d441209	0.047868762
124	0xbc79efbc	-0.015254911
125	0x3ce1dbce	0.027570631
126	0xbbb7a21a	-0.005604041
127	0xbc8af226	-0.016961168
128	0x3c6231fc	0.0138058625
129	0x3bb41856	0.005496065
130	0xbcd5eb9e	-0.026113328
131	0x3c77cc82	0.015124442
132	0x3c2eeb9c	0.010676291
133	0x3cee12fd	0.029061789
134	0x3cf2848a	0.029604215
135	0xbd3e6776	-0.046485387
136	0x3a885390	0.001040088
137	0x3b289b4a	0.0025727325
138	0x3b747430	0.0037300698
139	0xbcf4167a	-0.029795874
140	0xba335b10	-0.00068418775
141	0x3a5d4560	0.00084408186
142	0xbd52e91a	-0.051491834
143	0x3cfe2b00	0.031026363
144	0x3c9a3c92	0.01882771
145	0x3c598e5e	0.013278572
146	0x3c34050d	0.010987532
147	0x3cac371a	0.021022368
148	0xbd00d788	-0.031455547
149	0xbc85e3b0	-0.016343921
150	0x3cce0a1a	0.025151301
151	0xbc583de4	-0.01319835
152	0x3a721960	0.00092353486
153	0x3b567b00	0.0032727122
154	0x3d02da4e	0.031946473
155	0xbc583933	-0.013197231
156	0xbb499af8	-0.0030762535
157	0x3c214203	0.009842399
158	0x3b94aa5b	0.0045369095
159	0x3c2e3291	0.010632173
160	0x3d2e03f4	0.04248424
161	0x3c9b2ea5	0.01894314
162	0xbb299fc8	-0.002588259
163	0x3cead0e8	0.028664067
164	0xbca63103	-0.020287042
165	0xbcaa305c	-0.020775013
166	0x3d358564	0.044316664
167	0xbbd497c4	-0.0064878184
168	0x3d1de5b8	0.038549155
169	0x3d422f95	0.04740866
170	0xbc94eaba	-0.018178333
171	0x3bd66042	0.0065422365
172	0x3b9e240e	0.0048260754
173	0xbcb738fa	-0.022366036
174	0xbcb8895a	-0.022526432
175	0x3cbb72cd	0.02288189
176	0x3bbf1e42	0.0058324644
177	0xbc9a6ea6	-0.01885159
178	0x3c4442c8	0.0119788125
179	0xbd113409	-0.035450015
180	0xbcb1e94f	-0.021717696
181	0xbd15e11f	-0.036591645
182	0xbbcb98fd	-0.006213306
183	0xbc90c896	-0.017673772
184	0xbcf04d9b	-0.02933388
185	0x3d1bdaca	0.03805045
186	0xbbbf3e62	-0.005836294
187	0xbc2578db	-0.010099615
188	0xbc01236c	-0.00788198
189	0xbc9b7a7d	-0.018979305
190	0x3c918401	0.01776314
191	0xbc810140	-0.015747666
192	0x3bccdb7d	0.006251751
193	0xbc607bfb	-0.013701434
194	0xbba05964	-0.0048934687
195	0xbca57f88	-0.020202413
196	0x3b11aec2	0.0022229408
197	0xbc8045ad	-0.015658224
198	0xbc76d63a	-0.015065724
199	0xbd001bf2	-0.03127665
200	0x393253c0	0.00017006602
201	0x3c6a54d7	0.014302454
202	0x3a261c10	0.0006336579
203	0x3cb35ad1	0.02189389
204	0x3ce58d0e	0.028021362
205	0x3cf989a0	0.030461133
206	0xbd2b298e	-0.041787677
207	0x3ca02f50	0.01955381
208	0xbc85ca77	-0.016331894
209	0x3cbf0dac	0.023321949
210	0x3cfc69d0	0.030812174
211	0xbca94b9f	-0.020665942
212	0xbd655e94	-0.0559984
213	0xbce83390	-0.0283449
214	0x3be64488	0.0070272125
215	0xbc38511d	-0.011249808
216	0x3d13c6be	0.036078207
217	0x3bad9b4d	0.0052980543
218	0xbd32e230	-0.04367274
219	0xbab4a668	-0.0013782503
220	0xbd082296	-0.03323611
221	0x3d027fc6	0.031860135
222	0x3cfbd17e	0.030739542
223	0x3d0da134	0.034577563
224	0xbcb75864	-0.022381015
225	0xbc85fe10	-0.016356498
226	0x3d1b2c5e	0.03788411
227	0x3baea6c9	0.005329941
228	0xbbf40cc2	-0.00744781
229	0xbc106e52	-0.008815365
230	0xbbc209f1	-0.0059215953
231	0x3c9742d0	0.018464476
232	0x3d45a78a	0.04825548
233	0xbba2bf64	-0.004966663
234	0x3cf44a54	0.029820599
235	0x3cc35ec0	0.023848891
236	0x3ce44437	0.027864559
237	0x3c99dd90	0.018782407
238	0xbc71140f	-0.014714255
239	0x3d4db60c	0.05022244
240	0x3bdba7c4	0.006703349
241	0x3b3710b2	0.0027933535
242	0xbd2f3b3c	-0.0427811
243	0xbc8284a2	-0.015932385
244	0x3c764a7e	0.015032409
245	0x3d604204	0.054750457
246	0xbc2d41fd	-0.010574815
247	0x3c484976	0.012224546
248	0x3ce715b0	0.028208584
249	0x3cf5b956	0.029995602
250	0x3c99c143	0.018768912
251	0x3c2b90e4	0.010471556
252	0xbb85433f	-0.0040668542
253	0x3c4e602e	0.012596173
254	0x3ce1f18e	0.027581003
255	0xbcdb581a	-0.026775409

gat2.att_src f4 [1, 1, 6]
0	0x3cc30f90	0.023811132
1	0xbf2d6afa	-0.6774136
2	0xbeffc295	-0.49953142
3	0xbf4fe19f	-0.81203645
4	0x3de1176c	0.109907955
5	0xbe7c6231	-0.24646832

gat2.att_dst f4 [1, 1, 6]
0	0x3f42a1b7	0.7602801
1	0xbec7c5a8	-0.39017987
2	0x3ea6d1e9	0.32582024
3	0x3ec57e15	0.38572755
4	0x3e571d40	0.21007252
5	0x3f15bf3e	0.5849494

gat2.bias f4 [6]
0	0xbc986bea	-0.018606145
1	0x3c970d7e	0.01843905
2	0x3ca3ec30	0.020010084
3	0x3c777db9	0.015105658
4	0x3bef3a1f	0.0073006297
5	0xbc75799a	-0.014982605

gat2.lin_src.weight f4 [6, 64]
0	0xbe053877	-0.13009821
1	0xbd7008de	-0.058602206
2	0x3dd04cfe	0.10170935
3	0x3e09c590	0.1345427
4	0xbd942db5	-0.072352804
5	0x3d83198f	0.06401359
6	0x3dd651f2	0.104648486
7	0xbdd6d584	-0.104899436
8	0xbe80536b	-0.25063643
9	0x3c9f9ea4	0.019484825
10	0xbe436b2e	-0.19083855
11	0x3d1fadf8	0.03898427
12	0x3d81713e	0.06320427
13	0xbe5ed078	-0.21759212
14	0x3e8a01f5	0.26954618
15	0xbd1e4e8e	-0.038649134
16	0x3dc33e16	0.09533326
17	0xbd8a8670	-0.06763923
18	0xbe7ffa32	-0.24997786
19	0xbe21099e	-0.15726325
20	0x3cfa3968	0.030544952
21	0x3d810a7d	0.063008286
22	0xbdb9949f	-0.0906155
23	0xbe9fa94a	-0.31183845
24	0xbe212918	-0.15738332
25	0x3d8c1381	0.068396576
26	0xbd1c725b	-0.038194995
27	0x3dd54052	0.10412659
28	0x3d1b323a	0.037889697
29	0xbda163e0	-0.07880378
30	0x3e84a36b	0.25905928
31	0xbe50258f	-0.20326827
32	0x3e7ba9f1	0.24576546
33	0xbddfbccf	-0.10924684
34	0xbe9774bb	-0.29581246
35	0x3dc0ca54	0.09413591
36	0xbe899ca5	-0.26877323
37	0xbbdb7f47	-0.0066985223
38	0xbe41248c	-0.18861598
39	0x3d94e689	0.072705336
40	0x3e7c14d9	0.24617328
41	0x3e5df37c	0.21674913
42	0xbd54c28f	-0.051943358
43	0xbe052633	-0.13002853
44	0x3e25fba2	0.16209272
45	0xbd70886e	-0.05872386
46	0xbe93499d	-0.287671
47	0x3e5808d5	0.21097119
48	0x3e6c0d83	0.2305203
49	0xbc74b1ea	-0.014934996
50	0xbe612d18	-0.21989858
51	0x3e8b0350	0.27150965
52	0x3dbaa265	0.091130055
53	0x3e591808	0.21200573
54	0xbd2e4110	-0.042542517
55	0xbe57a42e	-0.21058723
56	0x3e556a0d	0.20841236
57	0xbdb9deca	-0.09075697
58	0x3e10314a	0.14081302
59	0xbc920233	-0.017823314
60	0xbc440d5a	-0.011966074
61	0x3d878d5a	0.066187575
62	0xbe6a8214	-0.22901183
63	0xbe1033c4	-0.14082247
64	0xbcec2a9c	-0.028828911
65	0x3e5d6c3c	0.2162332
66	0xbe8e1164	-0.27747643
67	0x3e8fe886	0.2810709
68	0x3df6c54a	0.12049349
69	0xbd0ae96c	-0.033914015
70	0x3e694274	0.22779256
71	0x3e8d3b00	0.27584076
72	0x3e986a51	0.29768613
73	0x3db3ff24	0.087888986
74	0xbe3828c5	-0.17984302
75	0x3e05babd	0.13059516
76	0xbe36843b	-0.1782388
77	0x3e2979ff	0.16550444
78	0xbe329015	-0.17437775
79	0xbe3e4204	-0.1857987
80	0xbe8ffcbd	-0.28122512
81	0xbe5b3e8e	-0.21410581
82	0xbe9c341e	-0.30508512
83	0x3dd78098	0.10522574
84	0x3c13f814	0.009031314
85	0xbca118ea	-0.0196652
86	0xbe899088	-0.2686808
87	0xbd26447b	-0.04059265
88	0x3e0c2e15	0.13689454
89	0xbe12b333	-0.14326172
90	0x3ddca9ca	0.10774572
91	0xbe0c9529	-0.13728775
92	0x3e2f5a5d	0.17124315
93	0x3d2bd895	0.041954596
94	0xbe6ef7c1	-0.23336698
95	0x3d94179d	0.072310664
96	0xbe18cf75	-0.14922889
97	0xbe5174dd	-0.20454736
98	0x3db1f820	0.08689904
99	0x3e30bbcd	0.1725914
100	0xbe1d8654	-0.15383273
101	0xbde5495e	-0.11195634
102	0x3e2a1a55	0.16611607
103	0xbdb83cd3	-0.08995976
104	0xbe5bd71f	-0.21468781
105	0x3e345d0b	0.17613618
106	0xbe6d8461	-0.2319503
107	0x3e2c36bc	0.16817755
108	0xbe073a8b	-0.13205926
109	0xbe391ade	-0.18076655
110	0x3df1db14	0.11809364
111	0x3e7817b4	0.24227792
112	0xbe5dfbe3	-0.21678118
113	0x3d1a4134	0.03765984
114	0xbe0a0707	-0.13479243
115	0xbe70a0dc	-0.23498863
116	0xbde94578	-0.11390203
117	0xbe732605	-0.23744972
118	0x3e92197a	0.28535062
119	0x3e82373a	0.2543276
120	0xbe4dd74d	-0.20101662
121	0xbe4833e4	-0.19551045
122	0x3e212e3d	0.15740295
123	0x3e5ecfb6	0.21758923
124	0x3e654721	0.22390415
125	0xbe844ae3	-0.25838384
126	0x3e439301	0.19099046
127	0xbe421c44	-0.18956095
128	0x3e0e9c86	0.13926896
129	0xbc213ce6	-0.0098411795
130	0xbe85d93f	-0.26142308
131	0xbe8ef947	-0.2792456
132	0xbe194d1e	-0.14970824
133	0xbdd426bf	-0.10358953
134	0xbdea6fbb	-0.11447092
135	0x3e115abe	0.14194772
136	0x3e380879	0.17971982
137	0xbc5b8152	-0.013397532
138	0x3db0e489	0.086373396
139	0x3dfde6d4	0.123975426
140	0x3e55607f	0.20837592
141	0x3c92b856	0.017910164
142	0x3e114cef	0.14189504
143	0x3e09fd2a	0.1347548
144	0xbd622783	-0.055213463
145	0xbdc459c5	-0.09587435
146	0xbd8284d8	-0.06372994
147	0xbd154bb4	-0.03644915
148	0xbdb0c669	-0.08631594
149	0x3e82df26	0.25560874
150	0x3d82c1c4	0.06384614
151	0xbe42769b	-0.18990557
152	0x3dd9ea5e	0.10640405
153	0xbe311039	-0.17291345
154	0xbe020152	-0.12695816
155	0x3e9123e3	0.28347692
156	0x3e03268d	0.12807675
157	0x3e759082	0.23980907
158	0xbd3f9014	-0.046768263
159	0xbb94e950	-0.0045444146
160	0x3d69f6dd	0.057120193
161	0x3e9f4def	0.31114146
162	0x3e804ea8	0.2506001
163	0xbda303bc	-0.07959697
164	0xbe093245	-0.13398083
165	0xbc56ef8a	-0.013118634
166	0xbe480341	-0.19532491
167	0x3d8bd986	0.06828599
168	0xbd839940	-0.064257145
169	0x3e2e34e6	0.17012367
170	0x3dc2b620	0.09507394
171	0xbe16b930	-0.14719081
172	0xbdbdd3cb	-0.09268912
173	0xbd2078f0	-0.039177835
174	0xbd0794b9	-0.033100817
175	0xbe988c1c	-0.29794395
176	0xbdeb13bb	-0.11478373
177	0x3e13e426	0.144425
178	0xbe48e233	-0.19617538
179	0x3e59e763	0.21279673
180	0x3d911c06	0.07085423
181	0x3e0f42ec	0.13990372
182	0xbdf534e7	-0.11972981
183	0xbe0768e2	-0.13223603
184	0x3e83d7b8	0.25750518
185	0xbd9ca18b	-0.076479994
186	0xbe3757a2	-0.17904523
187	0xbe65e98c	-0.22452372
188	0x3d0e49e0	0.03473842
189	0x3e0ae6f4	0.13564664
190	0x3e37c655	0.17946751
191	0xbe3630ed	-0.17792101
192	0xbdc010ef	-0.0937823
193	0xbe7b68b9	-0.24551667
194	0x3e05b977	0.1305903
195	0xbcff7bce	-0.031186964
196	0xbe0f5495	-0.13997109
197	0xbe4bfefd	-0.19921489
198	0x3d98be8c	0.07458219
199	0x3e97b8de	0.2963323
200	0x3e778f73	0.24175815
201	0x3e93d6d5	0.2887484
202	0x3dccb1eb	0.09994873
203	0xbded2fd5	-0.11581389
204	0xbd86362e	-0.06553303
205	0x3e23a98f	0.1598265
206	0xbe1b30d1	-0.1515534
207	0xbd818a6b	-0.06325229
208	0x3e6fd73b	0.23421948
209	0x3e54c9b5	0.2078007
210	0xbda769ee	-0.08174501
211	0x3e7890e0	0.24274015
212	0x3d328fe5	0.04359426
213	0xbe420054	-0.18945438
214	0xbdd33e35	-0.103145994
215	0xbe919993	-0.2843748
216	0xbe45864c	-0.19289511
217	0x3daa0a69	0.08302767
218	0xbd8a8bf8	-0.06764978
219	0x3e851d9d	0.25999156
220	0xbdce7080	-0.100800514
221	0xbe179799	-0.14803924
222	0xbe07d1ac	-0.13263577
223	0x3d24cb72	0.040233083
224	0xbc508182	-0.01272619
225	0xbbddaf3b	-0.006765274
226	0xbdbdcefc	-0.09267995
227	0x3e5f0182	0.21777919
228	0x3e605501	0.21907426
229	0xbe4ce914	-0.20010787
230	0xbdcb503d	-0.099274136
231	0x3d13d269	0.036089335
232	0x3dd22e22	0.102627054
233	0xbdcf5fa9	-0.101256676
234	0xbe4342e6	-0.19068488
235	0xbe0ebc7a	-0.13939086
236	0xbe802af3	-0.25032768
237	0x3e5fabbc	0.21842855
238	0x3e0899ed	0.13339968
239	0x3e257159	0.1615652
240	0xbdf5c878	-0.12001127
241	0x3e417211	0.18891169
242	0x3e57348f	0.21016143
243	0xbe415de1	-0.18883468
244	0x3e88464a	0.26616126
245	0xbe0f8976	-0.14017281
246	0xbe56c5a5	-0.20973833
247	0x3e3cd473	0.18440418
248	0x3e8a4449	0.27005222
249	0x3d51d010	0.051223814
250	0x3e98475a	0.29741937
251	0x3d26e5a6	0.040746354
252	0x3cec0d54	0.02881495
253	0xbd9c21c1	-0.076236255
254	0xbe4aeec6	-0.19817647
255	0x3cab6390	0.020921499

gat2.lin_dst.weight f4 [6, 64]
0	0xbe053877	-0.13009821
1	0xbd7008de	-0.058602206
2	0x3dd04cfe	0.10170935
3	0x3e09c590	0.1345427
4	0xbd942db5	-0.072352804
5	0x3d83198f	0.06401359
6	0x3dd651f2	0.104648486
7	0xbdd6d584	-0.104899436
8	0xbe80536b	-0.25063643
9	0x3c9f9ea4	0.019484825
10	0xbe436b2e	-0.19083855
11	0x3d1fadf8	0.03898427
12	0x3d81713e	0.06320427
13	0xbe5ed078	-0.21759212
14	0x3e8a01f5	0.26954618
15	0xbd1e4e8e	-0.038649134
16	0x3dc33e16	0.09533326
17	0xbd8a8670	-0.06763923
18	0xbe7ffa32	-0.24997786
19	0xbe21099e	-0.15726325
20	0x3cfa3968	0.030544952
21	0x3d810a7d	0.063008286
22	0xbdb9949f	-0.0906155
23	0xbe9fa94a	-0.31183845
24	0xbe212918	-0.15738332
25	0x3d8c1381	0.068396576
26	0xbd1c725b	-0.038194995
27	0x3dd54052	0.10412659
28	0x3d1b323a	0.037889697
29	0xbda163e0	-0.07880378
30	0x3e84a36b	0.25905928
31	0xbe50258f	-0.20326827
32	0x3e7ba9f1	0.24576546
33	0xbddfbccf	-0.10924684
34	0xbe9774bb	-0.29581246
35	0x3dc0ca54	0.09413591
36	0xbe899ca5	-0.26877323
37	0xbbdb7f47	-0.0066985223
38	0xbe41248c	-0.18861598
39	0x3d94e689	0.072705336
40	0x3e7c14d9	0.24617328
41	0x3e5df37c	0.21674913
42	0xbd54c28f	-0.051943358
43	0xbe052633	-0.13002853
44	0x3e25fba2	0.16209272
45	0xbd70886e	-0.05872386
46	0xbe93499d	-0.287671
47	0x3e5808d5	0.21097119
48	0x3e6c0d83	0.2305203
49	0xbc74b1ea	-0.014934996
50	0xbe612d18	-0.21989858
51	0x3e8b0350	0.27150965
52	0x3dbaa265	0.091130055
53	0x3e591808	0.21200573
54	0xbd2e4110	-0.042542517
55	0xbe57a42e	-0.21058723
56	0x3e556a0d	0.20841236
57	0xbdb9deca	-0.09075697
58	0x3e10314a	0.14081302
59	0xbc920233	-0.017823314
60	0xbc440d5a	-0.011966074
61	0x3d878d5a	0.066187575
62	0xbe6a8214	-0.22901183
63	0xbe1033c4	-0.14082247
64	0xbcec2a9c	-0.028828911
65	0x3e5d6c3c	0.2162332
66	0xbe8e1164	-0.27747643
67	0x3e8fe886	0.2810709
68	0x3df6c54a	0.12049349
69	0xbd0ae96c	-0.033914015
70	0x3e694274	0.22779256
71	0x3e8d3b00	0.27584076
72	0x3e986a51	0.29768613
73	0x3db3ff24	0.087888986
74	0xbe3828c5	-0.17984302
75	0x3e05babd	0.13059516
76	0xbe36843b	-0.1782388
77	0x3e2979ff	0.16550444
78	0xbe329015	-0.17437775
79	0xbe3e4204	-0.1857987
80	0xbe8ffcbd	-0.28122512
81	0xbe5b3e8e	-0.21410581
82	0xbe9c341e	-0.30508512
83	0x3dd78098	0.10522574
84	0x3c13f814	0.009031314
85	0xbca118ea	-0.0196652
86	0xbe899088	-0.2686808
87	0xbd26447b	-0.04059265
88	0x3e0c2e15	0.13689454
89	0xbe12b333	-0.14326172
90	0x3ddca9ca	0.10774572
91	0xbe0c9529	-0.13728775
92	0x3e2f5a5d	0.17124315
93	0x3d2bd895	0.041954596
94	0xbe6ef7c1	-0.23336698
95	0x3d94179d	0.072310664
96	0xbe18cf75	-0.14922889
97	0xbe5174dd	-0.20454736
98	0x3db1f820	0.08689904
99	0x3e30bbcd	0.1725914
100	0xbe1d8654	-0.15383273
101	0xbde5495e	-0.11195634
102	0x3e2a1a55	0.16611607
103	0xbdb83cd3	-0.08995976
104	0xbe5bd71f	-0.21468781
105	0x3e345d0b	0.17613618
106	0xbe6d8461	-0.2319503
107	0x3e2c36bc	0.16817755
108	0xbe073a8b	-0.13205926
109	0xbe391ade	-0.18076655
110	0x3df1db14	0.11809364
111	0x3e7817b4	0.24227792
112	0xbe5dfbe3	-0.21678118
113	0x3d1a4134	0.03765984
114	0xbe0a0707	-0.13479243
115	0xbe70a0dc	-0.23498863
116	0xbde94578	-0.11390203
117	0xbe732605	-0.23744972
118	0x3e92197a	0.28535062
119	0x3e82373a	0.2543276
120	0xbe4dd74d	-0.20101662
121	0xbe4833e4	-0.19551045
122	0x3e212e3d	0.15740295
123	0x3e5ecfb6	0.21758923
124	0x3e654721	0.22390415
125	0xbe844ae3	-0.25838384
126	0x3e439301	0.19099046
127	0xbe421c44	-0.18956095
128	0x3e0e9c86	0.13926896
129	0xbc213ce6	-0.0098411795
130	0xbe85d93f	-0.26142308
131	0xbe8ef947	-0.2792456
132	0xbe194d1e	-0.14970824
133	0xbdd426bf	-0.10358953
134	0xbdea6fbb	-0.11447092
135	0x3e115abe	0.14194772
136	0x3e380879	0.17971982
137	0xbc5b8152	-0.013397532
138	0x3db0e489	0.086373396
139	0x3dfde6d4	0.123975426
140	0x3e55607f	0.20837592
141	0x3c92b856	0.017910164
142	0x3e114cef	0.14189504
143	0x3e09fd2a	0.1347548
144	0xbd622783	-0.055213463
145	0xbdc459c5	-0.09587435
146	0xbd8284d8	-0.06372994
147	0xbd154bb4	-0.03644915
148	0xbdb0c669	-0.08631594
149	0x3e82df26	0.25560874
150	0x3d82c1c4	0.06384614
151	0xbe42769b	-0.18990557
152	0x3dd9ea5e	0.10640405
153	0xbe311039	-0.17291345
154	0xbe020152	-0.12695816
155	0x3e9123e3	0.28347692
156	0x3e03268d	0.12807675
157	0x3e759082	0.23980907
158	0xbd3f9014	-0.046768263
159	0xbb94e950	-0.0045444146
160	0x3d69f6dd	0.057120193
161	0x3e9f4def	0.31114146
162	0x3e804ea8	0.2506001
163	0xbda303bc	-0.07959697
164	0xbe093245	-0.13398083
165	0xbc56ef8a	-0.013118634
166	0xbe480341	-0.19532491
167	0x3d8bd986	0.06828599
168	0xbd839940	-0.064257145
169	0x3e2e34e6	0.17012367
170	0x3dc2b620	0.09507394
171	0xbe16b930	-0.14719081
172	0xbdbdd3cb	-0.09268912
173	0xbd2078f0	-0.039177835
174	0xbd0794b9	-0.033100817
175	0xbe988c1c	-0.29794395
176	0xbdeb13bb	-0.11478373
177	0x3e13e426	0.144425
178	0xbe48e233	-0.19617538
179	0x3e59e763	0.21279673
180	0x3d911c06	0.07085423
181	0x3e0f42ec	0.13990372
182	0xbdf534e7	-0.11972981
183	0xbe0768e2	-0.13223603
184	0x3e83d7b8	0.25750518
185	0xbd9ca18b	-0.076479994
186	0xbe3757a2	-0.17904523
187	0xbe65e98c	-0.22452372
188	0x3d0e49e0	0.03473842
189	0x3e0ae6f4	0.13564664
190	0x3e37c655	0.17946751
191	0xbe3630ed	-0.17792101
192	0xbdc010ef	-0.0937823
193	0xbe7b68b9	-0.24551667
194	0x3e05b977	0.1305903
195	0xbcff7bce	-0.031186964
196	0xbe0f5495	-0.13997109
197	0xbe4bfefd	-0.19921489
198	0x3d98be8c	0.07458219
199	0x3e97b8de	0.2963323
200	0x3e778f73	0.24175815
201	0x3e93d6d5	0.2887484
202	0x3dccb1eb	0.09994873
203	0xbded2fd5	-0.11581389
204	0xbd86362e	-0.06553303
205	0x3e23a98f	0.1598265
206	0xbe1b30d1	-0.1515534
207	0xbd818a6b	-0.06325229
208	0x3e6fd73b	0.23421948
209	0x3e54c9b5	0.2078007
210	0xbda769ee	-0.08174501
211	0x3e7890e0	0.24274015
212	0x3d328fe5	0.04359426
213	0xbe420054	-0.18945438
214	0xbdd33e35	-0.103145994
215	0xbe919993	-0.2843748
216	0xbe45864c	-0.19289511
217	0x3daa0a69	0.08302767
218	0xbd8a8bf8	-0.06764978
219	0x3e851d9d	0.25999156
220	0xbdce7080	-0.100800514
221	0xbe179799	-0.14803924
222	0xbe07d1ac	-0.13263577
223	0x3d24cb72	0.040233083
224	0xbc508182	-0.01272619
225	0xbbddaf3b	-0.006765274
226	0xbdbdcefc	-0.09267995
227	0x3e5f0182	0.21777919
228	0x3e605501	0.21907426
229	0xbe4ce914	-0.20010787
230	0xbdcb503d	-0.099274136
231	0x3d13d269	0.036089335
232	0x3dd22e22	0.102627054
233	0xbdcf5fa9	-0.101256676
234	0xbe4342e6	-0.19068488
235	0xbe0ebc7a	-0.13939086
236	0xbe802af3	-0.25032768
237	0x3e5fabbc	0.21842855
238	0x3e0899ed	0.13339968
239	0x3e257159	0.1615652
240	0xbdf5c878	-0.12001127
241	0x3e417211	0.18891169
242	0x3e57348f	0.21016143
243	0xbe415de1	-0.18883468
244	0x3e88464a	0.26616126
245	0xbe0f8976	-0.14017281
246	0xbe56c5a5	-0.20973833
247	0x3e3cd473	0.18440418
248	0x3e8a4449	0.27005222
249	0x3d51d010	0.051223814
250	0x3e98475a	0.29741937
251	0x3d26e5a6	0.040746354
252	0x3cec0d54	0.02881495
253	0xbd9c21c1	-0.076236255
254	0xbe4aeec6	-0.19817647
255	0x3cab6390	0.020921499
