mutation/target_models/cora_gcn.pt (torch, 93855 bytes, 4 tensors)

conv1.bias f4 [16]
0	0x3d471142	0.048600443
1	0x3c584914	0.013201017
2	0x3d535cdf	0.05160224
3	0x3ccbe1db	0.02488797
4	0x3d4bca79	0.04975364
5	0x3d0cad47	0.034344938
6	0x3db2b558	0.08725995
7	0xbbeb6d2d	-0.0071846456
8	0x3d95a98c	0.07307729
9	0x3cfb471c	0.030673556
10	0x3d868d86	0.06569962
11	0x3dc146ad	0.094373085
12	0x3c8e374b	0.01736035
13	0x3cf1b0e8	0.0295033
14	0x3d81d027	0.0633853
15	0x3d90fa60	0.07079005

conv1.lin.weight f4 [16, 1433]
0	0xbd929c67	-0.07158738
1	0x3da59d3b	0.0808663
2	0xbd1f79ec	-0.038934633
3	0x3d7106ec	0.05884449
4	0xbe0240de	-0.12720057
5	0x3ded3ceb	0.11583885
6	0xbd8ecd18	-0.06972712
7	0xbd0a2882	-0.033730038
8	0x3ca73f92	0.020416055
9	0xbd84bd76	-0.06481449
10	0x3c2b711a	0.010463977
11	0x3d8c8ec2	0.068631664
12	0xbd3f3d00	-0.046689034
13	0x3da8bf7c	0.08239648
14	0x3caf6f24	0.0214153
15	0x3de65523	0.11246707
16	0x3d608593	0.054814886
17	0xbd5a4510	-0.05328852
18	0x3db678a3	0.089097284
19	0x3defa2b4	0.11700955
20	0x3dc6a7cb	0.09699973
21	0x3dcedd23	0.10100772
22	0xbc115d22	-0.008872302
23	0x3df3b5f0	0.11899936
24	0xbb23dd46	-0.0025003715
25	0x3cefc615	0.029269258
26	0xbda37277	-0.07980817
27	0x3dc8da25	0.09807233
28	0xbd27f561	-0.041005496
29	0x3d5cbad1	0.0538891
30	0x3df04ca3	0.11733367
31	0x3dbd1eda	0.092344
32	0x3de0350d	0.10947619
33	0x3d447a09	0.047967944
34	0x3d74ba76	0.059748136
35	0xbddd3cbe	-0.10802601
36	0x3d9db486	0.07700448
37	0xbdad4136	-0.084597036
38	0xbd84d376	-0.064856455
39	0x3d9f1e76	0.07769482
40	0xbd841b66	-0.06450538
41	0x3b7bc10a	0.003841462
42	0x3d85f7fe	0.065414414
43	0x3dbe19e6	0.092822835
44	0x3cb68226	0.022278856
45	0xbd6dd096	-0.05806025
46	0x3d984b91	0.07436288
47	0x3d702d68	0.058637053
48	0x3da02ab0	0.07820642
49	0xbd711d06	-0.05886557
50	0x3d2c250c	0.04202752
51	0x3dfa91ed	0.122348644
52	0x3d4ee397	0.050510015
53	0xbc0f5938	-0.008749299
54	0xbd2328d4	-0.03983386
55	0x3ca6101f	0.020271359
56	0x3c2b04ad	0.0104381265
57	0x3d0ca200	0.034334183
58	0x3d999b32	0.07500304
59	0xbdd8c368	-0.10584146
60	0x3c8189c2	0.015812758
61	0xbd065422	-0.03279508
62	0xbd4188be	-0.047249548
63	0xbc23155b	-0.009953822
64	0x3d95eba7	0.07320338
65	0x3d659f02	0.056059845
66	0x3d97781b	0.07395955
67	0xbd0b446c	-0.0340008
68	0x3d9688ee	0.07350336
69	0x3cda79cc	0.026669405
70	0x3df21f4d	0.118223764
71	0xbd2e6c77	-0.04258391
72	0x3de6f77f	0.11277675
73	0x3dfb6b3c	0.12276313
74	0x3da33f1c	0.079710215
75	0x3df433a3	0.119239114
76	0x3d7a3610	0.061086714
77	0x3e045e0d	0.12926503
78	0xbdba6752	-0.09101738
79	0x3c292870	0.010324582
80	0x3dda92fc	0.10672566
81	0x3c450ba0	0.012026697
82	0xbd833340	-0.064062595
83	0xbde9c9b2	-0.114154235
84	0xbd329503	-0.04359914
85	0x3ddf4d04	0.109033614
86	0x3d216ad4	0.03940852
87	0x3c7a3b12	0.0152728725
88	0x3d87e0ec	0.06634697
89	0x3c9b04d6	0.018923204
90	0x3e16b6a3	0.14718108
91	0x3c7882c6	0.015167898
92	0x3d861af8	0.06548113
93	0xbdad6bb4	-0.08467808
94	0x3bcf191c	0.006320132
95	0x3d8f7097	0.07003897
96	0x3d10641d	0.035251725
97	0xbdbd1151	-0.092318185
98	0x3cfb617b	0.03068613
99	0xbe1358e5	-0.1438938
100	0x3dddfe14	0.10839477
101	0x3e123feb	0.14282195
102	0x3d1dd932	0.03853721
103	0x3e179d8e	0.14806196
104	0x3de85828	0.113449395
105	0x3ddd1da7	0.10796671
106	0xbcce10b4	-0.025154449
107	0x3dd9cbab	0.1063455
108	0x3dd19c30	0.102348685
109	0x3d60bba8	0.054866463
110	0x3c42e7e6	0.011896109
111	0xbdae2122	-0.08502413
112	0xbb54ed7e	-0.003249019
113	0xbdb311c4	-0.08743623
114	0xbc0b5898	-0.008505009
115	0xbbe5cdb8	-0.007013049
116	0x3d25c125	0.0404674
117	0x3da1e7b3	0.07905521
118	0xbe055f65	-0.13024671
119	0xbdd0cfb5	-0.10195867
120	0xbd2c9cf0	-0.042141855
121	0x3d3cd020	0.04609692
122	0x3b83e338	0.0040248893
123	0x3c2745c2	0.010209503
124	0x3dd6a702	0.10481073
125	0x3d685c8f	0.056728896
126	0x3b10d94c	0.0022102175
127	0x3d9bbbe4	0.07604197
128	0x3da1347a	0.07871337
129	0x3d879b18	0.06621379
130	0x3d2b0f3b	0.04176257
131	0x3dc5deca	0.09661634
132	0x3d0f414e	0.03497439
133	0x3daffc7e	0.08593081
134	0xbd34579b	-0.04402886
135	0x3e189a07	0.14902507
136	0x3dcf60d5	0.10125891
137	0x3d71f9ee	0.059076242
138	0xbd5f0179	-0.054444764
139	0x3980b7a0	0.00024550874
140	0xbd5d71f3	-0.05406375
141	0xbda790de	-0.08181928
142	0xbd3b479c	-0.04572259
143	0x3d266798	0.04062614
144	0x3ca80ff5	0.020515421
145	0x3defff11	0.11718572
146	0x3db3f981	0.087878235
147	0xbd4b0ed6	-0.049574696
148	0x3c49b748	0.012311764
149	0xbc046e02	-0.0080828685
150	0x3de70c18	0.112816036
151	0xb9146440	-0.00014151726
152	0xbddc680e	-0.10762034
153	0x3d8e5706	0.06950192
154	0xbdaf0cc6	-0.08547358
155	0x3d3b2a94	0.045694903
156	0x3ddd3314	0.10800758
157	0x3da36379	0.07977957
158	0xbd1e5104	-0.03865148
159	0xbd571654	-0.052511528
160	0x3de4c05f	0.111695044
161	0xbddd5d28	-0.10808784
162	0x3decb522	0.11557986
163	0xbd9d94a8	-0.076943696
164	0xbd7fac7d	-0.062420357
165	0x3ad581b0	0.001628926
166	0x3d048ae9	0.032359038
167	0xbd85fdbc	-0.065425366
168	0xbd94476a	-0.07240184
169	0xbdac0608	-0.08399588
170	0x3a41f450	0.0007398771
171	0x3d9ab82b	0.075546585
172	0x3dd55ff2	0.10418691
173	0x3da0c35f	0.07849764
174	0x3dba207a	0.09088226
175	0x3c56540a	0.01308156
176	0x3d53bfea	0.051696695
177	0x3d258930	0.040414035
178	0xbd984237	-0.074345045
179	0xbbcb83d6	-0.0062107844
180	0xbdbf928e	-0.09354125
181	0xbd6184a6	-0.055058144
182	0x3d283662	0.04106749
183	0x3db5f8db	0.08885356
184	0x3dc05173	0.09390535
185	0x3c537d39	0.012908273
186	0xbd208b00	-0.03919506
187	0xbda0b7eb	-0.078475796
188	0x3d9246c2	0.07142402
189	0x3c5a8555	0.013337453
190	0x3d48a59d	0.048986066
191	0xbd5baeb3	-0.053633403
192	0xbd7ec38f	-0.062198218
193	0x3b82932a	0.0039848285
194	0xbd1e80fa	-0.03869722
195	0x39c77d10	0.00038049417
196	0xbda6f175	-0.08151523
197	0x3cae4fc2	0.021278266
198	0xbdc3bae3	-0.0955713
199	0xbd453046	-0.04814174
200	0x3d110334	0.035403445
201	0x3d92a86b	0.071610294
202	0xbd8ef47d	-0.06980226
203	0x3bebcebb	0.007196275
204	0x3dc04dc5	0.09389833
205	0xbcb7a367	-0.022416783
206	0xbc6ed5f7	-0.01457738
207	0x3d950530	0.0727638
208	0xbd7e3b26	-0.062068127
209	0xbce6fe30	-0.028197378
210	0xbdf3e416	-0.11908738
211	0x3d3b658d	0.045751143
212	0x3dc94ca7	0.098290734
213	0xbd839131	-0.064241774
214	0xbde2199a	-0.11040039
215	0x3dcaf09d	0.099091746
216	0x3dabcaa8	0.08388263
217	0x3d9a9ea2	0.07549788
218	0x3d18681b	0.037208658
219	0xbd3db683	-0.046316635
220	0xbe03146d	-0.1280076
221	0x3d7f59a6	0.062341355
222	0x3dcd7cbb	0.10033556
223	0xbad8b2ef	-0.0016532819
224	0xbbacfc23	-0.0052790805
225	0x3c989a4c	0.018628262
226	0x3cf6f6ab	0.030146917
227	0xbd5cdf38	-0.053923815
228	0xbd1b352b	-0.0378925
229	0xbd976c8b	-0.0739375
230	0x3ce54d8a	0.027991075
231	0x3d99eee9	0.075162716
232	0xbd90de6d	-0.07073674
233	0xbd86ec85	-0.06588081
234	0xbdd67745	-0.104719676
235	0xbda01a9c	-0.07817575
236	0xbd7da9cd	-0.061929513
237	0xbbee56b6	-0.0072735203
238	0x3de42e54	0.11141649
239	0xbd1534b4	-0.036427215
240	0xbcc968d2	-0.024586115
241	0x3d861800	0.065475464
242	0xbd34b21d	-0.044115175
243	0x3dd557f4	0.10417166
244	0xbd0fa6c4	-0.03507115
245	0xbd80e4a4	-0.0629361
246	0x3dadded1	0.084897645
247	0xbccc2658	-0.024920627
248	0xbe020191	-0.1269591
249	0xbd6e08a1	-0.058113698
250	0x3c3a167c	0.0113579
251	0xbd8b352e	-0.067972526
252	0x3d2fc3ef	0.042911466
253	0x3cda3e4b	0.026641032
254	0x3c6dc9f0	0.014513478
255	0x3cc64976	0.02420495

conv2.bias f4 [7]
0	0xbdc0b95d	-0.09410355
1	0xbd7055c8	-0.058675557
2	0x3dc14eb5	0.0943884
3	0x3d9e2008	0.07720953
4	0xbcf036d6	-0.029323023
5	0xbcd278e8	-0.025692418
6	0xbdafb00b	-0.085784994

conv2.lin.weight f4 [7, 16]
0	0x3dcbb0e7	0.09945851
1	0xbed87565	-0.42277065
2	0xbd52bc6b	-0.05144922
3	0x3eda66d8	0.4265659
4	0x3e390b82	0.18070796
5	0xbd5b6df3	-0.053571653
6	0xbeb7f88b	-0.3593181
7	0x3e079f2b	0.13244312
8	0x3e9da8c0	0.3079281
9	0x3edd5e0e	0.4323582
10	0xbe913313	-0.2835928
11	0x3d4f9ac8	0.05068472
12	0xbefe74d5	-0.4969851
13	0x3ed32b0b	0.41243777
14	0x3d4fcca2	0.050732262
15	0x3d9619c4	0.07329133
16	0xbe47b26f	-0.19501661
17	0xbef415ba	-0.47672826
18	0x3df16ccb	0.11788329
19	0xbc7ee774	-0.015558112
20	0xbed318e9	-0.41229942
21	0xbd844cd7	-0.064599685
22	0xbe5d8663	-0.21633296
23	0x3e6bdaa8	0.2303263
24	0xbee2a234	-0.44264376
25	0xbca9cc88	-0.02072741
26	0x3e89b8e2	0.26898867
27	0x3e912ef5	0.28356138
28	0xbe91809f	-0.28418443
29	0xbf0fb421	-0.5613423
30	0xbeb1ec14	-0.34750426
31	0x3e91afd5	0.28454462
32	0xbeaf43fa	-0.3423155
33	0xbe636704	-0.22207266
34	0xbf043dd7	-0.5165686
35	0x3ef826bc	0.48467052
36	0xbe81a8d0	-0.25324106
37	0x3e825986	0.25458926
38	0xbeff148c	-0.49820364
39	0xbeee3d37	-0.46531078
40	0xbec569f6	-0.38557404
41	0xbedd4367	-0.43215486
42	0xbe8c894b	-0.27448496
43	0x3e74b1f8	0.23896015
44	0x3d315e0e	0.04330259
45	0x3f08154c	0.53157496
46	0x3f1578f6	0.58387697
47	0x3efc67d8	0.49297976
48	0x3edb5c33	0.4284378
49	0xbe36f239	-0.17865838
50	0x3ee51021	0.44738868
51	0x3dad0a48	0.084492266
52	0x3a050bc0	0.0005075298
53	0xbe4c6fbe	-0.19964501
54	0x3ed33996	0.41254872
55	0x3e3e3b29	0.18577255
56	0x3e969fdc	0.29418838
57	0xbebe61c3	-0.3718396
58	0x3f0d6b73	0.5524208
59	0x3edff3ea	0.4374078
60	0xbe554c01	-0.20829774
61	0xbe9aa11d	-0.30201045
62	0x3edaf864	0.42767632
63	0xbede6057	-0.43432876
64	0x3ec0803b	0.37597832
65	0x3e54db85	0.20786865
66	0xbebe416b	-0.37159285
67	0x3f0d06da	0.5508858
68	0x3e2ba858	0.16763437
69	0x3efbfe90	0.49217653
70	0x3e081e19	0.13292731
71	0xbed9ab96	-0.42513722
72	0xbe94e854	-0.29083502
73	0x3effd02e	0.49963516
74	0x3eb5b135	0.3548676
75	0xbe841d75	-0.25803724
76	0x3e9e0a36	0.30867165
77	0x3d8564d4	0.06513372
78	0x3eb8c8e9	0.36090782
79	0xbebfef30	-0.37487173
80	0xbea52911	-0.32257894
81	0xbeae1be9	-0.3400567
82	0xbef29207	-0.47377035
83	0xbf1113e0	-0.5667095
84	0xbedbf63c	-0.429613
85	0x3ea3ccb6	0.3199212
86	0x3ef559a4	0.47919953
87	0x3dc962ce	0.098332986
88	0x3eb4f928	0.3534634
89	0xbf0de2de	-0.55424297
90	0xbeed2692	-0.4631849
91	0x3d3d4fa8	0.046218544
92	0x3cf80bc1	0.030279042
93	0xbdfbd9cc	-0.12297401
94	0xbdae7467	-0.08518296
95	0xbde327c3	-0.11091568
96	0x3e4c3a9a	0.1994423
97	0x3efc734e	0.4930672
98	0xbe2d0286	-0.16895494
99	0x3e1d28bf	0.15347575
100	0xbe8ff607	-0.2811739
101	0x3b88d5b0	0.004175864
102	0x3d820887	0.06349283
103	0xbec81fd8	-0.39086795
104	0xbf019b7f	-0.50627893
105	0xbc9e79e8	-0.019345239
106	0x3dcdccfa	0.10048862
107	0x3e6d2949	0.2316028
108	0x3eaf821a	0.34278947
109	0x3ebbbe8f	0.36668822
110	0xbef84938	-0.4849336
111	0xbee62c43	-0.44955644
