mutation/target_models/cora_tagcn.pt (torch, 371783 bytes, 10 tensors)

conv1.bias f4 [16]
0	0x3b8e1915	0.004336486
1	0xb9c00100	-0.0003662184
2	0xbce63c3a	-0.02810489
3	0x3c6e9e9f	0.014564185
4	0xbcddcdce	-0.027075674
5	0xbabb6b00	-0.0014298856
6	0x3b8af1cc	0.00424025
7	0x3c454dea	0.012042502
8	0xbbb4116c	-0.005495241
9	0x3bd404a0	0.006470278
10	0x3c819f37	0.01582299
11	0x3c73077b	0.014833326
12	0x3c9e20ac	0.019302689
13	0x3d240ff5	0.04005428
14	0x3c7e39ac	0.01551668
15	0x3cc5f695	0.024165431

conv1.lins.0.weight f4 [16, 1433]
0	0xbd489041	-0.048965696
1	0xbcc8addc	-0.024496965
2	0xbb881460	-0.0041528195
3	0x3cdc5d86	0.026900064
4	0xbb0d2b42	-0.0021540676
5	0xbca6ec9b	-0.020376494
6	0xbc5befdf	-0.013423889
7	0xbd0ecb17	-0.03486165
8	0x3b120032	0.0022277948
9	0xbd26ade2	-0.04069317
10	0x3d19fea6	0.037596367
11	0xbcba5c09	-0.022748964
12	0x3c5869e8	0.013208844
13	0xbd2aa5b5	-0.041661937
14	0x3c912aea	0.017720658
15	0x3d0652ce	0.032793812
16	0xbd0f68c0	-0.035012007
17	0x3ccbcd5b	0.024878195
18	0x3b3dd8f0	0.0028968416
19	0xbccc1844	-0.024913915
20	0x3c4ea862	0.012613388
21	0x3ca6b8ba	0.020351756
22	0xbcec48ca	-0.028843302
23	0xbbe61776	-0.0070218397
24	0xbcc1854c	-0.023623131
25	0x3d33849e	0.043827645
26	0x3ce85f5d	0.028365785
27	0x39b599e0	0.00034637656
28	0xbbcf86e4	-0.006333219
29	0x3c87c57e	0.016573664
30	0x3d3aef6b	0.045638483
31	0xbb2f0d60	-0.0026710853
32	0xbc9cf599	-0.019160079
33	0xbc8bbcc8	-0.017057791
34	0x3cacb8d1	0.021084221
35	0x3d808b0f	0.06276523
36	0xbccc11ba	-0.024910796
37	0x3d29064e	0.04126578
38	0xbc32770a	-0.010892639
39	0xbaa8cbd6	-0.0012878131
40	0xbbd2da52	-0.006434717
41	0x3c7ea10a	0.015541324
42	0xbcd64afc	-0.026158802
43	0x3c18c359	0.009323918
44	0x3cd61e72	0.026137564
45	0x3d19605a	0.037445404
46	0x3c5a240d	0.013314259
47	0x3d97396e	0.07384001
48	0xbc351bb7	-0.011053971
49	0x3d406f2c	0.04698102
50	0x3cd42fcd	0.0259017
51	0xbd0087f0	-0.03137964
52	0x3ca9c8fc	0.02072572
53	0x3cc9ed52	0.024649296
54	0x3d63336a	0.055468954
55	0x3cfb3b84	0.030668028
56	0xbc26fec6	-0.010192579
57	0xbc891902	-0.016735557
58	0xbd4b866e	-0.04968875
59	0x3d6044bd	0.054753054
60	0x3bbd46e3	0.0057762726
61	0xbbaeeed6	-0.00533853
62	0x3adc43d5	0.0016804883
63	0x3c6fa0d0	0.014625743
64	0x3b1c8e36	0.0023888475
65	0xbd264ab4	-0.040598586
66	0xbc6034af	-0.013684436
67	0x3b3b7e29	0.0028609133
68	0xbd217f82	-0.03942824
69	0x3bafd581	0.005366028
70	0xbcb4e2fc	-0.02208089
71	0x3cbdc630	0.023165792
72	0xbcb23934	-0.021755792
73	0xbcad04fa	-0.021120537
74	0xba819f48	-0.0009889388
75	0xbd1adf57	-0.03781065
76	0x3d2c4c5e	0.042065017
77	0xbd22f9fc	-0.039789185
78	0x39c11562	0.0003682776
79	0xbb4e3098	-0.003146207
80	0xbd1a4bad	-0.037669826
81	0x3d1b36f2	0.037894197
82	0xbcab2857	-0.020893259
83	0x3b8217f2	0.0039701397
84	0xbcdcd182	-0.02695537
85	0xbc29f703	-0.010373834
86	0xbc07e2d2	-0.008293824
87	0xbc900888	-0.017582193
88	0xbd03282a	-0.032020725
89	0x3d6b6b18	0.05747518
90	0xbb4751da	-0.0030413778
91	0x3ca4c6f4	0.0201144
92	0x3ce7153c	0.028208368
93	0x3d4b6504	0.049656883
94	0x3cc737dd	0.02431863
95	0x3bfc403f	0.0076980884
96	0xbbbbfc07	-0.005736831
97	0x3d810c03	0.06301119
98	0x3d850091	0.06494249
99	0x3d918dde	0.07107137
100	0x3ce65004	0.028114326
101	0x3c7a5fca	0.015281627
102	0xbceddbee	-0.029035535
103	0xbd59a2ba	-0.053133704
104	0xbd4e0522	-0.050297864
105	0x3d2f10cf	0.04274064
106	0x3cc39b5a	0.023877788
107	0xbcb9259e	-0.022600945
108	0x3d529dc8	0.051420003
109	0xbd41d96b	-0.047326487
110	0x3d356eb8	0.044295043
111	0xbce7b20d	-0.028283143
112	0xbd270dd5	-0.040784676
113	0x3cc2e3dd	0.023790294
114	0xbcdf54a2	-0.027262036
115	0x3cf7fa5e	0.030270752
116	0x3c6d89d4	0.014498193
117	0x3c389708	0.011266477
118	0x3d4f06e5	0.050543685
119	0xbd1ae8ea	-0.03781978
120	0xbc786854	-0.0151615925
121	0xbd06d900	-0.03292179
122	0x3d3fee7e	0.046858303
123	0x3cbbe462	0.02293605
124	0xbc102b9c	-0.00879946
125	0xbce72708	-0.028216854
126	0x3d583a0a	0.052789725
127	0x3c63e6ae	0.013909979
128	0xbcbbe181	-0.022934677
129	0xbd58d931	-0.052941505
130	0xbcb3bad3	-0.02193967
131	0x3d406e5d	0.04698025
132	0xbcb50f82	-0.022102121
133	0xbd02776c	-0.03185217
134	0x3d501c99	0.050808523
135	0x3b8a468e	0.0042198366
136	0xbcb23009	-0.02175142
137	0x3ca2f164	0.019890495
138	0xbc3e9eae	-0.011634512
139	0x3d0e3794	0.034720972
140	0x3d02955d	0.031880725
141	0x3d5f5117	0.054520693
142	0x3c73a2dd	0.014870373
143	0xbce119aa	-0.027478058
144	0xbbcb8f44	-0.006212147
145	0xbcece35d	-0.028917009
146	0x3d135aa0	0.0359751
147	0xbcab39ea	-0.020901639
148	0x3d0f6097	0.035004225
149	0x3b6f78d8	0.0036540534
150	0xbd2d0c5a	-0.042248107
151	0x398fbc8c	0.00027415564
152	0x3b5e8162	0.003395163
153	0x3cd98fd5	0.026557842
154	0x3b854942	0.004067571
155	0x3d327858	0.0435718
156	0xbc47a100	-0.0121843815
157	0xbcbd5cea	-0.023115594
158	0x3d2d786f	0.042351183
159	0x3cf3b013	0.029747045
160	0xbc9ffee8	-0.019530728
161	0xbbea2772	-0.0071458155
162	0x3d4f3361	0.050586108
163	0x3d452914	0.04813488
164	0x3d19b912	0.037530012
165	0x3c885525	0.016642163
166	0xbbbf0a60	-0.005830094
167	0x3c23f829	0.010007896
168	0xb9758ae0	-0.00023416756
169	0x3d548070	0.0518803
170	0xbb6ba4d9	-0.003595641
171	0xbd2a748d	-0.041615058
172	0xbc9917d3	-0.018688118
173	0xbc3ed01a	-0.011646295
174	0x3d42ac0a	0.04752735
175	0x3d1f8f46	0.038954996
176	0xbb53f2d0	-0.0032340772
177	0x3d558229	0.052126084
178	0x3c88fca2	0.016722027
179	0x3cf1b4ee	0.02950522
180	0x3c6a0104	0.014282469
181	0x3d188674	0.0372376
182	0xbc833269	-0.016015248
183	0x3c0d356a	0.008618692
184	0xbcc939c3	-0.024563676
185	0x3c1d719e	0.009609608
186	0x3c3549c9	0.011064955
187	0x3b5f2093	0.0034046515
188	0x3d672f97	0.05644187
189	0x3bcf04c4	0.006317707
190	0xbd426e63	-0.047468554
191	0xbca43a1f	-0.020047246
192	0x3d0f22aa	0.034945168
193	0xbd2ba880	-0.04190874
194	0xbd0677aa	-0.032828964
195	0x3d1147d3	0.035468888
196	0x3af8f1c8	0.0018992955
197	0xbd4622b4	-0.04837294
198	0x3d814c68	0.063134015
199	0x3d3769da	0.044778682
200	0x3d069dfd	0.032865513
201	0xbccb7db6	-0.024840217
202	0xbd371ac8	-0.044703275
203	0x3d8a4b48	0.0675264
204	0xbbb7db84	-0.005610885
205	0x3d3490c2	0.044083364
206	0xbc80b2fb	-0.015710345
207	0xbd3aa56c	-0.045567915
208	0xbd1fa7f1	-0.03897852
209	0x3d394ee6	0.04524126
210	0x3c963361	0.018335046
211	0xbc484ab2	-0.01222484
212	0x3c431e5e	0.011909096
213	0x3ccf2384	0.02528549
214	0x3b2bca0a	0.0026212954
215	0xbd0a6ead	-0.033796955
216	0xbc8336d7	-0.01601736
217	0xbd4d7eb8	-0.050169677
218	0xba896b20	-0.0010484196
219	0x3d071554	0.032979324
220	0x3d929da7	0.07158976
221	0x3d279cec	0.040921137
222	0x3d0bea53	0.034159016
223	0x3cd399bc	0.025830142
224	0x3adc6696	0.0016815241
225	0x3d1776ce	0.036978535
226	0xbce2cce5	-0.027685592
227	0x3d1954c2	0.037434347
228	0x3c1dd6e4	0.009633753
229	0xbb93ec6e	-0.0045142686
230	0xbc666fb2	-0.014064716
231	0xbd0498f3	-0.032372426
232	0xbca57a30	-0.020199865
233	0xbc8db36f	-0.017297475
234	0xbd0c73b2	-0.034290023
235	0x3c796ef1	0.015224204
236	0xbc837d1f	-0.016050873
237	0xbd4657a0	-0.04842341
238	0xbd09b0c5	-0.033615846
239	0xbd0d696a	-0.03452436
240	0xbc9bbe1d	-0.019011552
241	0xbd5997c2	-0.053123243
242	0x3d79ea5c	0.06101452
243	0xbcd2bd29	-0.025724964
244	0xbd41435a	-0.047183372
245	0x3d4b510d	0.049637843
246	0x3d118ec4	0.035536543
247	0x3be4b995	0.006980131
248	0xbc6b2c58	-0.014353834
249	0xbc81385a	-0.01577394
250	0x3d825f97	0.063658886
251	0xbc245c2c	-0.010031741
252	0xbb2c047c	-0.002624779
253	0xbd2635a0	-0.040578485
254	0xbc9aaf26	-0.018882345
255	0x3d55162e	0.052023105

conv1.lins.1.weight f4 [16, 1433]
0	0xbd06a486	-0.032871746
1	0xbd0b37cc	-0.03398876
2	0x390e3690	0.00013562501
3	0x3c781a64	0.015143011
4	0xbd5b6bd0	-0.053569615
5	0xbba2a0fe	-0.0049630394
6	0x3d6e14ec	0.05812542
7	0xbbd6e7c1	-0.006558389
8	0x3d249c82	0.04018832
9	0x3cf2b684	0.029628046
10	0x3d0ae979	0.033914063
11	0xbd38d84f	-0.045128163
12	0xbd04991f	-0.03237259
13	0xbd5f6380	-0.05453825
14	0xbca50bdf	-0.020147262
15	0xbca27394	-0.019830503
16	0x3a537a6e	0.00080672547
17	0x3cc4fcec	0.024046384
18	0xbcffe7b4	-0.031238414
19	0xbbdacf28	-0.006677527
20	0xbc3e7bb6	-0.011626175
21	0xbcd55388	-0.026040807
22	0xbcfb9511	-0.030710729
23	0xbc2cd27d	-0.010548231
24	0xbb2a59d4	-0.0025993483
25	0x3d1a5020	0.03767407
26	0x3d064a50	0.032785714
27	0x3d2439fa	0.040094353
28	0xbd03e07c	-0.032196507
29	0x3d5c4848	0.05377987
30	0x3d322cc4	0.043499723
31	0x3c6cacda	0.014445508
32	0xbc9d3979	-0.019192444
33	0x3c46c414	0.01213171
34	0x3d8d31a0	0.06894231
35	0xbb718ff7	-0.0036859491
36	0xbcfede08	-0.031111732
37	0x3d67a35c	0.056552276
38	0xbba56d8c	-0.0050484594
39	0xbcca0adf	-0.024663387
40	0xbd13dacf	-0.036097344
41	0xbcde2be6	-0.027120542
42	0x3c990d49	0.018683093
43	0xbce32049	-0.027725356
44	0xbcb90a20	-0.022587836
45	0x3d898c27	0.06716185
46	0xbc6db4ec	-0.014508467
47	0x3ce4c7c0	0.02792728
48	0xbd0fa9a2	-0.035073884
49	0x3d6275cd	0.055288125
50	0x3d5f55b6	0.0545251
51	0x3cd06062	0.025436584
52	0x3cb534dc	0.022119932
53	0xbc161074	-0.009159196
54	0xbd219fa7	-0.039458897
55	0x3d6ec60e	0.05829435
56	0x3bdfbc32	0.0068278546
57	0x3d3b652e	0.04575079
58	0xbaeb617c	-0.001795813
59	0xbca444ef	-0.020052401
60	0x3d1cfbfa	0.03832624
61	0x3b33245f	0.0027334911
62	0xbc5ec1a5	-0.013595973
63	0x3d122290	0.035677493
64	0xbcbd4b46	-0.023107182
65	0xbc33c880	-0.010973096
66	0xbd1b32ec	-0.03789036
67	0x396cdc7c	0.0002258885
68	0xbc123166	-0.00892291
69	0xbcfa9bf4	-0.030591942
70	0x3d8a8354	0.0676333
71	0x3b8ea9c1	0.0043537323
72	0xbd516992	-0.05112607
73	0xbcda0f76	-0.0266187
74	0x3d8e1f9a	0.06939621
75	0xbbd624a4	-0.0065351296
76	0x3d2ca490	0.042149127
77	0xbd61bd4b	-0.055112164
78	0xbcbdd078	-0.023170695
79	0xbd0428eb	-0.032265585
80	0xbc8d51f0	-0.017250985
81	0x3d60357a	0.0547385
82	0xbcf6d3a5	-0.030130217
83	0xbb5fdcb8	-0.0034158658
84	0xbd15e186	-0.03659203
85	0xbd18e01e	-0.03732311
86	0xbc43ee50	-0.011958674
87	0x3bde7ce8	0.0067897923
88	0xbc2f1f6f	-0.010688647
89	0xb9f98f60	-0.00047599804
90	0x3c8317f9	0.016002642
91	0x3c6b235f	0.014351695
92	0xbc419a48	-0.011816569
93	0x3c4ae0b4	0.012382675
94	0xbc96104a	-0.018318314
95	0x3bba5324	0.0056861807
96	0x3d2513a6	0.04030194
97	0xbb77b710	-0.0037798323
98	0x3d554d49	0.052075658
99	0x3cc6d99c	0.024273686
100	0xbc8df9da	-0.017331053
101	0xbccc0b47	-0.024907721
102	0xbc0eedfc	-0.008723732
103	0xbc59d725	-0.013295923
104	0xbced4a44	-0.028966077
105	0x3d1df2d4	0.038561657
106	0x3cb1200e	0.02162173
107	0x3c957373	0.018243527
108	0x3d34bd32	0.044125743
109	0xbc649a98	-0.013952874
110	0x3d14af67	0.03630009
111	0xbbc12aac	-0.0058949795
112	0xbc81a933	-0.01582775
113	0x3d31d894	0.043419436
114	0x3c120bb3	0.008913922
115	0x3cb15d80	0.02165103
116	0x3cb5fc0c	0.022214912
117	0xbd535581	-0.051595215
118	0x3cc4756d	0.023981774
119	0xbacd4f44	-0.0015663882
120	0xb9ddbf68	-0.00042295014
121	0x3bb8f2c0	0.0056441724
122	0x3cccc110	0.024994403
123	0x3cd9c8ae	0.02658495
124	0xbce652b0	-0.0281156
125	0xbc0339ec	-0.008009415
126	0x3d314f96	0.04328879
127	0x3d451c73	0.048122834
128	0xbc8708c7	-0.016483678
129	0x3cc03226	0.023461413
130	0xbc56cac6	-0.013109868
131	0x3d197c10	0.03747183
132	0x3cb0e58d	0.021593833
133	0xbc92f487	-0.017938865
134	0x3c95227f	0.018204926
135	0xbcc178e9	-0.023617225
136	0xbce7f027	-0.028312756
137	0x3d8bbf1b	0.0682356
138	0xbc5a1dc3	-0.01331276
139	0x3d0606eb	0.03272144
140	0x3d107246	0.03526523
141	0x3d479903	0.048729908
142	0xbcc5f0ec	-0.024162732
143	0xbd4f1534	-0.05055733
144	0x3cddd148	0.027077332
145	0xbce79c22	-0.028272692
146	0xbcdfc380	-0.027314901
147	0x3d3d3edd	0.04620253
148	0x3d4687bf	0.0484693
149	0x3ce70c25	0.028204033
150	0x3b5b9c10	0.0033509769
151	0x3adc7f92	0.0016822687
152	0xbca37f62	-0.019958202
153	0x3d552ce3	0.05204476
154	0x3d623d85	0.05523445
155	0x3d2c3533	0.042042922
156	0xbd1bdb2a	-0.038050808
157	0xba28f887	-0.0006445725
158	0x3d232c2b	0.039837044
159	0x3d4f9518	0.050679296
160	0xbd08c0ba	-0.033386923
161	0x3d5dba7c	0.054132923
162	0xbc8c7654	-0.017146267
163	0x3d70c727	0.058783676
164	0x3d0b4324	0.033999577
165	0x3d224a91	0.039621893
166	0xbc8c845e	-0.017152961
167	0x3cc2d574	0.023783423
168	0xbd55cc2e	-0.052196674
169	0xbc8e2cd1	-0.017355355
170	0x3c3b721c	0.01144078
171	0xbc75b4fd	-0.014996764
172	0x3cac22da	0.021012712
173	0xbcaafe40	-0.020873189
174	0xbb82583c	-0.0039778035
175	0xbd0a17d0	-0.033714116
176	0xbba8a69c	-0.0051468145
177	0xbc03f1d6	-0.008053264
178	0x3c011dbe	0.007880626
179	0xbc05f0bd	-0.008175072
180	0xbbce8db4	-0.0063035134
181	0x3d298123	0.04138292
182	0xbcb5d8e9	-0.022198157
183	0x3cf2dbc6	0.029645812
184	0x3c7fafe4	0.0156059
185	0x3bfb7005	0.007673266
186	0xbd048dab	-0.032361668
187	0x3c2dd01a	0.010608697
188	0x3c93bc4e	0.018034127
189	0x3a72c720	0.00092612393
190	0xbc660606	-0.014039522
191	0x3caed316	0.021340888
192	0xbcc1b22b	-0.023644527
193	0xbc69271c	-0.014230516
194	0x3c1f175f	0.009710162
195	0xbd434a15	-0.047678072
196	0xbc554df6	-0.013019076
197	0x3cc09275	0.023507336
198	0x3babb014	0.005239496
199	0x3ca7a25e	0.020463165
200	0x3d611344	0.054950014
201	0xbd5cdcc0	-0.05392146
202	0xbd1d7c0f	-0.03844839
203	0xbc4fb310	-0.012676969
204	0xbcd82a3e	-0.02638733
205	0x3d7186c0	0.0589664
206	0xbc2880e8	-0.01028464
207	0xbca4b670	-0.020106524
208	0xbadeaace	-0.001698816
209	0x3c1f0ab2	0.00970714
210	0x3b0d32d2	0.0021545184
211	0x3d0f0162	0.034913428
212	0xbb37590c	-0.002797666
213	0x3d158a3e	0.03650879
214	0x3c952d28	0.018210009
215	0xbbe48e68	-0.006974984
216	0xbc660ab8	-0.0140406415
217	0xbd3b13dd	-0.04567324
218	0xbd10c896	-0.035347544
219	0x3d80e9e4	0.06294611
220	0x3d0ab4b7	0.03386375
221	0x3b0887ce	0.00208329
222	0x3d4dc996	0.050241075
223	0xbc5d817e	-0.013519643
224	0xbbe7f96b	-0.0070792935
225	0xbc9c6eca	-0.019095797
226	0xbcaa9443	-0.02082265
227	0x3c3e7a4c	0.011625838
228	0x3bd1272e	0.0063828444
229	0x3c72af53	0.014812308
230	0xbc397971	-0.011320458
231	0xbcd25818	-0.025676772
232	0x3cff6ff7	0.031181319
233	0xbd01daa3	-0.03170265
234	0xbc8b8d18	-0.017035052
235	0x3c86fc3b	0.016477695
236	0xbd1ab8db	-0.03777395
237	0xbbff3774	-0.007788593
238	0xbce7a872	-0.028278563
239	0xbbed5832	-0.0072431797
240	0xbc509d84	-0.012732867
241	0xbbcde281	-0.006283105
242	0xbb9ebe0b	-0.004844432
243	0xba6379bc	-0.00086775026
244	0xbbdf55c4	-0.006815644
245	0x3d436580	0.04770422
246	0x3be5d55c	0.00701396
247	0x3a5e2de0	0.0008475464
248	0xbc8e2423	-0.017351216
249	0x3c4f9bb7	0.012671403
250	0x3ce59dd2	0.028029356
251	0x3d32e9aa	0.04367987
252	0x3c943867	0.018093301
253	0xbc5e6d1f	-0.013575821
254	0xbd48f735	-0.04906388
255	0x3cc246c4	0.023715384

conv1.lins.2.weight f4 [16, 1433]
0	0xbd286014	-0.041107252
1	0xbcf3e1b6	-0.029770713
2	0xbd016c0e	-0.03159719
3	0x3d244c6c	0.040111944
4	0xbcc39cee	-0.02387854
5	0xbcb7177b	-0.022350064
6	0x3d8a8f8e	0.06765662
7	0xbcddf708	-0.027095333
8	0x3d4d8d5c	0.05018364
9	0x3cac8d77	0.02106355
10	0xbc536980	-0.012903571
11	0xbd0ef8f2	-0.03490538
12	0xbbb5f469	-0.0055528176
13	0xbc88481b	-0.016635945
14	0x3c59d4b7	0.013295344
15	0x3bd1276f	0.0063828747
16	0xba834660	-0.001001548
17	0x3cebf338	0.0288025
18	0x3c7b58c8	0.015340991
19	0xbd3b6a98	-0.045755953
20	0xbca2bc7a	-0.019865263
21	0xbcd66921	-0.026173176
22	0xbd021192	-0.031755038
23	0xbcf3c5f2	-0.029757474
24	0x3cab9018	0.020942733
25	0x3ccc4c7f	0.02493882
26	0x3d2e700c	0.042587325
27	0x3cf22f26	0.029563498
28	0xbbf3575c	-0.0074261855
29	0x3d72301d	0.059127916
30	0x3d8dde21	0.06927133
31	0x3c926b60	0.017873466
32	0xbce8f9ea	-0.02843948
33	0xbd28e5f8	-0.04123494
34	0x3ce0b4e1	0.02743
35	0xbc3d19d5	-0.011541803
36	0xbc4c4c9e	-0.012469439
37	0x3ca95f9e	0.020675477
38	0xbc998e8f	-0.018744735
39	0xbc8043de	-0.015657362
40	0xbc967258	-0.01836507
41	0xbcf2257e	-0.029558893
42	0xbc4e6974	-0.012598384
43	0xbb3122ec	-0.0027028872
44	0xbc245969	-0.010031083
45	0x3d28de83	0.04122783
46	0xbc83f439	-0.016107665
47	0x3d0b0854	0.03394349
48	0x3aeed1fc	0.0018220539
49	0x3cc85e8c	0.024459146
50	0x3d7769d2	0.060403652
51	0x3d1e72af	0.03868359
52	0xbb305066	-0.002690339
53	0xba8683b0	-0.0010262635
54	0x3d77219e	0.060334794
55	0x3d349d8c	0.04409556
56	0x3a06c470	0.0005140966
57	0x3cc810a6	0.024422001
58	0xbc094304	-0.008377794
59	0xbbc0c1c8	-0.0058824755
60	0xbcec47e6	-0.028842878
61	0xba119320	-0.00055532344
62	0xbcc597be	-0.024120208
63	0x3cc1bbcb	0.023649117
64	0xbd029522	-0.031880505
65	0xbc2cf61f	-0.010556727
66	0xbbbf5529	-0.0058390093
67	0xbcbdad6c	-0.023153983
68	0xbbaa6eb0	-0.0052011833
69	0x3c7eb476	0.015545955
70	0x3b9b9405	0.00474787
71	0xbc9e8a6d	-0.019353116
72	0xbc15c797	-0.009141824
73	0xbcfab202	-0.030602459
74	0x3d4bf920	0.04979813
75	0xbd3351ab	-0.043779057
76	0x3d61fddf	0.05517375
77	0xbcfcd0e8	-0.030861333
78	0xbcbf895e	-0.023380931
79	0xbcf046d2	-0.029330645
80	0xbc39d5c8	-0.011342473
81	0x3d47928c	0.048723742
82	0xbc60e694	-0.013726849
83	0x3d03db80	0.032191753
84	0xbd12d0bd	-0.0358436
85	0xbd4d5f92	-0.05013997
86	0xbc8ed8b6	-0.01743732
87	0xbc99b53b	-0.018763175
88	0xbc6f1af1	-0.014593826
89	0xbc202f2e	-0.0097768735
90	0xbc8ae572	-0.016955111
91	0x3d80eb20	0.062948465
92	0x3cc14b12	0.023595367
93	0xbb3b1592	-0.0028546792
94	0x3d64edaf	0.055890735
95	0x3cce7854	0.025203861
96	0x3c7ceee4	0.015437815
97	0x3b9c31fc	0.004766701
98	0x3d9a3df6	0.07531349
99	0x3d8ba53e	0.06818627
100	0x3c0ed8a1	0.008718641
101	0xbc99e544	-0.01878608
102	0xbc868800	-0.016422272
103	0xbd2e0408	-0.042484313
104	0xbb8373aa	-0.004011591
105	0x3caffcc4	0.021482833
106	0x3d0e6538	0.0347645
107	0xbcbab5b8	-0.022791728
108	0x3cd24fa8	0.025672749
109	0xbb8063ef	-0.003918163
110	0x3cc1ce74	0.023658015
111	0xbd057273	-0.03257985
112	0xbc3a3ba9	-0.011366763
113	0x3cbb423e	0.022858735
114	0xbcd58458	-0.026064083
115	0x3d5627e0	0.05228412
116	0x3ce184ea	0.027529199
117	0x39257c60	0.0001578196
118	0x3cd08bf0	0.025457352
119	0xbc899221	-0.016793313
120	0xbc65d64e	-0.014028145
121	0x3c176888	0.009241231
122	0x3d555792	0.052085467
123	0x3c583470	0.013196096
124	0xbbb0b845	-0.0053930604
125	0xbc87df4c	-0.016585968
126	0x3d33b58e	0.043874316
127	0x3ca586ba	0.020205844
128	0xbc0c4ad0	-0.008562759
129	0x3cf1b1e4	0.02950377
130	0xbcfd411d	-0.030914837
131	0x3cb5d60b	0.02219679
132	0xbc27e644	-0.010247771
133	0xbbae22bb	-0.005314199
134	0x3c99ba47	0.018765582
135	0xbc8815c9	-0.01661195
136	0xbc3d5c91	-0.011557714
137	0x3d8c6b4e	0.06856404
138	0xbbccac55	-0.0062461295
139	0x3d8b3157	0.0679652
140	0x3d114b83	0.035472404
141	0x3d0082e6	0.031374834
142	0x3cbc3c62	0.022978012
143	0xbd4f1425	-0.05055632
144	0xbc014f80	-0.007892489
145	0xbc96cc98	-0.018408105
146	0xbcbce9d2	-0.023060713
147	0x3d0c6c10	0.034282744
148	0x3d569e55	0.05239709
149	0x3c7937a0	0.015211016
150	0xbcf4973a	-0.029857267
151	0x3c3640e2	0.011123868
152	0xbbedd564	-0.007258104
153	0x3d16636c	0.03671591
154	0x3bc8c5a0	0.0061270744
155	0x3c981a70	0.018567294
156	0xbd1ee5d5	-0.038793404
157	0xbd1471ee	-0.036241464
158	0x3d80112b	0.062532745
159	0x3cd69a31	0.026196571
160	0xbd3f4e0a	-0.046705283
161	0xbb5f8dac	-0.0034111543
162	0x3d399abe	0.04531359
163	0x3d4514a3	0.048115384
164	0x3d96e7a7	0.07368403
165	0x3d194f7f	0.03742933
166	0xbd00ed0d	-0.03147607
167	0x3d6351ff	0.05549812
168	0xbd2141ad	-0.039369274
169	0xbae2edde	-0.0017313322
170	0x3c18b806	0.009321218
171	0xbd38b5b1	-0.04509515
172	0xbd24e09e	-0.040253274
173	0x3c532558	0.012887321
174	0x3d43560c	0.047689483
175	0x3d82b8f6	0.06382935
176	0xbd1f5a42	-0.038904436
177	0xbbae1cf5	-0.0053135105
178	0x3cc5392a	0.02407511
179	0x3b903d7b	0.0044018603
180	0x3cba8eba	0.022773135
181	0x3cb5a298	0.022172257
182	0xbd17ac2c	-0.03702943
183	0x3d7cbea1	0.061705235
184	0x3c526c56	0.012843212
185	0x3c9e252f	0.01930484
186	0xbc6b141c	-0.014348056
187	0xbbc286a1	-0.005936459
188	0x3d8fa760	0.07014346
189	0xbce59bcc	-0.028028391
190	0xbd1ff14d	-0.03904848
191	0x3d824058	0.06359929
192	0xbc80406e	-0.015655722
193	0xbd23bd81	-0.039975647
194	0x3d061d36	0.0327427
195	0x3ab1d11f	0.0013566351
196	0xbc8a705b	-0.016899278
197	0x3d7a503a	0.061111666
198	0x3d6f34fa	0.05840013
199	0x3cba0e78	0.022711977
200	0x3d85f5e0	0.065410376
201	0xbc787a40	-0.015165865
202	0xbd08c0e2	-0.033387072
203	0x3d3867be	0.04502081
204	0xbcc50a9d	-0.024052912
205	0x3d8304cf	0.063974015
206	0xbc85b9ca	-0.016323943
207	0xbc8e4245	-0.017365584
208	0x3b637488	0.003470691
209	0xbc461dee	-0.012092097
210	0x3d0f3829	0.034965668
211	0x3c51b954	0.012800533
212	0xbc94ad31	-0.01814899
213	0x3d1dc68c	0.038519427
214	0xbcd89c0f	-0.026441602
215	0xbc8ac4b2	-0.016939495
216	0xbc12934f	-0.008946254
217	0xbb433cdd	-0.0029790916
218	0xbcacd170	-0.021095961
219	0x3d652842	0.055946596
220	0x3d0bca98	0.034128755
221	0x3d3f6c18	0.046733946
222	0x3d93cc5c	0.07216713
223	0x3cb9512e	0.022621717
224	0xba7f0fc4	-0.0009729827
225	0xba0f0850	-0.0005456256
226	0xbbd024d7	-0.006352048
227	0xbbc67398	-0.0060562603
228	0x3b945f63	0.0045279725
229	0x3979f9ec	0.00023839594
230	0xbd0a5921	-0.033776406
231	0xbcfdc058	-0.030975506
232	0x3d0f463e	0.034979098
233	0xbcd3c7f4	-0.025852181
234	0xbc70835f	-0.014679759
235	0xbd1b72a4	-0.037951127
236	0xbd310c1c	-0.04322444
237	0xbcbadfcc	-0.022811793
238	0xbca4351c	-0.020044856
239	0xbd20f32d	-0.03929441
240	0xbcfcfacd	-0.03088131
241	0xbd1347a6	-0.035957
242	0x3cbd24ce	0.023088839
243	0xbb8800d9	-0.0041504917
244	0xbd12715a	-0.03575263
245	0x3d36c13e	0.044617884
246	0x3b0aa049	0.0021152666
247	0x3c6de19c	0.0145191215
248	0xbd01672d	-0.031592537
249	0xbc9a396d	-0.01882621
250	0x3d51eaae	0.0512492
251	0x3d1448f1	0.036202375
252	0x3d021424	0.03175749
253	0xbcd6dee4	-0.02622933
254	0xbc5f94c0	-0.013646305
255	0x3d52a46b	0.051426332

conv1.lins.3.weight f4 [16, 1433]
0	0xbca5336c	-0.020166121
1	0xbcce8cfb	-0.02521371
2	0x3b6e4ed2	0.0036362899
3	0xbbc771bb	-0.006086556
4	0xbc69b437	-0.014264158
5	0x3bdda377	0.0067638713
6	0x3d8eb1ce	0.06967507
7	0xbc8fac7b	-0.0175383
8	0x3d57fe4d	0.052732754
9	0x3ce1b0f8	0.027550206
10	0x3b8bb721	0.004263774
11	0xbd3288e8	-0.043587595
12	0x39fb2910	0.00047905045
13	0xbd034e7f	-0.03205728
14	0x3b8104d1	0.0039373417
15	0xbd3ac2e7	-0.04559603
16	0xbbc6ce1d	-0.006067051
17	0x3d8a30a6	0.0674756
18	0xbcd4e60d	-0.025988603
19	0xbd2ba0d1	-0.041901413
20	0xbc9b2d20	-0.018942416
21	0xbbfd5454	-0.007731
22	0xba4ed928	-0.0007890635
23	0xbcc3910f	-0.02387288
24	0x3ce90c12	0.028448138
25	0x3ce86431	0.028368087
26	0x3b6e5628	0.003636727
27	0x3d070671	0.032965127
28	0xbcf71bd5	-0.030164639
29	0x3caa703d	0.020805473
30	0x3d21605d	0.03939854
31	0x3cef493c	0.029209726
32	0xbd3d432e	-0.046206646
33	0x3c5383c8	0.012909837
34	0x3d32da80	0.04366541
35	0xbd080d6a	-0.033215918
36	0xbc406128	-0.011741914
37	0x3ceca70e	0.028888252
38	0xbc8802d4	-0.016602911
39	0x3a4e4efb	0.00078700454
40	0xbd6365c3	-0.05551697
41	0x3b3b549c	0.0028584367
42	0xbc9f168c	-0.01941993
43	0xbcc72042	-0.024307374
44	0xbc93bd6c	-0.01803466
45	0x3d509327	0.050921585
46	0xbccd36f0	-0.02505061
47	0x3d38b05d	0.045090068
48	0xbaf7b63f	-0.0018898918
49	0x3d0e3bef	0.034725126
50	0x3d8d2738	0.06892246
51	0x3d53ed70	0.05174011
52	0xbb257394	-0.0025245892
53	0x3c86fb04	0.016477115
54	0x3c0cc848	0.008592673
55	0x3d933d45	0.071894206
56	0x3cbcde8e	0.023055341
57	0x3cbf5f5a	0.023360897
58	0x3c54a159	0.012977921
59	0xbce4e772	-0.027942393
60	0x3d7e1c1e	0.062038533
61	0xbcadee18	-0.021231696
62	0xbac7fd16	-0.0015257921
63	0x3ce8c992	0.028416429
64	0xbd10b7d1	-0.03533155
65	0x3c312444	0.010811869
66	0xbc445fec	-0.01198576
67	0xbcc98e2d	-0.024603928
68	0xbd4d855a	-0.050176002
69	0xbcbb041a	-0.022829104
70	0x3d52e573	0.05148835
71	0xbc60c526	-0.013718879
72	0xbb940294	-0.004516909
73	0xbba9b4c2	-0.0051790187
74	0x3cdd6dc6	0.027029883
75	0xbd34faa1	-0.04418433
76	0x3d2b6af4	0.041850045
77	0xbd0ad4b0	-0.03389424
78	0x3b408b44	0.0029379884
79	0xbcefebf8	-0.029287323
80	0xbcd7c09b	-0.026336959
81	0x3d930f1d	0.07180617
82	0xbcdbbaf2	-0.02682254
83	0xbc0c7120	-0.008571893
84	0xbb6fab06	-0.0036570444
85	0xbc98c7ea	-0.018650014
86	0xbb9545b8	-0.0045554303
87	0xbca79878	-0.020458445
88	0xbae525a8	-0.0017482536
89	0xbc126ac6	-0.00893659
90	0xbbc252fe	-0.0059303036
91	0x3c05367d	0.008130667
92	0xbc226ffb	-0.009914394
93	0xbc856fe4	-0.016288705
94	0xbc362a64	-0.011118505
95	0x3c1354ae	0.008992357
96	0x3d8e7868	0.069565594
97	0x3be5860b	0.0070045046
98	0x3cf8d080	0.030372858
99	0x3d6ddf24	0.05807413
100	0xbc8f60ae	-0.017502155
101	0xbbbc3847	-0.0057440135
102	0xbbff31dc	-0.007787926
103	0xbd53eedd	-0.05174147
104	0xbc873069	-0.016502576
105	0x3ce890bf	0.028389333
106	0x3ce5dc67	0.028059198
107	0x3c132b30	0.008982465
108	0x3d8e764e	0.069561586
109	0xbd1427dc	-0.036170825
110	0x3cdc7d26	0.026915144
111	0xbcf3b233	-0.029748058
112	0x3bf65db6	0.0075184954
113	0x3d07c0df	0.03314292
114	0xbc30dbcc	-0.010794591
115	0x3d150f46	0.03639152
116	0x3cd75e14	0.026289977
117	0xbadcb20c	-0.001683773
118	0x3d1cd213	0.03828628
119	0xbd0b4646	-0.034002565
120	0x3c42495e	0.011858312
121	0x3c8cfe30	0.01721105
122	0x3d40421c	0.046938047
123	0x3cbbdeb2	0.022933338
124	0xbd04c414	-0.032413557
125	0xbcda413b	-0.026642432
126	0x3d18c53e	0.03729748
127	0x3c8df2a3	0.017327612
128	0xbcb6e4c6	-0.022325885
129	0x3d177fc9	0.0369871
130	0x3bcb74b8	0.0062089823
131	0x3c3e53d1	0.011616663
132	0xbb7c0c22	-0.003845938
133	0x3cbe4b4a	0.02322926
134	0xbc82331c	-0.015893511
135	0x3b309ad8	0.0026947763
136	0xbd47970d	-0.048728038
137	0x3d04a619	0.032384966
138	0xbc9b04f9	-0.01892327
139	0x3cedc29e	0.029023465
140	0x3d711d89	0.058866058
141	0x3cbf5f44	0.023360856
142	0x3bdbbd8c	0.0067059454
143	0xbca502b7	-0.020142896
144	0xbc3e8faa	-0.011630932
145	0xbd0abc84	-0.03387119
146	0xbca4ee5b	-0.020133188
147	0x3d80efd3	0.06295743
148	0x3d203ea1	0.039122228
149	0x3be53628	0.0069949813
150	0x3b10a389	0.002207013
151	0x3bfce4e3	0.007717715
152	0xb9a3e360	-0.0003125919
153	0x3d3b8f56	0.045790993
154	0x3d2e7e70	0.04260105
155	0xbc391172	-0.011295663
156	0xbce264f9	-0.027636038
157	0xbd14f85f	-0.036369678
158	0x3d8ed6e3	0.0697458
159	0x3d2b3a10	0.04180342
160	0xbcb82225	-0.022477219
161	0x3d8c37cd	0.06846581
162	0x3b17d76a	0.0023169168
163	0x3d1e3a17	0.038629618
164	0x3d334360	0.043765426
165	0x3d7d9c61	0.061916713
166	0xbc431e66	-0.011909103
167	0x3d4574bf	0.04820704
168	0xbca258e1	-0.019817771
169	0x3b070ecc	0.0020608185
170	0x3bc5ee70	0.006040387
171	0xbd16c3ab	-0.036807697
172	0xbc8a8fba	-0.016914237
173	0xbcd3ce6d	-0.025855267
174	0x3d0ff9e7	0.035150435
175	0xbb910406	-0.0044255285
176	0xbb2503c5	-0.0025179249
177	0xbcaaff33	-0.020873642
178	0x3c805b7a	0.01566862
179	0x3cc5759c	0.024103932
180	0x3d1cf600	0.03832054
181	0x3d730dfa	0.0593395
182	0xbd0399a2	-0.032128938
183	0x3d349eb4	0.044096664
184	0xbc74257e	-0.014901517
185	0x3d4d1360	0.050067306
186	0x3c88c66a	0.016696174
187	0x3b2b94ee	0.0026181298
188	0x3d6c5ce3	0.05770577
189	0xbc9093a1	-0.01764852
190	0xbca3bc92	-0.019987378
191	0x3d5e6ece	0.05430489
192	0xbb4a0be0	-0.0030829832
193	0xbc63a5af	-0.0138944825
194	0x3c39f418	0.0113497
195	0xbd13b75c	-0.036063537
196	0xbc3f32d1	-0.01166983
197	0x3d5e5bc7	0.054286744
198	0x3d06858e	0.03284221
199	0x3d28bedd	0.041197646
200	0x3d92b045	0.07162527
201	0xbd2ac021	-0.041687135
202	0xbcb43832	-0.021999452
203	0x3c5a99cc	0.013342332
204	0xbd2789f9	-0.040903065
205	0x3cb69425	0.022287438
206	0xbabb8447	-0.001430639
207	0xbd004206	-0.031312965
208	0xbd2aa30b	-0.041659396
209	0x3cc0c5db	0.023531845
210	0xbc51f0a3	-0.01281372
211	0x3cdf1442	0.02723134
212	0xbc095dae	-0.008384151
213	0x3d77189d	0.060326207
214	0x3cc30266	0.023804855
215	0xbd211e99	-0.03933582
216	0xbc8ac22a	-0.016938288
217	0xbd1a9bf6	-0.037746392
218	0xbc39b32c	-0.011334222
219	0x3d8ca6d3	0.06867757
220	0x3d413f89	0.047179732
221	0x3c525ae4	0.012839053
222	0x3d185374	0.037188962
223	0x3aad0668	0.0013200762
224	0xbd08b31d	-0.03337394
225	0x3b6e9ae6	0.0036408245
226	0xbcfd471c	-0.030917697
227	0x3c67bc6e	0.014144046
228	0x3ccfcb89	0.025365608
229	0x3cb6d7f9	0.02231978
230	0xbc22f2fa	-0.009945625
231	0xbd3c62b3	-0.045992564
232	0x3d74280e	0.05960851
233	0x3c80b61f	0.015711842
234	0xbd168cf7	-0.03675553
235	0x3c18cbe2	0.009325953
236	0xbd2a8af8	-0.041636437
237	0xbb1a708c	-0.0023565618
238	0xbd17dee3	-0.037077796
239	0xbcbbd6a6	-0.0229295
240	0xbb9f96d2	-0.004870274
241	0x3c8f7815	0.017513314
242	0x3cad37a0	0.021144688
243	0xbc8fba11	-0.017544778
244	0xbc842535	-0.016131023
245	0x3d285fb4	0.041106895
246	0x3c61b035	0.013774921
247	0x3d01e180	0.031709194
248	0xbb50e26c	-0.003187324
249	0x3d33cf5d	0.04389893
250	0x3cb65354	0.02225653
251	0x3d283708	0.041068107
252	0x3d2c45ae	0.04205864
253	0xbbd7e51d	-0.0065885917
254	0xbd196688	-0.037451297
255	0x3d3aa02a	0.0455629

conv2.bias f4 [7]
0	0xbd42ae2e	-0.047529392
1	0xbd1bfb91	-0.03808171
2	0x3c50667c	0.012719747
3	0x3d440404	0.047855392
4	0x39b7f7b0	0.00035089022
5	0xbc4c2454	-0.012459833
6	0xbd09f689	-0.03368238

conv2.lins.0.weight f4 [7, 16]
0	0x3e1a3f9b	0.15063326
1	0x3bedde3a	0.0072591575
2	0xbe2d9406	-0.16950998
3	0xbd1a42eb	-0.037661474
4	0xbe45714c	-0.192815
5	0x3d743e50	0.05962974
6	0xbd7d803a	-0.061889865
7	0xbd01c6f8	-0.031683892
8	0x3e545096	0.20733866
9	0x3d06fe73	0.032957505
10	0x3d738119	0.05944929
11	0x3e393de2	0.18090013
12	0xbd04533f	-0.032305952
13	0xbd8023b0	-0.06256807
14	0xbe2c3ad0	-0.1681931
15	0xbe7e8b67	-0.24857865
16	0x3c5e0e59	0.013553225
17	0x3e3d3cf5	0.18480285
18	0xbd9d2bd8	-0.07674378
19	0x3d8a9394	0.067664295
20	0x3d2c4a4f	0.042063054
21	0xbd6ddd8e	-0.05807262
22	0xbdded4ed	-0.10880456
23	0xbd80467d	-0.062634446
24	0xbdc0a260	-0.094059706
25	0xbcd3efdd	-0.025871212
26	0xbc067577	-0.008206717
27	0xbe515294	-0.20441657
28	0x3dfffe3e	0.12499665
29	0x3c9ae77a	0.018909205
30	0xbe5b6d7f	-0.21428488
31	0xbdbe0da1	-0.09279943
32	0x3e8bc0c6	0.27295512
33	0x3e8433ac	0.25820673
34	0xbe4870b2	-0.1957424
35	0xbda3f0e1	-0.080049284
36	0xbd763c13	-0.060115885
37	0x3e938a28	0.28816342
38	0x3ccc5221	0.024941506
39	0xbe7ea999	-0.24869384
40	0x3d6426fa	0.055701233
41	0x3e0b3845	0.13595684
42	0x3da6378a	0.08116062
43	0x3e2b0dbb	0.16704457
44	0xbd02e813	-0.031959604
45	0x3e235e73	0.15953998
46	0xb9ec8420	-0.00045111869
47	0x3df19111	0.11795247
48	0xbe3fb8f2	-0.18722895
49	0xbe549b76	-0.20762429
50	0x3d6e5cba	0.0581939
51	0x3e0f9a61	0.14023735
52	0x3d0219bc	0.031762823
53	0xbe6fe0c0	-0.23425579
54	0x3e150365	0.14552076
55	0x3b3eb19e	0.0029097567
56	0x3e25bfa0	0.1618638
57	0x3e105997	0.14096676
58	0x3e6425fc	0.22280115
59	0xbd8f079c	-0.06983873
60	0x3e8d9671	0.2765384
61	0x3e95ea48	0.29280305
62	0x3d91ae3c	0.07113311
63	0xbd9e5443	-0.077309154
64	0xbe65f27e	-0.22455785
65	0x3e864ade	0.26228994
66	0x3e55f3d5	0.20893796
67	0xbc988998	-0.018620297
68	0x3cc24772	0.023715708
69	0xbe75100e	-0.23931906
70	0x3c83910a	0.016060371
71	0x3e76f5c9	0.24117197
72	0x3da12c95	0.078698315
73	0x3d24336b	0.0400881
74	0xbcceb13b	-0.025230994
75	0x3de8a88f	0.11360275
76	0x3ddc0fad	0.107451774
77	0xbe8aec06	-0.27133197
78	0xbde5b6b6	-0.1121649
79	0x3e3eabae	0.18620178
80	0xbe1b5b7a	-0.15171614
81	0xbe2e7cea	-0.17039838
82	0x3e2393d7	0.15974365
83	0x3e049db8	0.1295079
84	0x3ce2b3d4	0.02767364
85	0xbe04b12f	-0.12958215
86	0x3d30e70f	0.043189105
87	0xbe956a03	-0.29182443
88	0x3949c080	0.00019240566
89	0x3d9086f6	0.07056992
90	0xbe15aad7	-0.14615951
91	0xbe005ec5	-0.12536152
92	0xbc3b8750	-0.011445835
93	0xbe148b03	-0.14506154
94	0x3e31b887	0.17355548
95	0xbe654c6d	-0.22392435
96	0x3e4dc4fb	0.20094673
97	0xbe21ec8b	-0.1581289
98	0xbb27b993	-0.0025592789
99	0x3e4c7ad6	0.19968733
100	0x3e3858f8	0.18002689
101	0xbe8acdcc	-0.27110136
102	0xbbff7b1c	-0.007796658
103	0xbe3c9e47	-0.18419753
104	0x3e117b46	0.14207181
105	0xbe8d52ed	-0.2760233
106	0xb9995bd0	-0.0002925084
107	0x3e606780	0.21914482
108	0x3e1f65ab	0.15566127
109	0x3d0848b5	0.033272464
110	0x3e4abe06	0.1979905
111	0xbd861274	-0.065464884

conv2.lins.1.weight f4 [7, 16]
0	0xbe49a561	-0.19691993
1	0xbdf09a9f	-0.11748242
2	0xbe77f79a	-0.24215546
3	0x3d804609	0.06263358
4	0xbdcda1f0	-0.10040653
5	0x3e3539f3	0.17697887
6	0xbe79705e	-0.24359271
7	0xbd82e664	-0.063916
8	0xbd4db6aa	-0.05022303
9	0xbdb9ef98	-0.09078902
10	0xbe2504ae	-0.16115066
11	0xbd8d413c	-0.06897208
12	0x3e282221	0.16419269
13	0x3e4fc567	0.20290147
14	0xbe3b5be4	-0.18296772
15	0xbe8b3e87	-0.27196142
16	0xbe517b51	-0.20457198
17	0x3e340d0a	0.17583099
18	0xbde5f2b6	-0.11227934
19	0x3e004011	0.1252444
20	0xbcf0f368	-0.02941294
21	0x3d74ec90	0.059795916
22	0xbe8a0f1c	-0.26964653
23	0x3d562295	0.052279074
24	0xbd000f7d	-0.03126477
25	0xbe0d15ed	-0.13777895
26	0x3e64d790	0.22347856
27	0xbe88fdd6	-0.2675616
28	0x3e0a4bf4	0.13505536
29	0xbd91428a	-0.070927694
30	0xbda7ef4f	-0.08199941
31	0xbdef3a56	-0.116810486
32	0xbe0069b9	-0.1254033
33	0x3e839fa7	0.25707743
34	0x3e56859d	0.20949407
35	0x3e51e9a6	0.20499286
36	0xbbd01764	-0.0063504446
37	0x3e690529	0.22755875
38	0x3dd8457f	0.1056013
39	0xbe0fb639	-0.14034356
40	0x3e7e4a98	0.24833143
41	0x3e54ae0b	0.20769517
42	0x3e509090	0.20367646
43	0xbdcec544	-0.10096219
44	0xbe78347b	-0.2423877
45	0x3d3cb065	0.04606666
46	0xbd9b961e	-0.07596992
47	0xbe851698	-0.259938
48	0xbd2da4fd	-0.042393673
49	0x3e3fa350	0.18714643
50	0x3dfd520f	0.12369167
51	0x3e689424	0.22712761
52	0xbe2ae610	-0.16689324
53	0xbe370c1b	-0.17875712
54	0xbd39e768	-0.0453867
55	0xbe5c3c64	-0.21507412
56	0xbe044ac0	-0.1291914
57	0xbe5a9347	-0.21345244
58	0xbe28f95a	-0.1650137
59	0x3d2ef1fd	0.042711247
60	0xbe3e784d	-0.18600579
61	0xbe063bc9	-0.13108744
62	0x3c131b7b	0.00897872
63	0x3d379a09	0.044824634
64	0x3c51531a	0.012776161
65	0x3e11ec79	0.14250363
66	0xbe54f5fb	-0.20796959
67	0x3e3b145c	0.18269485
68	0xbdae1499	-0.085000224
69	0xbe77dd3a	-0.24205485
70	0x3e18ea7d	0.149332
71	0x3e8acf8a	0.27111465
72	0xbdaddca6	-0.08489351
73	0x3a7c797c	0.00096311397
74	0x3e0f6b1c	0.14005703
75	0x3e770a72	0.24125078
76	0x3ca4868d	0.02008369
77	0xbe0172c4	-0.12641436
78	0xbcf4de60	-0.029891193
79	0x3d53ff34	0.051757053
80	0xbdd88b7f	-0.10573482
81	0xbe01397c	-0.12619585
82	0xbe264dd9	-0.16240634
83	0x3d3e8af3	0.04651923
84	0x3e369a97	0.17832409
85	0xbdf9bae2	-0.12193848
86	0x3e1864f9	0.14882268
87	0xbe593bb2	-0.21214178
88	0xbe93493d	-0.28766814
89	0xbdcd5515	-0.10025994
90	0xbe01162d	-0.12606116
91	0xbe814f93	-0.25256023
92	0xbe097845	-0.13424785
93	0xbe02faee	-0.12791035
94	0x3c1bf2b9	0.009518319
95	0xbdc7d398	-0.09757155
96	0x3e574e3b	0.21025936
97	0x3d596b74	0.05308099
98	0x3e621f24	0.22082192
99	0xbe4d5a78	-0.20054042
100	0xbdd4330c	-0.10361299
101	0xbe5a03ed	-0.2129056
102	0x3df91ddd	0.12163899
103	0xbe70ae4b	-0.23503987
104	0x3e02f766	0.12789688
105	0xbe37578d	-0.17904492
106	0x3ded404b	0.115845285
107	0xbd2ab764	-0.0416788
108	0xbd9c839a	-0.076422885
109	0xbe187e2d	-0.14891882
110	0x3e03bbd7	0.12864624
111	0x3cc74966	0.024326991

conv2.lins.2.weight f4 [7, 16]
0	0x3b9cffb3	0.004791224
1	0x3ca033d3	0.019555962
2	0xbe017014	-0.1264041
3	0x3e08f116	0.13373217
4	0xbd68ccbe	-0.056835882
5	0x3c984974	0.018589713
6	0xbd5388e9	-0.05164424
7	0x3dd80aaf	0.10548913
8	0x3d8f160a	0.069866255
9	0xbe5d2813	-0.21597318
10	0x3e0c719b	0.13715212
11	0x3b6029c0	0.0034204572
12	0x3c8be5eb	0.017077407
13	0x3d75f445	0.060047407
14	0x3e577e32	0.21044233
15	0xbe568092	-0.20947483
16	0xbe3e2f80	-0.18572807
17	0x3e220c0f	0.15824912
18	0x3d3a42c6	0.045473836
19	0x3d6d1c96	0.05788859
20	0xbe112f5f	-0.14178227
21	0x3d0eae86	0.034834407
22	0xbd557c71	-0.05212063
23	0x3e18e462	0.14930871
24	0x3e622a04	0.2208634
25	0xbe83342d	-0.25625744
26	0x3cd63d7d	0.026152367
27	0x3d93edd9	0.072231
28	0x3c0f6082	0.008751037
29	0xbd6bd6f8	-0.057578057
30	0xbc11175e	-0.008855669
31	0xbd8e9959	-0.069628425
32	0x3db6eb69	0.0893162
33	0xbe237289	-0.1596166
34	0xbe2dfb91	-0.16990496
35	0x3e434fd7	0.19073425
36	0xbe84452d	-0.25834027
37	0xbdc9d379	-0.09854788
38	0x3e2feb4b	0.17179601
39	0x3da36910	0.079790235
40	0x3e46fe0d	0.1943285
41	0xbe57585d	-0.21029802
42	0xbe9501da	-0.29102975
43	0xbd42480a	-0.047431983
44	0x3c6f3ebc	0.014602359
45	0xbdfb7d8c	-0.122798055
46	0x3e599631	0.212487
47	0xbdbda37f	-0.092597
48	0xbdf8fb2a	-0.12157281
49	0x3d94128f	0.07230102
50	0xbe119bc1	-0.14219572
51	0x3e087552	0.13326004
52	0xbdb089c7	-0.08620029
53	0x3dacb8b8	0.0843367
54	0xbe30bf66	-0.17260513
55	0xbd890e17	-0.066921405
56	0xbe195cd3	-0.14976816
57	0x3b3bf18c	0.0028677909
58	0x3e91d61f	0.28483674
59	0xbcebec47	-0.02879919
60	0x3e649b80	0.22324944
61	0x3e0a1536	0.13484654
62	0xbd9656f7	-0.07340806
63	0x3dfb7bd0	0.12279475
64	0x3d1b46b6	0.037909232
65	0x3e32e704	0.17470938
66	0xbe0c42b9	-0.13697328
67	0xbcb291fe	-0.02179813
68	0x3c6b6c98	0.0143691525
69	0xbd93eaf1	-0.07222546
70	0x3c4b9aa3	0.012427005
71	0x3dd4412c	0.10363993
72	0x3e3cf787	0.18453799
73	0x3e3cca03	0.18436436
74	0x3d9971a4	0.07492378
75	0x3e31c1d1	0.17359091
76	0xbe8f38dc	-0.27973068
77	0xbd9edecf	-0.07757341
78	0x3d7a40b2	0.061096855
79	0x3d916ad4	0.07100454
80	0xbe77fb12	-0.2421687
81	0x3e49f98d	0.19724102
82	0xbe35ae8f	-0.1774237
83	0x3d0366c6	0.032080434
84	0xbe507435	-0.2035683
85	0xbdb8bcae	-0.09020363
86	0x3e80a4bc	0.25125682
87	0x3e06be72	0.13158587
88	0xbc76e70a	-0.015069732
89	0x3e094901	0.13406755
90	0xbe45010f	-0.19238685
91	0x3e184ac8	0.14872277
92	0xbdfc76ac	-0.12327322
93	0x3e2548c8	0.16141045
94	0x3d442a42	0.047891863
95	0xbd2441c4	-0.04010178
96	0xbdf16a94	-0.11787906
97	0xbd625bb9	-0.055263255
98	0xbd9d7eab	-0.076901756
99	0xbe7dfeda	-0.2480425
100	0xbdf13659	-0.11777944
101	0x3e355917	0.17709766
102	0xbd085df2	-0.03329272
103	0x3e11b5c1	0.1422949
104	0xbddf6bf3	-0.109092616
105	0xbdbd69c8	-0.09248692
106	0x3da87df2	0.08227147
107	0xbdabd472	-0.0839013
108	0x3e6f137f	0.23347281
109	0xbe785b12	-0.2425349
110	0x3dec2378	0.115302026
111	0xbe534811	-0.2063296

conv2.lins.3.weight f4 [7, 16]
0	0x3e25ae7b	0.1617984
1	0xbd7d4b80	-0.06183958
2	0x3e009890	0.12558198
3	0x3da5175f	0.08061098
4	0x3c0c29aa	0.008554855
5	0x3c756150	0.014976814
6	0xbd396e7e	-0.04527139
7	0x3dcddd36	0.10051958
8	0x3e807618	0.25090098
9	0x3d2fe475	0.042942483
10	0xbe578891	-0.2104819
11	0x3e2792d8	0.1636461
12	0x3dcae066	0.09906082
13	0xb9474c80	-0.00019006617
14	0x3e17983e	0.1480417
15	0x3d0fe746	0.03513267
16	0xbe5d5ef7	-0.21618257
17	0x3e23c8d0	0.15994573
18	0x3df4a936	0.11946337
19	0xbdfd2884	-0.12361243
20	0x3decea3e	0.11568116
21	0xbdd0446b	-0.101693
22	0xbc82f820	-0.015987456
23	0x3e0b0823	0.13577323
24	0x3e304664	0.17214352
25	0x3e4d7f96	0.20068201
26	0x3dcb025e	0.09912561
27	0xbe2ac202	-0.1667557
28	0xbcc0d64a	-0.023539681
29	0xbe240800	-0.16018677
30	0xbe76ac32	-0.24089125
31	0xbd37721a	-0.04478655
32	0x3e7c4c98	0.24638593
33	0x3e746bb1	0.23869206
34	0x3c03132c	0.008000176
35	0x3dabceac	0.08389029
36	0x3e0cd98a	0.1375486
37	0xbdb9735c	-0.09055206
38	0x3e7b7382	0.24555781
39	0xbe3d590a	-0.18490997
40	0xbb0b7c80	-0.0021283925
41	0xbdfe7ebd	-0.12426517
42	0xbe89af64	-0.26891625
43	0xbe6d8243	-0.23194222
44	0x3e1ec1b8	0.15503585
45	0xbe79dde2	-0.24401048
46	0x3e1603c8	0.1464988
47	0xbe2b4361	-0.16724922
48	0xbdeff953	-0.11717477
49	0xbc820043	-0.015869265
50	0xbddc5d35	-0.10759965
51	0xbe3250b6	-0.17413601
52	0x3d79b501	0.060963634
53	0xbe358f91	-0.17730547
54	0xbe4706e0	-0.19436216
55	0xbcacb2cf	-0.021081356
56	0x3dd7ab84	0.10530761
57	0xbe7a392a	-0.24435869
58	0xbe4a9ee7	-0.19787179
59	0x3da98202	0.0827675
60	0x3dc686c7	0.096936755
61	0x3e522b74	0.20524389
62	0xbe074709	-0.13210692
63	0xbc4c5c44	-0.01247317
64	0x3e155798	0.14584196
65	0x3d0ac793	0.033881735
66	0x3dd942c3	0.10608437
67	0x3e2552e2	0.16144899
68	0x3d8be03c	0.06829879
69	0xbe4e14ef	-0.20125173
70	0xbe2f861c	-0.17141002
71	0x3e93a332	0.28835446
72	0x3d391974	0.04519029
73	0xbc946c9f	-0.0181182
74	0x3de84494	0.11341205
75	0x3da5e06f	0.08099448
76	0xbe91db2e	-0.28487533
77	0xbcf99e02	-0.030470852
78	0xbda957b7	-0.082686834
79	0x3e2813fd	0.16413875
80	0x3e5389a5	0.20657976
81	0x3d26a981	0.040688995
82	0xbd808a86	-0.06276421
83	0xbe7cde56	-0.2469419
84	0x3e0d1f89	0.13781561
85	0xbdeb756d	-0.114970066
86	0xbe4235bf	-0.18965815
87	0xbd031699	-0.032003973
88	0xbe3b997c	-0.18320268
89	0xbd4eb1ea	-0.05046264
90	0xbe1adf59	-0.15124263
91	0x3d23872a	0.039923824
92	0xbdb9a29b	-0.09064218
93	0xbe2e27d5	-0.17007382
94	0x3e73b588	0.23799717
95	0x3d8728dc	0.0659959
96	0x3e78e37d	0.2430553
97	0xbd72dd24	-0.059292927
98	0x3e35ec67	0.17765962
99	0xbe8557ec	-0.26043642
100	0x3e211314	0.15729934
101	0x3e29b7af	0.16573976
102	0xbe85c677	-0.2612798
103	0xbe31de0e	-0.17369863
104	0xbdedf4de	-0.1161897
105	0xbe8ff7c0	-0.28118706
106	0xbc852b54	-0.016256012
107	0xbcbb1c9e	-0.022840794
108	0xbe707fa0	-0.23486185
109	0xbdb9ada5	-0.09066323
110	0xbe360b59	-0.17777766
111	0xbde42776	-0.11140339
