mutation/target_models/cora_graphsage.pt (torch, 186519 bytes, 6 tensors)

sage1.lin_l.weight f4 [16, 1433]
0.027031826 0.04748222 -0.010539714 0.032794196 -0.017154334 0.026198216 -0.028448615 0.034386933
0.055178057 -0.0146303885 0.061431997 0.02634318 -0.00087502366 0.026607757 -0.024719417 0.0068762084
-0.06252211 -0.012982087 -0.0036428347 0.055160776 -0.027242161 0.034602914 0.039704986 0.013914578
0.060489506 -0.03103232 -0.009164175 -0.0044354484 0.039447527 0.013497556 -0.066698365 -0.02238366
0.06976561 -0.053958952 0.035167404 0.043740567 -0.053397525 -0.0023044902 0.03546185 0.027426321
0.039183415 0.0046967645 0.0701502 0.009307789 -0.031555396 -0.011337461 0.060696654 -0.03431954
0.046590336 -0.056320515 -0.017039329 -0.035841558 0.021669831 0.06793816 -0.001905001 -0.017811034
-0.02849477 0.06632172 0.0064554466 0.030361176 -0.040838845 0.008412001 0.05412776 -0.044879023
0.01792694 0.0591134 0.06862517 0.040855426 0.05319535 -0.011110734 -0.034237728 0.033326555
0.031051748 0.07513149 -0.04672683 0.025945514 -0.054054845 0.009191729 0.032547504 -0.0174582
0.025877371 -0.0037276114 0.033949833 0.029692315 0.018408937 0.048473798 0.030928083 0.039196737
0.048793644 -0.016555242 0.021539483 0.017275473 -0.027402248 0.023650534 -0.01798993 -0.052791163
-0.0011971636 -0.021273943 -0.026878979 -0.02654667 -0.017660217 0.027559508 -0.034760993 -0.011152178
0.024786755 -0.033088505 -0.024949422 -0.011913221 -0.02109684 0.024426494 0.010288246 0.047764674
-0.0097016385 -0.013979266 0.04783684 -0.0035781618 0.023090485 0.04878214 -0.02115381 0.046921562
0.038097646 0.03663331 -0.069501214 0.04335097 -0.012032693 0.0033643679 -0.038122658 -0.037567712
0.03967842 -0.020521112 0.044311382 -0.038634554 0.028045703 -0.024977382 0.023150632 -0.013981483
0.03204091 -0.0567894 0.04393466 -0.013015996 -0.027752459 -0.0019563222 0.02822595 0.032904577
-0.016301805 -0.034395475 0.026345812 -0.06195449 0.019301612 0.04259341 0.04831978 -0.008693354
-0.012877785 -0.010955985 0.016342469 0.0073954486 0.039005216 0.030024897 -0.06604067 -0.027172877
0.030327173 -0.0014531254 0.02227879 -0.025559038 -0.04031417 0.0017071785 -0.0073949145 0.065038666
0.06356345 0.053625666 0.008808073 0.05648913 -0.0188489 0.014007973 0.032074604 0.01035181
0.04578509 -0.0053683277 -0.011552416 -0.0038373047 0.014104789 -0.054043513 0.018648867 0.020276504
-0.02284518 -0.028595554 0.05157267 0.042324543 0.027385022 0.025959315 0.04579761 -0.020151425
0.026743235 0.0084384605 0.05850542 -0.003386117 0.054970335 -0.009620998 -0.027637158 -0.032080993
-0.03999971 0.05716208 0.026685158 -0.0034156595 0.07219027 -0.058309738 0.06930646 0.048381865
0.06797568 0.015897159 0.05157918 -0.026296478 -0.0070832213 -0.0015695647 -0.005202759 0.04885951
0.0528464 0.03075894 0.059445083 -0.003035102 -0.026331142 -0.00585879 -0.04499104 0.030654488
0.026222263 -0.028533217 0.06913087 0.02362129 0.022817614 -0.02174481 0.06996477 0.048850916
-0.041231222 0.0152262915 0.029502284 0.0020323736 -0.014267558 -0.008204944 0.043636695 0.068680555
0.04523658 0.050658174 0.022215744 0.05927053 -0.019492421 -0.047805186 -0.030344628 0.061527036
-0.033334073 0.06063103 -0.0073242504 0.034786984 0.019582141 -0.049436174 0.05875881 -0.059905596
00000000: d971 dd3c b77c 423d c4ae 2cbc 3553 063d
00000010: 3f87 8cbc a49d d63c 120d e9bc 50d9 0c3d
00000020: 6302 623d 4cb4 6fbc 1ea0 7b3d a7cd d73c
00000030: d861 65ba 83f8 d93c 6080 cabc d151 e13b
00000040: 980b 80bd d2b2 54bc a0bc 6ebb 44f0 613d
00000050: f42a dfbc c9bb 0d3d b2a1 223d f8f9 633c
00000060: d8c3 773d 7e37 febc 5625 16bc 3d57 91bb
00000070: bb93 213d da24 5d3c 2799 88bd f05d b7bc
00000080: 46e1 8e3d 1004 5dbd b20b 103d 4f29 333d
00000090: 5db7 5abd ee06 17bb 7240 113d 2aad e03c
000000a0: ca7e 203d 51e7 993b e8aa 8f3d b27f 183c
000000b0: 3b40 01bd c2c0 39bc 0e9d 783d a592 0cbd
000000c0: 82d5 3e3d 57b0 66bd 1096 8bbc 99ce 12bd
000000d0: ee84 b13c 2923 8b3d 3ab1 f9ba 72e8 91bc
000000e0: dd6d e9bc afd3 873d 3688 d33b 00b8 f83c
000000f0: a246 27bd 7dd2 093c 12b5 5d3d 11d3 37bd
00000100: 85db 923c e420 723d 5a8b 8c3d 0558 273d
00000110: 5ee3 593d cc09 36bc dc3c 0cbd 6d81 083d
00000120: 3c60 fe3c 8ade 993d a264 3fbd b08b d43c
00000130: 9d68 5dbd e898 163c 8850 053d 8004 8fbc
00000140: c8fc d33c f14a 74bb fb0e 0b3d 4c3d f33c
00000150: 57ce 963c 768c 463d e45c fd3c c28c 203d
00000160: d8db 473d dc9e 87bc 9273 b03c 4b85 8d3c
00000170: ae7a e0bc c4be c13c 9e5f 93bc 8c3b 58bd
00000180: 25ea 9cba b146 aebc 4e31 dcbc 6778 d9bc
00000190: 29ac 90bc 7ac4 e13c 8b61 0ebd a0b7 36bc
000001a0: 980d cb3c d087 07bd bb62 ccbc ac2f 43bc
000001b0: 48d3 acbc 121a c83c 0890 283c e4a4 433d
000001c0: 9ff3 1ebc 4b09 65bc 90f0 433d 987f 6abb
000001d0: 4228 bd3c c8cf 473d c14a adbc d330 403d
000001e0: 470c 1c3d cf0c 163d a756 8ebd c990 313d
000001f0: c624 45bc ba7c 5c3b 8126 1cbd 9ae0 19bd
00000200: d785 223d e41b a8bc da7f 353d 443f 1ebd
00000210: 1ac0 e53c 5e9d ccbc 65a6 bd3c 9712 65bc
00000220: 543d 033d 009c 68bd d4f4 333d 0b41 55bc
00000230: 2059 e3bc a435 00bb 1c3a e73c f3c6 063d
00000240: 5d8b 85bc 45e2 0cbd 2cd3 d73c fec3 7dbd
00000250: 6a1e 9e3c 6d76 2e3d f6ea 453d 926e 0ebc
00000260: 58fd 52bc bb80 33bc a4e0 853c 8555 f23b
00000270: efc3 1f3d c6f6 f53c 5540 87bd a799 debc
00000280: b170 f83c cc76 beba 0282 b63c 3061 d1bc
00000290: 7920 25bd 68c3 df3a 0a51 f2bb fe32 853d
000002a0: 8e2d 823d 96a6 5b3d bc4f 103c 2561 673d
000002b0: 0269 9abc b281 653c a960 033d a39a 293c
000002c0: 2689 3b3d cce8 afbb 5846 3dbc 4a7b 7bbb
000002d0: c617 673c bb5c 5dbd 82c5 983c e91a a63c
000002e0: d125 bbbc 3941 eabc dd3d 533d 805c 2d3d
000002f0: 8e56 e03c a1a8 d43c 4696 3b3d 9a14 a5bc
00000300: a114 db3c 7841 0a3c 61a3 6f3d 9ee9 5dbb
00000310: 9328 613d 64a1 1dbc 5267 e2bc 5c67 03bd
00000320: bcd6 23bd c922 6a3d d59a da3c 42d9 5fbb
00000330: 7ed8 933d 31d6 6ebd 8cf0 8d3d 102c 463d
00000340: d536 8b3d c23a 823c b144 533d b66b d7bc
00000350: 5e1a e8bb dab9 cdba e87b aabb e920 483d
00000360: 7775 583d 2cfa fb3c b07c 733d 90e8 46bb
00000370: 68b4 d7bc 18fb bfbb 8648 38bd 1f1f fb3c
00000380: 12d0 d63c 7ebe e9bc 7c94 8d3d 7081 c13c
00000390: 01ec ba3c 2c22 b2bc b049 8f3d e617 483d
000003a0: 12e2 28bd b277 793c c6ae f13c 9231 053b
000003b0: 7ac2 69bc 086e 06bc 64bc 323d 64a8 8c3d
000003c0: fe49 393d f27e 4f3d cbfd b53c a8c5 723d
000003d0: 92ae 9fbc 5fcf 43bd 4c95 f8bc c603 7c3d
000003e0: 4f89 08bd 3e58 783d 4400 f0bb cc7c 0e3d
000003f0: ba6a a03c 967d 4abd 14ad 703d 925f 75bd

sage1.lin_l.bias f4 [16]
0.008823562 0.0055530053 -0.0023855665 0.023350285 0.009837503 0.04534856 0.0020622958 0.034397755
0.041232105 0.06577019 -0.002704545 0.0277807 0.028611992 0.015622914 0.03649015 0.024577789
00000000: b490 103c fcf5 b53b 2a57 1cbb 1949 bf3c
00000010: 7a2d 213c 69bf 393d 9527 073b a9e4 0c3d
00000020: ffe2 283d 85b2 863d bc3e 31bb 5a94 e33c
00000030: b263 ea3c 40f7 7f3c b276 153d 5c57 c93c

sage1.lin_r.weight f4 [16, 1433]
0.021963157 0.037052 -0.012447993 0.05418773 0.013223481 0.053191632 -0.026025679 0.06439939
0.022971662 0.019217 0.004766713 0.02741859 -0.03414423 0.060647715 -0.046695087 0.003423976
-0.039126404 0.039060585 -0.041725058 0.039142203 0.005143206 0.037678793 0.013083862 0.025133172
-0.00023334287 0.0114756785 -0.003271602 0.0057488624 0.029566552 -0.0039448063 -0.03675133 0.029655453
0.06441136 -0.02177639 0.0012341645 0.056546662 0.016414147 -0.037644677 -0.009515035 -0.0030572978
0.05096794 0.03162096 0.05012451 0.035459656 -0.0026303497 -0.030928954 0.03926965 0.002667477
0.04173729 -0.017958157 0.0066635455 -0.043877255 0.040862836 0.024377339 0.012008769 0.011296062
-0.02159439 0.02005627 -0.0020660814 -0.03700408 -0.031155605 0.014467203 0.027880574 -0.012589801
0.0033176718 0.01066878 0.053612325 0.029455587 0.057680666 -0.015059159 0.042563036 0.007538642
0.06700653 0.05915666 -0.025391439 0.03114472 0.02229372 -0.0131027 -0.006638152 -0.014079909
0.054433517 -0.019812837 0.02301234 0.014561318 -0.032714333 0.025939275 0.058189068 0.013472969
0.024064535 -0.019986268 0.034144253 -0.029434629 0.009973447 -0.014330318 -0.02538107 -0.025306407
0.02096957 -0.017371178 0.00017537735 -0.0006174572 -0.03878983 0.03738961 -0.05105508 0.05924297
-0.0039116815 0.03775759 -0.050379947 0.009074233 -0.03320691 0.034536466 -0.019548107 0.025314327
0.026113912 -0.024612691 0.050620977 0.034642283 -0.048897978 0.069909796 0.045310557 0.049702786
0.047199614 0.021514954 -0.012698257 0.04223778 0.00869211 0.0053838785 -0.056157663 -0.042919233
0.05130264 -0.03125149 0.033761647 -0.03768504 0.055476315 -0.001222675 0.0025889538 -0.044197194
-5.6578778e-05 -0.017539702 0.03999502 0.0010814953 -0.05617751 0.04782183 -0.012105992 0.054003462
-0.018980913 -0.033254404 -0.05381616 -0.026673593 -0.04501756 0.018972805 0.063583694 -0.021295102
0.025197133 0.010680396 0.028085852 0.028732015 0.025981251 0.045390803 -0.016425125 -0.05448251
0.029582225 -0.015897052 0.05103833 -0.017499916 -0.01076648 0.032503795 0.017085683 -0.00085253455
0.017697426 0.06447437 -0.025166206 0.039173827 -0.01209011 0.058026996 0.024304356 0.01732565
0.01902695 0.036420796 -0.0321447 -0.0275433 -0.02703369 -0.019965244 0.01748909 -0.010194648
-0.01688616 0.0031136519 -0.0069912546 0.05932984 0.014950173 0.02567469 0.0076772976 0.014380902
0.06613526 0.020816186 0.034101162 -0.009245097 0.023390777 -0.05241781 -0.064561576 -0.015355747
-0.028497964 0.02619378 0.009613981 0.014663095 0.02234755 -0.036123 -0.0023509138 0.05071355
0.04577206 -0.03135439 -0.03943593 0.020864107 0.002520178 0.018013256 0.026404861 -0.013307204
0.062105175 0.060626607 0.05757423 -0.042227227 -0.058601785 0.013092592 -0.024297478 0.019063149
0.041431926 0.0011469051 0.028951464 -0.032855965 0.03883625 0.014910171 0.04438729 0.029142138
0.0034211443 0.05619684 0.02997389 0.03534534 0.036469582 0.05075097 0.031610098 0.060347915
0.050805077 0.054612257 0.041358747 0.019181978 0.036297236 -0.055237353 -0.017880647 0.019606289
0.05990931 0.04382376 -0.0033078794 0.031248046 0.0062810043 0.01636282 0.05263672 -0.053131927
00000000: 14ec b33c d7c3 173d abf2 4bbc f4f3 5d3d
00000010: 4da7 583c 78df 593d ce33 d5bc d4e3 833d
00000020: 112f bc3c f86c 9d3c 1632 9c3b f39c e03c
00000030: d2da 0bbd bd69 783d 5943 3fbd c964 603b
00000040: 0243 20bd fefd 1f3d e5e7 2abd 9353 203d
00000050: 5788 a83b 1455 1a3d b25d 563c 15e4 cd3c
00000060: 80ad 74b9 7c04 3c3c 6068 56bb f460 bc3b
00000070: 8e35 f23c 6f43 81bb 9088 16bd feef f23c
00000080: 1aea 833d 6664 b2bc b0c3 a13a 799d 673d
00000090: f676 863c 4e31 1abd f3e4 1bbc f25c 48bb
000000a0: c2c3 503d fb84 013d 5c4f 4d3d 253e 113d
000000b0: f261 2cbb b85e fdbc 36d9 203d d6d0 2e3b
000000c0: b8f4 2a3d fc1c 93bc df59 da3b a3b8 33bd
000000d0: ca5f 273d fcb2 c73c 6ec0 443c 1e13 393c
000000e0: b8e6 b0bc 0c4d a43c 1867 07bb 9791 17bd
000000f0: 0a3a ffbc d907 6d3c cd65 e43c 7445 4ebc
00000100: 4c6d 593b 1bcc 2e3c 9998 5b3d d84c f13c
00000110: 9042 6c3d b1ba 76bc 9456 2e3d b606 f73b
00000120: b83a 893d 414e 723d b501 d0bc 3623 ff3c
00000130: 52a1 b63c b5ac 56bc db84 d9bb 6baf 66bc
00000140: aef5 5e3d 884e a2bc 6084 bc3c 9892 6e3c
00000150: 77ff 05bd 9a7e d43c a957 6e3d babd 5c3c
00000160: fd22 c53c 3eba a3bc d8da 0b3d e420 f1bc
00000170: ab67 233c b6c9 6abc f6eb cfbc 624f cfbc
00000180: 60c8 ab3c 004e 8ebc 80e5 3739 dadc 21ba
00000190: 16e2 1ebd d925 193d 221f 51bd c2a8 723d
000001a0: 902d 80bb b4a7 1a3d 345b 4ebd 17ac 143c
000001b0: f803 08bd 1c76 0d3d 5a23 a0bc fe5f cf3c
000001c0: d8ec d53c 8ea0 c9bc f157 4f3d 11e5 0d3d
000001d0: 3f49 48bd de2c 8f3d 9097 393d 2695 4b3d
000001e0: 6254 413d 2140 b03c 5a0c 50bc 8601 2d3d
000001f0: 5a69 0e3c 3f6b b03b 9405 66bd 14cc 2fbd
00000200: b822 523d 9001 00bd a749 0a3d a15b 1abd
00000210: 223b 633d 2a42 a0ba 70ab 293b 1e08 35bd
00000220: 004f 6db8 6caf 8fbc d1d1 233d f6c0 8d3a
00000230: 641a 66bd d3e0 433d 3658 46bc bc32 5d3d
00000240: dc7d 9bbc c535 08bd 556e 5cbd 9482 dabc
00000250: 5564 38bd db6c 9b3c 2b38 823d 1173 aebc
00000260: 386a ce3c d4fc 2e3c 4d14 e63c 675f eb3c
00000270: a2d6 d43c b5eb 393d fc8d 86bc 0d29 5fbd
00000280: 6c56 f23c 893a 82bc 910d 513d fc5b 8fbc
00000290: e465 30bc b322 053d 46f7 8b3c a07c 5fba
000002a0: 31fa 903c 230b 843d 5c29 cebc bc74 203d
000002b0: 9915 46bc b7ad 6d3d ee19 c73c 86ee 8d3c
000002c0: 68de 9b3c f92d 153d 29aa 03bd 7da2 e1bc
000002d0: c275 ddbc 278e a3bc 4845 8f3c 7407 27bc
000002e0: d854 8abc 690e 4c3b e516 e5bb d903 733d
000002f0: 92f1 743c ba53 d23c d791 fb3b e09d 6b3c
00000300: ec71 873d b586 aa3c a9ad 0b3d bf78 17bc
00000310: 049e bf3c 0fb4 56bd dc38 84bd ac96 7bbc
00000320: 9074 e9bc 5794 d63c f583 1d3c 7a3d 703c
00000330: 3612 b73c b6f5 13bd ca11 1abb 03b9 4f3d
00000340: 7c7b 3b3d 766d 00bd 9287 21bd 34eb aa3c
00000350: 9229 253b 8990 933c 024f d83c 7506 5abc
00000360: ff61 7e3d 9b53 783d f5d2 6b3d 75f6 2cbd
00000370: 6d08 70bd 5082 563c 810b c7bc 522a 9c3c
00000380: 86b4 293d c053 963a 9f2b ed3c fa93 06bd
00000390: c212 1f3d ca49 743c 72cf 353d 7ebb ee3c
000003a0: 4735 603b a82e 663d ce8b f53c 46c6 103d
000003b0: 2161 153d 40e0 4f3d 9779 013d 602f 773d
000003c0: fc18 503d 1ab1 5f3d ca67 293d 8623 9d3c
000003d0: 69ac 143d 9040 62bd 6f7a 92bc 5e9d a03c
000003e0: 7763 753d 8b80 333d 02c9 58bb e7fb ff3c
000003f0: e2d0 cd3b 520b 863c 9a99 573d dda0 59bd

sage2.lin_l.weight f4 [7, 16]
0.037310667 -0.19749597 0.25806177 -0.17184804 0.14932181 -0.15278292 0.2785629 0.062182665
0.13236329 -0.26422688 -0.128507 0.013551623 -0.075114 0.2379021 0.19211787 0.24824099
0.1159304 0.16814618 -0.0631234 0.12897594 0.25970435 -0.28257027 -0.060017623 -0.047694113
0.035991468 -0.0465485 -0.06847799 0.04205197 -0.24194774 -0.103416525 -0.05929987 0.05230025
-0.026864884 0.28829744 -0.23694451 -0.21454169 -0.2570221 0.15846376 0.031274866 -0.067222424
0.25749168 0.074112825 -0.01978685 -0.25648624 -0.093436785 0.0178467 0.07139073 -0.14505601
0.08188453 -0.21810663 -0.1666856 0.06764654 0.0008622827 0.27930886 0.16610911 -0.078131355
0.23512128 -0.18010263 -0.14941429 -0.18455562 -0.1810835 -0.13101089 0.2647739 -0.053278677
-0.1417923 -0.0030436665 -0.01841845 0.2270303 -0.050676197 -0.054166198 -0.24771756 0.20278697
0.09739072 -0.24712309 0.112435125 0.23148365 -0.10628591 -0.19409744 0.12735407 -0.20250028
-0.0034595598 -0.08190791 0.007856863 0.11500305 0.21832779 -0.16348638 -0.12291845 -0.23646311
-0.061676677 -0.21763751 0.06483808 -0.030489936 -0.19296964 -0.07682362 -0.17005911 -0.11049026
-0.14109594 -0.04980758 0.15680525 -0.07787203 -0.2874455 -0.14637262 0.2450363 -0.21738987
-0.11552337 -0.14431576 -0.23471175 -0.16817498 0.15012947 -0.050255105 -0.12126646 -0.20257658
00000000: 12d3 183d 623c 4abe ac20 843e eff8 2fbe
00000010: d1e7 183e 2073 1cbe cc9f 8e3e 40b3 7e3d
00000020: 3e8a 073e bf48 87be 5797 03be a007 5e3c
00000030: 5ed5 99bd 9c9c 733e 8cba 443e e332 7e3e
00000040: eb6c ed3d 832e 2c3e d746 81bd 4512 043e
00000050: f8f7 843e 0dad 90be 0ad5 75bd e75a 43bd
00000060: ca6b 133d a4a9 3ebd 303e 8cbd b03e 2c3d
00000070: 26c1 77be 0bcc d3bd 6ce4 72bd c938 563d
00000080: bf13 dcbc b99b 933e 95a1 72be d1b0 5bbe
00000090: 6798 83be 5344 223e 131a 003d e9ab 89bd
000000a0: f3d5 833e 77c8 973d 0818 a2bc 2a52 83be
000000b0: c95b bfbd 3e33 923c 4e35 923d 9089 14be
000000c0: 14b3 a73d 5857 5fbe a1af 2abe 458a 8a3d
000000d0: d00a 623a 9201 8f3e 8218 2a3e 5503 a0bd
000000e0: a2c3 703e d36c 38be 0f00 19be 26fc 3cbe
000000f0: f46d 39be b827 06be 7290 873e be3a 5abd
00000100: 0032 11be 4078 47bb 4ae2 96bc a27a 683e
00000110: d891 4fbd 60dd 5dbd aca9 7dbe 63a7 4f3e
00000120: c974 c73d d60d 7dbe 6344 e63d 0d0a 6d3e
00000130: 6dac d9bd 7bc1 46be 1b69 023e 3c5c 4fbe
00000140: c8b9 62bb 56bf a7bd 12ba 003c b886 eb3d
00000150: 5291 5f3e f968 27be abbc fbbd 6323 72be
00000160: afa0 7cbd 5edc 5ebe d4c9 843d 08c6 f9bc
00000170: d599 45be b455 9dbd fa23 2ebe b848 e2bd
00000180: 747b 10be 0803 4cbd 8e91 203e 5f7b 9fbd
00000190: 0e2c 93be b4e2 15be ccea 7a3e 739b 5ebe
000001a0: 8497 ecbd 83c7 13be 4758 70be 1036 2cbe
000001b0: 8abb 193e 4cd8 4dbd 8d5a f8bd 3c70 4fbe

sage2.lin_l.bias f4 [7]
-0.19965035 -0.2501596 -0.20285447 0.011063058 -0.13427569 0.0024767364 0.056701977
00000000: 2471 4cbe eb14 80be 15b9 4fbe d441 353c
00000010: 917f 09be be50 223b 5540 683d

sage2.lin_r.weight f4 [7, 16]
-0.23890811 -0.10909207 0.2073993 -0.12997144 -0.090638906 -0.1802951 -0.0358808 0.16375834
0.13220885 -0.21273114 -0.22228244 -0.08271477 -0.2291954 0.06496498 -0.027990464 0.16824697
0.043714505 0.17638561 0.16565436 -0.23281719 -0.09396538 -0.07502334 0.049446482 -0.2905863
-0.24572906 0.1046965 0.17202859 -0.038821153 0.20774119 -0.0030930452 0.005067367 -0.092123516
-0.12489507 0.19820179 0.16447772 -0.11382007 -0.2287445 0.20000929 -0.25395435 -0.13841525
0.15836999 0.24929492 -0.24025902 -0.14754449 -0.2136478 0.2677683 0.23095053 -0.14028108
0.23308975 -0.18824826 -0.13489527 -0.18560556 -0.15309426 0.2207337 0.13560805 0.24196672
0.033270985 0.10821111 0.13492648 -0.03197684 0.16985582 -0.13202405 -0.038177915 0.19191925
-0.09877477 0.26242825 0.15203086 0.09689646 -0.25471666 0.18808828 -0.2514015 0.05037439
-0.036107443 -0.1259858 0.013203963 0.198625 -0.07941966 -0.21104866 0.1508346 -0.01811482
0.12685938 0.08087715 0.0935353 0.20571622 0.05164487 -0.1199911 -0.24395767 -0.00010438822
-0.22087054 -0.28172725 -0.28437212 0.16767742 -0.13600653 0.24593183 -0.080604896 -0.15660894
0.011758335 -0.026373815 -0.23412842 -0.040249944 -0.24939264 -0.25048566 -0.015974566 0.1932294
-0.2579912 -0.22350495 -0.008571119 -0.105577566 -0.27479744 0.09304525 -0.029027773 0.024767846
00000000: 54a4 74be aa6b dfbd 7b60 543e 3c17 05be
00000010: e4a0 b9bd 479f 38be bff7 12bd 44b0 273e
00000020: c261 073e 31d6 59be 029e 63be 5d66 a9bd
00000030: 33b2 6abe 5c0c 853d 424c e5bc ef48 2c3e
00000040: fb0d 333d 6e9e 343e 4ca1 293e a167 6ebe
00000050: ec70 c0bd d6a5 99bd 6588 4a3d bac7 94be
00000060: 66a0 7bbe 1e6b d63d 4328 303e ee02 1fbd
00000070: 1bba 543e b0b4 4abb 280c a63b 41ab bcbd
00000080: fdc8 ffbd 69f5 4a3e d96c 283e 7f1a e9bd
00000090: 003c 6abe 3ccf 4c3e 4e06 82be babc 0dbe
000000a0: be2b 223e 2b47 7f3e 7606 76be e715 17be
000000b0: 7dc6 5abe ed18 893e 4c7e 6c3e d8a5 0fbe
000000c0: 14af 6e3e 27c4 40be fc21 0abe 620f 3ebe
000000d0: bec4 1cbe 0408 623e d6dc 0a3e 20c6 773e
000000e0: 2847 083d c99d dd3d 2b2a 0a3e 26fa 02bd
000000f0: afee 2d3e 5031 07be 7260 1cbd 7b86 443e
00000100: 6d4a cabd ff5c 863e faad 1b3e a771 c63d
00000110: 396a 82be 379a 403e b3b7 80be 6055 4e3d
00000120: 66e5 13bd 6c02 01be 6f55 583c 5a64 4b3e
00000130: c6a6 a2bd 241d 58be 6374 1a3e 8865 94bc
00000140: 6de7 013e eba2 a53d 6f8f bf3d 46a7 523e
00000150: 9289 533d e5bd f5bd 0ad0 79be 00eb dab8
00000160: e32b 62be 8e3e 90be 3999 91be a1b3 2b3e
00000170: 4c45 0bbe 8ed5 7b3e 2e14 a5bd 185e 20be
00000180: 08a6 403c e60d d8bc 5cbf 6fbe 20dd 24bd
00000190: c960 7fbe a83f 80be 18dd 82bc eedd 453e
000001a0: 6c17 84be 7bde 64be e16d 0cbc 0d39 d8bd
000001b0: 40b2 8cbe 828e be3d a7cb edbc f0e5 ca3c
