mutation/target_models/cora_gat.pt (torch, 372175 bytes, 10 tensors)

gat1.att_src f4 [1, 4, 16]
000000 b3 b0 90 3e 05 3c ec 3e fc ba 31 be ba b7 9c be
       0.2825981 0.4613954 -0.17356485 -0.30608922
000010 53 ea db 3d f5 a9 d7 be 8d 9d 4f 3e 83 54 ec 3d
       0.10738053 -0.42121854 0.20274945 0.11539557
000020 d6 32 3f be 01 8d 10 be 46 05 49 3e e6 d4 df be
       -0.18671736 -0.14116289 0.19630918 -0.43717116
000030 21 80 7c be a0 be dd 39 5a e6 ee 3c b8 07 16 3e
       -0.24658252 0.00042294431 0.029162575 0.14651382
000040 ba 68 06 bd df 62 9c 3e ff 16 cb 3e 79 35 58 be
       -0.03281472 0.30544183 0.39665982 -0.21114148
000050 fc c5 48 bd 00 ea 86 be c6 cd be be cd d2 00 3f
       -0.049016938 -0.26350403 -0.37266368 0.50321656
000060 09 b9 21 bd de a7 a3 3e c6 fb cf bd f6 14 90 be
       -0.039483104 0.3196401 -0.10155444 -0.28140992
000070 f4 38 75 3e e9 06 b4 bd 9a ec f8 be 50 fd e5 be
       0.23947507 -0.087903805 -0.48618013 -0.44919825
000080 52 ff 8e 3e 04 27 8b be fc 7e 82 be 8f 47 de bd
       0.2792917 -0.27178204 -0.25487506 -0.108534925
000090 34 ea f3 bd 6e 1a 2f 3e 57 3b b1 3d de a4 65 3e
       -0.11909905 0.17099926 0.08653896 0.22426173
0000a0 b9 99 6e 3e 6b f7 74 3e fe b9 20 be bc 66 97 be
       0.23300828 0.23922507 -0.1569595 -0.29570568
0000b0 17 87 80 be 81 4c b2 be 13 a9 02 3f 8e c1 17 3e
       -0.25103065 -0.34823993 0.51039237 0.14819929
0000c0 ae 19 71 3d a5 22 ab 3e ec 1d f9 3e bc a9 ec be
       0.05886238 0.3342487 0.4865564 -0.46223247
0000d0 8d 3b b5 3e e4 4f ca be 54 78 4f be f1 2b 0b 3e
       0.35396996 -0.39514077 -0.20260745 0.13590981
0000e0 18 f3 92 3e 5f 0b ce 3e 4b e1 e4 3d 2b 69 79 3e
       0.2870109 0.4024305 0.11175784 0.24356525
0000f0 cf 67 f1 3e 8f b3 d0 3e 15 63 01 3f be ee b9 3d
       0.47149512 0.40761992 0.5054181 0.090787396

gat1.att_dst f4 [1, 4, 16]
000000 30 79 77 bd 3a 2d 40 be ef 24 e8 bd a2 a0 db be
       -0.060418308 -0.18767253 -0.113351695 -0.4289599
000010 43 64 36 be ed 63 29 3d 30 3f 9d 3c 12 1d 92 be
       -0.17811684 0.041355062 0.01919517 -0.28537804
000020 60 50 e4 be 8e 90 d2 3e 44 8a ec 3e 94 a9 07 be
       -0.4459257 0.4112591 0.46199238 -0.13248283
000030 09 af 24 3e 82 52 64 3e ec 50 df be 94 1c ab 3d
       0.16082396 0.22297099 -0.43616426 0.0835506
000040 1e be 85 3e 84 d2 a9 bd df 7b c2 3e 42 01 bb 3e
       0.2612161 -0.08292106 0.3798513 0.36524397
000050 6c 6c e1 be 7b 89 c4 3e 5f b2 43 3e ec 7a d8 3e
       -0.44028032 0.3838614 0.19111012 0.42281282
000060 b5 6a 60 bc 82 d8 e1 3e f7 72 e4 3e 61 78 aa 3e
       -0.013697316 0.44110495 0.4461896 0.33294967
000070 fe 89 18 be 99 70 6a be 1b cd 3a 3d 3e a8 2c 3d
       -0.1489639 -0.22894515 0.04560576 0.042152636
000080 64 62 7f be 78 37 1d ba f1 06 3a 3e 22 75 27 3e
       -0.24939877 -0.000599734 0.1816671 0.16353276
000090 8a f6 f4 be 53 5a 9f 3e 5a b9 ed 3e 82 19 cf bd
       -0.47844344 0.311236 0.46430475 -0.10112287
0000a0 85 29 66 3e 2a 63 b7 be 17 1f af 3e 4e ff 49 3d
       0.22476776 -0.35817844 0.34203407 0.049315743
0000b0 3d 0b ab be d9 dc c2 bc 0c 65 30 be ec 31 da be
       -0.33407012 -0.023786949 -0.17226046 -0.42616212
0000c0 cd 2d c7 3e d4 e3 92 be 7d 63 c6 bd 36 92 c2 3e
       0.3890213 -0.28689444 -0.09686945 0.38002175
0000d0 0a 54 e0 3e 50 ea 4e bd 62 89 bb 3c 93 3c c9 be
       0.43814117 -0.050516427 0.022892658 -0.39304027
0000e0 e2 00 9c be 16 5f 83 3e 47 24 6d be 33 6a b4 3d
       -0.30469424 0.25658482 -0.2315837 0.088093184
0000f0 e4 d0 70 be 14 39 98 be bd bf 9f 3e a0 e2 b9 be
       -0.23517185 -0.29731047 0.31200972 -0.36305714

gat1.bias f4 [64]
000000 0e 18 11 3d 66 ec 74 3c 8a a3 b4 3c 70 c7 5e bb
       0.03542333 0.01494894 0.022050638 -0.0033993386
000010 d4 ca f2 3c 32 40 02 3d 4e 68 42 bb c8 9c 7b 3c
       0.029637732 0.031799503 -0.0029664221 0.015357204
000020 7e 88 43 3d 64 a7 a2 3c 96 c6 95 3c 5a 08 3d 3d
       0.04773759 0.019855209 0.01828317 0.046150543
000030 e2 b9 be 3b b4 c7 06 3d 52 33 3d 3c 80 a0 32 3d
       0.005820499 0.032905295 0.01154788 0.043610096
000040 71 01 38 3d 21 5b 23 3d 6d 99 30 3d 40 9f 06 ba
       0.04492325 0.03988183 0.04311507 -0.00051354244
000050 8d ff 2d 3d e7 6f df 3c d7 27 e6 bc 48 68 b9 bc
       0.04248004 0.027275039 -0.028095169 -0.022632733
000060 1c 4d 90 3a cf 7e 27 3d 8b 60 2f 3d b4 5a e2 3c
       0.0011009309 0.04089242 0.04281668 0.027631141
000070 7e 26 89 3c 3c f2 90 3c 17 f7 ae bc ae 5a 1e 3d
       0.016741987 0.017693631 -0.021358056 0.038660698
000080 84 3f 23 3d ff d8 2c 3d c7 5d 27 3c 9a 0e 0c 3d
       0.039855495 0.04219913 0.010215229 0.034193613
000090 88 f6 d4 ba bf 0e cc 3c b3 93 1e 3d 4e b7 3b 3d
       -0.0016247788 0.024909375 0.038715076 0.04582911
0000a0 f9 6c 3e 3d 88 06 5b 3c c5 2d c9 3c 65 9b b4 bc
       0.046490643 0.013368256 0.024557957 -0.022046754
0000b0 1d 64 cc 3b 19 26 02 3d 76 6b e5 3c bc 4b 8b 3a
       0.0062375204 0.031774614 0.028005343 0.0010627429
0000c0 bb 0b 14 3d 12 74 01 3b b8 3b 2a 3c bb 9a fc bb
       0.036144 0.0019753021 0.010390215 -0.007708875
0000d0 fe c3 99 3c 8d 15 39 3d a6 b3 94 3c 41 bd 03 3d
       0.018770214 0.045186568 0.01815207 0.03216291
0000e0 4a a9 13 bc cf d2 05 3d 8f 42 e1 bb ce 7f bb bc
       -0.00901253 0.032671746 -0.0068743895 -0.02288809
0000f0 dd 0e 30 3d d1 8b 19 3d 18 be 1a 3d f3 58 a6 3c
       0.042982925 0.037486855 0.037778944 0.020306086

gat1.lin_src.weight f4 [64, 1433]
000000 90 59 e3 bb 5f a4 41 3d da 80 04 3d 19 98 0c 3d
       -0.006938167 0.047275897 0.032349445 0.03432474
000010 9c f5 3d 3d 30 c9 f9 b9 38 d5 af 3d 9d 8d 3e 3d
       0.04637681 -0.00047642877 0.0858559 0.04652177
000020 ee 9d 6b 3c 8d 72 f4 bc 1e 90 3b bd 40 4a 15 3d
       0.014380915 -0.029839778 -0.045791738 0.036447763
000030 3a bf d2 3c 08 89 d8 3d ba 9c 02 bd e3 5e 54 3d
       0.02572595 0.10573012 -0.031887747 0.051848304
000040 c0 b3 23 3c 5e b1 03 3c b4 c8 2f 3b 51 1b a8 3d
       0.009991586 0.008037893 0.002682251 0.08208335
000050 1e 0c 05 3c 08 6f e4 bc e2 d8 3a 3d fa f3 c5 3d
       0.008120565 -0.027884975 0.04561699 0.096656755
000060 d8 f0 81 3a b9 55 4e bd 50 18 8c 3c 7c b7 d6 bc
       0.0009913696 -0.05037472 0.017101437 -0.026210539
000070 bc 49 4e 3c 3a e4 72 3b 40 15 98 bd ae 98 85 bd
       0.012590822 0.0037062303 -0.07425928 -0.06523262
000080 12 4e ed 3c fc bc a6 3c 42 cf 81 3d 68 af 99 bb
       0.02896789 0.020353787 0.063383594 -0.0046900995
000090 5f da 29 3d a3 0b 05 bc 6b 24 32 bd 63 28 d4 bc
       0.04146802 -0.00812045 -0.043491762 -0.025898164
0000a0 aa 8b 92 3d 98 ee 32 3d 93 ae b1 3d 1c e5 64 bc
       0.07155545 0.043684572 0.086758755 -0.01397064
0000b0 03 3e 32 3d a2 f9 a3 bd b5 b8 ac 3d 8a b8 51 bb
       0.04351617 -0.08006598 0.084336676 -0.0032000863
0000c0 64 b5 a4 3c 14 7c 62 3b 55 fa 7d bc 4e 63 a7 bd
       0.020106025 0.003455882 -0.015501578 -0.08173238
0000d0 a3 6d d1 3c 1f 0f d4 3d 46 70 a3 bc ac d1 2d bc
       0.025564974 0.103544466 -0.019950997 -0.010609072
0000e0 e0 40 87 bd 05 45 1d 3d 94 51 ec bc 48 07 16 3c
       -0.06604171 0.0383959 -0.028847493 0.009157009
0000f0 ec 53 18 bc f2 5e f7 3c 02 65 86 bb 6e 45 45 bd
       -0.009297352 0.03019664 -0.0041013965 -0.048161916
000100 88 1f da bc 89 2c a6 3d 3e 21 d6 3d f9 8c ee 3c
       -0.026626363 0.08113963 0.10455559 0.029119955
000110 f2 52 c1 bb c2 cd c5 bc 84 92 1e 3d 83 ee db 3c
       -0.0058997804 -0.024145965 0.038713947 0.02684713
000120 32 7a 43 3d dd 59 10 3c d6 7b 9d bd 51 ac b3 3d
       0.047723956 0.008810488 -0.076896355 0.08773101
000130 56 5b 95 3b 59 4a 72 3d 5b 27 09 3d 3c 92 74 3d
       0.0045580072 0.059152935 0.033484798 0.059709772
000140 10 b7 3e 3d 25 e9 14 bd fc 13 dd 3b d1 25 b1 bc
       0.0465613 -0.036355156 0.006746767 -0.021624478
000150 c7 0f c4 3b 36 b9 6e bc cb b6 99 3d e7 ff 8d 3d
       0.005983326 -0.014570525 0.07505568 0.06933575
000160 6c 73 3c bb d7 7c ac bc 86 8e a1 3d 4d d7 25 bd
       -0.002875532 -0.021055622 0.07888512 -0.04048853
000170 09 94 db 3b 91 cd 65 bd 76 d9 09 3d 6f 10 e1 bc
       0.006700997 -0.056104247 0.033654653 -0.027473656
000180 49 86 7c bc 34 3b af 3c 9c d0 8e 3d 20 f7 13 3b
       -0.015412875 0.021390535 0.06973383 0.0022577718
000190 ce ea 9a 3c c3 51 8d 3d 74 09 6e bb d2 76 28 3d
       0.018910792 0.069003604 -0.0036321552 0.04112894
0001a0 1a 89 39 3b 62 d1 a8 3d 70 2a 32 bd 5c b0 88 3d
       0.0028310479 0.082430616 -0.043497503 0.06674263
0001b0 f0 f5 1f bd 1e 77 00 3d 4e 7d 27 3d 9c e8 be 3b
       -0.039052904 0.0313636 0.040890984 0.005826069
0001c0 ba 57 79 bb e9 30 93 3d 8d 3b 7b 3d 44 51 8c 3c
       -0.0038046674 0.07187063 0.06133609 0.017128594
0001d0 47 75 34 3d 8a b9 78 3d ac 43 d1 3c 86 61 36 bd
       0.044057157 0.06072382 0.025544964 -0.0445266
0001e0 b6 05 69 3d 6f 30 20 3d a2 1e 96 bb 87 f5 4b 3d
       0.056890212 0.03910869 -0.0045812884 0.0497947
0001f0 36 18 7c bc d1 2d a0 3d 74 00 d8 bc 2e 2a 4f bd
       -0.015386632 0.07821239 -0.026367404 -0.050577335
000200 6d e6 39 3d 9b 77 b8 bd 20 3a 12 3d 11 8e f5 bb
       0.045385767 -0.09007188 0.035699964 -0.0074937423
000210 e0 41 d6 3b d4 b9 3a 3d fb 5f 85 3d a8 57 70 3d
       0.0065386146 0.045587376 0.065124474 0.058677346
000220 76 49 d3 3d 86 ac 8e 3c 3e 18 47 bc fd 03 c6 bd
       0.10316746 0.01741625 -0.012151776 -0.096687295
000230 54 c4 51 3d cd 92 5a bd 11 31 35 3d 6c 10 dd 3d
       0.051212624 -0.053362656 0.044236246 0.10794148
000240 ec 3e 3d bd e7 02 b7 bd 0c 47 af 3d 20 23 34 3d
       -0.046202585 -0.089361005 0.08558473 0.04397881
000250 a7 b0 87 3d 22 87 96 bd 3a c3 e4 3c dd 4b 3e bd
       0.06625491 -0.07349993 0.027925123 -0.046459068
000260 3a 22 8a 3d ad 50 d2 bd a8 e3 0a 3d a7 1a dc bc
       0.067448094 -0.10269294 0.033908516 -0.026868178
000270 98 cd 46 ba 9d 01 90 3d 2c 21 c2 3b 34 a4 b7 3a
       -0.00075837364 0.07031558 0.0059243646 0.0014010728
000280 40 de d1 3a e2 d0 76 bc ce cb 85 3d 61 80 5d 3d
       0.001601167 -0.01506445 0.06533013 0.05407751
000290 da 48 c8 bb 5c 40 2a bd f0 17 d8 3d ea b5 c6 3c
       -0.0061122 -0.041565284 0.10551441 0.024256665
0002a0 62 c8 96 bc ae 99 8e 3d e2 51 a6 3c 94 04 77 3d
       -0.018406097 0.06962906 0.020302717 0.0603071
0002b0 f9 dd 01 3c 04 9c 01 bd 16 fe b4 3d f3 2f d6 3c
       0.007926458 -0.03164293 0.088375255 0.02614591
0002c0 80 cd 76 bc 6c 3d 04 3d 7e eb 67 bd e4 3c e3 3c
       -0.015063643 0.03228514 -0.056621067 0.027738996
0002d0 7a c7 d6 3c 01 22 e5 bb 7e 0d 1a 3d 63 c9 b2 bc
       0.026218165 -0.006992579 0.037610523 -0.021824544
0002e0 62 b9 c5 bc dd 7c 8c 3d b7 01 6f 3d dc ee 18 3c
       -0.024136249 0.06859753 0.058351245 0.009334292
0002f0 7a 64 cd 3d 02 bb 79 bc d0 d7 64 bb 62 54 47 3c
       0.1002893 -0.01524234 -0.0034918673 0.0121661145
000300 4d 67 83 bc ac 43 6d 3d 4a 62 d3 bc 69 bd b0 bd
       -0.016040469 0.057925865 -0.025803704 -0.08629877
000310 32 0d ac bc 3c 32 ff 3c 08 fb c0 3a d1 38 88 bd
       -0.021002386 0.031151883 0.0014723251 -0.06651462
000320 b6 d0 63 bd ea f1 a3 3d c4 37 4e 3d 20 0f ae 3d
       -0.055618964 0.08005126 0.05034615 0.084989786
000330 f8 61 6f 3b 23 b5 d0 bc 28 45 95 3d 70 98 71 3d
       0.00365269 -0.025476998 0.07288581 0.058983266
000340 ee 23 d4 bb ae 87 8e bd d0 6b c5 bb 2e 52 70 bc
       -0.0064740097 -0.069594726 -0.006024815 -0.014668031
000350 47 a4 f7 bc 80 87 aa 3d 22 99 e5 bc c5 d4 81 3d
       -0.0302297 0.08326626 -0.028027121 0.06339411
000360 1c a6 fc 3c ec af ac 3d 73 32 b0 3d ea ca a0 3d
       0.030840926 0.08431992 0.086033724 0.07851203
000370 39 3c 84 3d 42 9e 10 bc 32 7d f9 bc 39 e5 65 3c
       0.06456799 -0.008826794 -0.030455206 0.014031702
000380 e9 bb ad 3d 46 e3 63 3c 9d 42 87 3d 86 b2 3a 3c
       0.08483107 0.013909167 0.06604502 0.011395102
000390 84 ab e5 3c c0 df 52 bd 38 89 01 3d 52 5e 87 bc
       0.028035887 -0.051482916 0.031625003 -0.016524468
0003a0 7e 45 55 3d 62 95 73 3d 14 02 c5 3d 31 15 91 3c
       0.052068226 0.059468634 0.09619537 0.0177103
0003b0 a2 91 8c bd ad e6 9a bd aa 2a 96 bc b2 52 69 bb
       -0.06863715 -0.07563529 -0.01833089 -0.0035602269
0003c0 b2 9b 87 3d f8 9e 61 bb b1 e7 b0 3b fc df a6 3d
       0.066214934 -0.0034427028 0.0053987135 0.081481904
0003d0 11 c4 3b bd 58 55 ce bc eb 8f a0 bd 1e 44 0f bc
       -0.04584128 -0.02518718 -0.0783995 -0.008744268
0003e0 04 30 e8 ba ea 12 c7 bc 7d ea ed bc 28 04 9d bc
       -0.0017714505 -0.024301011 -0.029042477 -0.01916702
0003f0 54 53 16 3d ac a6 a5 bc 55 fa 93 bd b7 35 8d 3c
       0.03670056 -0.020221077 -0.072254814 0.017237527

gat1.lin_dst.weight f4 [64, 1433]
000000 90 59 e3 bb 5f a4 41 3d da 80 04 3d 19 98 0c 3d
       -0.006938167 0.047275897 0.032349445 0.03432474
000010 9c f5 3d 3d 30 c9 f9 b9 38 d5 af 3d 9d 8d 3e 3d
       0.04637681 -0.00047642877 0.0858559 0.04652177
000020 ee 9d 6b 3c 8d 72 f4 bc 1e 90 3b bd 40 4a 15 3d
       0.014380915 -0.029839778 -0.045791738 0.036447763
000030 3a bf d2 3c 08 89 d8 3d ba 9c 02 bd e3 5e 54 3d
       0.02572595 0.10573012 -0.031887747 0.051848304
000040 c0 b3 23 3c 5e b1 03 3c b4 c8 2f 3b 51 1b a8 3d
       0.009991586 0.008037893 0.002682251 0.08208335
000050 1e 0c 05 3c 08 6f e4 bc e2 d8 3a 3d fa f3 c5 3d
       0.008120565 -0.027884975 0.04561699 0.096656755
000060 d8 f0 81 3a b9 55 4e bd 50 18 8c 3c 7c b7 d6 bc
       0.0009913696 -0.05037472 0.017101437 -0.026210539
000070 bc 49 4e 3c 3a e4 72 3b 40 15 98 bd ae 98 85 bd
       0.012590822 0.0037062303 -0.07425928 -0.06523262
000080 12 4e ed 3c fc bc a6 3c 42 cf 81 3d 68 af 99 bb
       0.02896789 0.020353787 0.063383594 -0.0046900995
000090 5f da 29 3d a3 0b 05 bc 6b 24 32 bd 63 28 d4 bc
       0.04146802 -0.00812045 -0.043491762 -0.025898164
0000a0 aa 8b 92 3d 98 ee 32 3d 93 ae b1 3d 1c e5 64 bc
       0.07155545 0.043684572 0.086758755 -0.01397064
0000b0 03 3e 32 3d a2 f9 a3 bd b5 b8 ac 3d 8a b8 51 bb
       0.04351617 -0.08006598 0.084336676 -0.0032000863
0000c0 64 b5 a4 3c 14 7c 62 3b 55 fa 7d bc 4e 63 a7 bd
       0.020106025 0.003455882 -0.015501578 -0.08173238
0000d0 a3 6d d1 3c 1f 0f d4 3d 46 70 a3 bc ac d1 2d bc
       0.025564974 0.103544466 -0.019950997 -0.010609072
0000e0 e0 40 87 bd 05 45 1d 3d 94 51 ec bc 48 07 16 3c
       -0.06604171 0.0383959 -0.028847493 0.009157009
0000f0 ec 53 18 bc f2 5e f7 3c 02 65 86 bb 6e 45 45 bd
       -0.009297352 0.03019664 -0.0041013965 -0.048161916
000100 88 1f da bc 89 2c a6 3d 3e 21 d6 3d f9 8c ee 3c
       -0.026626363 0.08113963 0.10455559 0.029119955
000110 f2 52 c1 bb c2 cd c5 bc 84 92 1e 3d 83 ee db 3c
       -0.0058997804 -0.024145965 0.038713947 0.02684713
000120 32 7a 43 3d dd 59 10 3c d6 7b 9d bd 51 ac b3 3d
       0.047723956 0.008810488 -0.076896355 0.08773101
000130 56 5b 95 3b 59 4a 72 3d 5b 27 09 3d 3c 92 74 3d
       0.0045580072 0.059152935 0.033484798 0.059709772
000140 10 b7 3e 3d 25 e9 14 bd fc 13 dd 3b d1 25 b1 bc
       0.0465613 -0.036355156 0.006746767 -0.021624478
000150 c7 0f c4 3b 36 b9 6e bc cb b6 99 3d e7 ff 8d 3d
       0.005983326 -0.014570525 0.07505568 0.06933575
000160 6c 73 3c bb d7 7c ac bc 86 8e a1 3d 4d d7 25 bd
       -0.002875532 -0.021055622 0.07888512 -0.04048853
000170 09 94 db 3b 91 cd 65 bd 76 d9 09 3d 6f 10 e1 bc
       0.006700997 -0.056104247 0.033654653 -0.027473656
000180 49 86 7c bc 34 3b af 3c 9c d0 8e 3d 20 f7 13 3b
       -0.015412875 0.021390535 0.06973383 0.0022577718
000190 ce ea 9a 3c c3 51 8d 3d 74 09 6e bb d2 76 28 3d
       0.018910792 0.069003604 -0.0036321552 0.04112894
0001a0 1a 89 39 3b 62 d1 a8 3d 70 2a 32 bd 5c b0 88 3d
       0.0028310479 0.082430616 -0.043497503 0.06674263
0001b0 f0 f5 1f bd 1e 77 00 3d 4e 7d 27 3d 9c e8 be 3b
       -0.039052904 0.0313636 0.040890984 0.005826069
0001c0 ba 57 79 bb e9 30 93 3d 8d 3b 7b 3d 44 51 8c 3c
       -0.0038046674 0.07187063 0.06133609 0.017128594
0001d0 47 75 34 3d 8a b9 78 3d ac 43 d1 3c 86 61 36 bd
       0.044057157 0.06072382 0.025544964 -0.0445266
0001e0 b6 05 69 3d 6f 30 20 3d a2 1e 96 bb 87 f5 4b 3d
       0.056890212 0.03910869 -0.0045812884 0.0497947
0001f0 36 18 7c bc d1 2d a0 3d 74 00 d8 bc 2e 2a 4f bd
       -0.015386632 0.07821239 -0.026367404 -0.050577335
000200 6d e6 39 3d 9b 77 b8 bd 20 3a 12 3d 11 8e f5 bb
       0.045385767 -0.09007188 0.035699964 -0.0074937423
000210 e0 41 d6 3b d4 b9 3a 3d fb 5f 85 3d a8 57 70 3d
       0.0065386146 0.045587376 0.065124474 0.058677346
000220 76 49 d3 3d 86 ac 8e 3c 3e 18 47 bc fd 03 c6 bd
       0.10316746 0.01741625 -0.012151776 -0.096687295
000230 54 c4 51 3d cd 92 5a bd 11 31 35 3d 6c 10 dd 3d
       0.051212624 -0.053362656 0.044236246 0.10794148
000240 ec 3e 3d bd e7 02 b7 bd 0c 47 af 3d 20 23 34 3d
       -0.046202585 -0.089361005 0.08558473 0.04397881
000250 a7 b0 87 3d 22 87 96 bd 3a c3 e4 3c dd 4b 3e bd
       0.06625491 -0.07349993 0.027925123 -0.046459068
000260 3a 22 8a 3d ad 50 d2 bd a8 e3 0a 3d a7 1a dc bc
       0.067448094 -0.10269294 0.033908516 -0.026868178
000270 98 cd 46 ba 9d 01 90 3d 2c 21 c2 3b 34 a4 b7 3a
       -0.00075837364 0.07031558 0.0059243646 0.0014010728
000280 40 de d1 3a e2 d0 76 bc ce cb 85 3d 61 80 5d 3d
       0.001601167 -0.01506445 0.06533013 0.05407751
000290 da 48 c8 bb 5c 40 2a bd f0 17 d8 3d ea b5 c6 3c
       -0.0061122 -0.041565284 0.10551441 0.024256665
0002a0 62 c8 96 bc ae 99 8e 3d e2 51 a6 3c 94 04 77 3d
       -0.018406097 0.06962906 0.020302717 0.0603071
0002b0 f9 dd 01 3c 04 9c 01 bd 16 fe b4 3d f3 2f d6 3c
       0.007926458 -0.03164293 0.088375255 0.02614591
0002c0 80 cd 76 bc 6c 3d 04 3d 7e eb 67 bd e4 3c e3 3c
       -0.015063643 0.03228514 -0.056621067 0.027738996
0002d0 7a c7 d6 3c 01 22 e5 bb 7e 0d 1a 3d 63 c9 b2 bc
       0.026218165 -0.006992579 0.037610523 -0.021824544
0002e0 62 b9 c5 bc dd 7c 8c 3d b7 01 6f 3d dc ee 18 3c
       -0.024136249 0.06859753 0.058351245 0.009334292
0002f0 7a 64 cd 3d 02 bb 79 bc d0 d7 64 bb 62 54 47 3c
       0.1002893 -0.01524234 -0.0034918673 0.0121661145
000300 4d 67 83 bc ac 43 6d 3d 4a 62 d3 bc 69 bd b0 bd
       -0.016040469 0.057925865 -0.025803704 -0.08629877
000310 32 0d ac bc 3c 32 ff 3c 08 fb c0 3a d1 38 88 bd
       -0.021002386 0.031151883 0.0014723251 -0.06651462
000320 b6 d0 63 bd ea f1 a3 3d c4 37 4e 3d 20 0f ae 3d
       -0.055618964 0.08005126 0.05034615 0.084989786
000330 f8 61 6f 3b 23 b5 d0 bc 28 45 95 3d 70 98 71 3d
       0.00365269 -0.025476998 0.07288581 0.058983266
000340 ee 23 d4 bb ae 87 8e bd d0 6b c5 bb 2e 52 70 bc
       -0.0064740097 -0.069594726 -0.006024815 -0.014668031
000350 47 a4 f7 bc 80 87 aa 3d 22 99 e5 bc c5 d4 81 3d
       -0.0302297 0.08326626 -0.028027121 0.06339411
000360 1c a6 fc 3c ec af ac 3d 73 32 b0 3d ea ca a0 3d
       0.030840926 0.08431992 0.086033724 0.07851203
000370 39 3c 84 3d 42 9e 10 bc 32 7d f9 bc 39 e5 65 3c
       0.06456799 -0.008826794 -0.030455206 0.014031702
000380 e9 bb ad 3d 46 e3 63 3c 9d 42 87 3d 86 b2 3a 3c
       0.08483107 0.013909167 0.06604502 0.011395102
000390 84 ab e5 3c c0 df 52 bd 38 89 01 3d 52 5e 87 bc
       0.028035887 -0.051482916 0.031625003 -0.016524468
0003a0 7e 45 55 3d 62 95 73 3d 14 02 c5 3d 31 15 91 3c
       0.052068226 0.059468634 0.09619537 0.0177103
0003b0 a2 91 8c bd ad e6 9a bd aa 2a 96 bc b2 52 69 bb
       -0.06863715 -0.07563529 -0.01833089 -0.0035602269
0003c0 b2 9b 87 3d f8 9e 61 bb b1 e7 b0 3b fc df a6 3d
       0.066214934 -0.0034427028 0.0053987135 0.081481904
0003d0 11 c4 3b bd 58 55 ce bc eb 8f a0 bd 1e 44 0f bc
       -0.04584128 -0.02518718 -0.0783995 -0.008744268
0003e0 04 30 e8 ba ea 12 c7 bc 7d ea ed bc 28 04 9d bc
       -0.0017714505 -0.024301011 -0.029042477 -0.01916702
0003f0 54 53 16 3d ac a6 a5 bc 55 fa 93 bd b7 35 8d 3c
       0.03670056 -0.020221077 -0.072254814 0.017237527

gat2.att_src f4 [1, 1, 7]
000000 c9 5f 6c be 27 42 3e bf 04 1a 09 bc b2 c9 1c 3f
       -0.23083414 -0.7431969 -0.008368019 0.6124526
000010 34 e0 03 be cb 94 57 bf a5 45 8f be
       -0.12878495 -0.84211415 -0.27982822

gat2.att_dst f4 [1, 1, 7]
000000 f4 0b 63 3e a7 21 f9 3d 3b d1 27 3f 27 7e 29 3e
       0.22172529 0.12164622 0.65553635 0.1655203
000010 76 e7 2e bf b5 53 17 bf 28 7a 15 bd
       -0.6832193 -0.591121 -0.03649345

gat2.bias f4 [7]
000000 ec 7a 92 bc 86 3d 3a bd 6d 69 42 3d 8d 32 07 3d
       -0.01788088 -0.04546883 0.047463823 0.033007193
000010 06 dd 02 3d 8f a2 9b bc 95 2e 0b bd
       0.031949066 -0.018998412 -0.03397997

gat2.lin_src.weight f4 [7, 64]
000000 0f d2 2e be 51 23 28 be f2 3a 2b bd 4e af 53 be
       -0.17072318 -0.16419722 -0.04180426 -0.20672342
000010 84 de 3b be 9a 9b 8a 3e 8a 46 2c 3e 82 70 a4 bd
       -0.18346602 0.2707184 0.16823784 -0.08029272
000020 ab 40 ba 3d 80 1f 44 3e 7b 91 8f be b3 b8 42 3e
       0.09094366 0.19152641 -0.2804068 0.1901577
000030 d9 03 be bc fe 54 49 bd 96 c5 4a be ec bc a7 bc
       -0.023195194 -0.04915332 -0.19801936 -0.020475827
000040 d5 47 5b 3d 18 c8 f4 3d b3 53 ab 3d 46 5d 34 3e
       0.0535353 0.11952227 0.08365574 0.17613706
000050 9f d9 45 3e 00 1c de bc 08 c4 84 3d bc d2 3b be
       0.19321297 -0.02711296 0.064827025 -0.18342108
000060 70 67 83 bc 13 12 27 be 13 d1 a5 be 1f 7d 8d be
       -0.016040534 -0.16315489 -0.32386073 -0.27634522
000070 b1 7e 8c be 61 2c 5a be c1 46 fc 3d 9e d1 81 3e
       -0.27440408 -0.21305992 0.12318183 0.25355238
000080 0e 8d 46 3c 96 ea 00 be 03 13 30 3e e1 08 81 be
       0.012118591 -0.12589487 0.17194752 -0.25202087
000090 a6 bc 4f 3c b5 4e 4c be 78 67 83 3e 38 86 5b 3e
       0.012679255 -0.199519 0.25664878 0.21437919
0000a0 09 cc 34 be a6 4d 7e be 68 a8 49 be 9f a1 c3 3d
       -0.17655958 -0.24834308 -0.19693148 0.09552311
0000b0 a0 04 c5 3c 9c 6e ad be 4c 40 b8 3d 50 b2 6a be
       0.024050057 -0.3387345 0.08996639 -0.22919583
0000c0 6e 68 5e 3e 41 b9 cb bd 8e 12 b2 3b 69 63 a4 bd
       0.21719524 -0.09947444 0.005434341 -0.080267735
0000d0 e8 8e 26 be 94 2a c9 bd 78 e2 88 3d 40 c0 7d 3e
       -0.16265452 -0.09822574 0.066838205 0.24780369
0000e0 f8 10 bf 3d 71 42 18 be fa cf fe 3b 53 bb ce 3c
       0.093294084 -0.14869095 0.0077762576 0.025235808
0000f0 82 a2 83 3e 65 c4 78 be 4a bc 44 3e 34 16 3e be
       0.2570992 -0.24293669 0.19212452 -0.18563157
000100 a2 16 a3 be ef c2 7e be ea 81 2e be 76 ca ae bb
       -0.31853205 -0.24879049 -0.17041746 -0.005334194
000110 82 24 20 be d2 29 2c 3e 86 72 20 bd 19 6b 90 3e
       -0.15638927 0.16812828 -0.039171718 0.2820671
000120 d0 14 7e be 51 7f ee bd 0d 1e c8 3d 7f 96 95 be
       -0.24812627 -0.116453774 0.09771357 -0.29216382
000130 10 48 97 be 86 d3 14 3d bf e9 bb bd ba cb 56 3d
       -0.29547167 0.036334537 -0.09175443 0.052440383
000140 f1 f0 46 3e 63 52 14 be ad 2f 51 3e f8 0a e0 bd
       0.1942785 -0.14484553 0.20428343 -0.10939592
000150 0d 10 41 3e 22 22 d7 3d 71 8d f4 3d 2d 8b 06 3e
       0.18853779 0.10504557 0.1194104 0.13139029
000160 6e 1a 36 3e b8 aa 01 be ad f5 35 be 67 b1 3f bd
       0.1778352 -0.1266278 -0.17769499 -0.046800043
000170 b2 f8 84 be 2d a5 21 be 92 6b 0d 3e f3 6e 00 be
       -0.2597099 -0.15785666 0.13810566 -0.12542324
000180 7e a3 e2 bc a6 67 46 3e 85 88 8d be cb 4d 39 3e
       -0.02766585 0.19375476 -0.2764322 0.18096082
000190 9e 25 2a be 54 e9 16 3e 58 99 23 bd d5 71 36 be
       -0.16615912 0.14737445 -0.039941162 -0.17816861
0001a0 05 09 5d 3e 82 13 66 bd 32 a4 16 3d 5f 57 a6 3c
       0.21585472 -0.056170948 0.036777683 0.020305334
0001b0 18 9c 72 be e1 8d 53 3e 2b b8 18 3d f0 5a 76 3d
       -0.23692358 0.20659591 0.03728501 0.06014532
0001c0 e3 bd 7e 3e 6a f6 87 bc e8 f6 8e be 9d b3 a6 bc
       0.24877124 -0.016596992 -0.2792275 -0.020349318
0001d0 15 0c 67 bd 57 bf 78 be 62 49 d3 bc ab d5 4f bc
       -0.056408007 -0.2429174 -0.025791828 -0.01268522
0001e0 9c bd 67 3e 62 55 f9 3d 5b 45 73 be db 12 fa 3d
       0.22630924 0.121744886 -0.23756926 0.12210628
0001f0 cb 95 83 be 8b da cc bd e8 8b d9 3b a1 ad 85 bd
       -0.2570022 -0.10002621 0.0066389926 -0.06527258
000200 1d 14 70 3c ab 63 06 bc 9b 26 82 be 73 da 18 be
       0.014653233 -0.008202474 -0.2542008 -0.14927082
000210 f0 1e 67 be 18 b9 0a 3e 9e fe 22 bd 34 c9 6a 3e
       -0.22570395 0.1354717 -0.039793603 0.22928315
000220 46 6e a8 3d bf e2 99 3e 08 b8 74 bd 55 fc 15 3e
       0.08224158 0.30055806 -0.05974582 0.14647038
000230 a3 b4 4f be e1 13 8b be 79 9e d3 bd 51 b5 26 bd
       -0.20283751 -0.27163604 -0.10332961 -0.04070026
000240 78 26 7a 3e 56 67 50 be 62 4e 9b 3e a1 45 06 be
       0.24428737 -0.2035192 0.3033324 -0.13112499
000250 46 96 fc bd 67 52 e1 bd 92 24 b0 3c 45 bf 16 bd
       -0.1233335 -0.11002045 0.021501813 -0.036803503
000260 1c b5 4d be ee 86 13 3e b8 2a 3c 3e 70 19 0e be
       -0.20088619 0.1440694 0.18375671 -0.13876891
000270 fd cd 2d 3e fe e8 4d 3d 40 29 29 ba 66 40 81 be
       0.1697311 0.050271027 -0.0006452985 -0.25244445
000280 8d 59 88 bd 05 5e 0a 3d a7 c0 44 3e 3e 8b d8 bc
       -0.066577055 0.03378107 0.19214116 -0.026433583
000290 be 2e 53 be 68 f8 34 be 5f 43 32 be 79 53 9d 3e
       -0.206233 -0.17672884 -0.17408513 0.30727747
0002a0 cc e6 6f 3e 8e 0f 26 bd 92 82 92 be b3 47 8d bd
       0.23427886 -0.040542178 -0.28615242 -0.06898441
0002b0 af aa 72 3e 57 e3 a7 bd 80 d2 9c bd fe 9a 8b 3e
       0.23697923 -0.081976585 -0.07657337 0.27266687
0002c0 15 29 fb 3c 03 ca 90 be 52 03 66 be 9a 17 80 be
       0.030659238 -0.28279123 -0.22462204 -0.25018007
0002d0 9d c7 31 3e 13 89 94 3e 91 09 d7 bd 39 6a f6 3d
       0.17361303 0.2901083 -0.104998715 0.12031979
0002e0 9b 63 70 be 88 62 a1 bd c9 d4 77 be 69 ae 5b 3e
       -0.23475496 -0.078801215 -0.24202265 0.21453251
0002f0 39 75 d7 3c 51 1c fe 3d 3b f8 67 3e 9e be 77 be
       0.026301013 0.12407745 0.22653286 -0.24193808
000300 16 fb 66 3e 2d 21 1b be ff aa 9e 3c cf 7c 7e be
       0.22556719 -0.15149374 0.019368647 -0.24852298
000310 bd d5 0e 3e 3b 4c 8b 3e 91 2f 55 be f2 bb 0f be
       0.13948722 0.27206597 -0.20818926 -0.14036539
000320 43 da ff bd 67 fc 33 bc 75 4e be 3d a3 8e 5a be
       -0.12492802 -0.01098547 0.09292308 -0.21343474
000330 ca a8 86 be 9c 8b 46 3e ba 48 e3 3d a0 bc 0b be
       -0.2630065 0.19389194 0.11097856 -0.13646173
000340 9f de 17 3d 11 86 08 3e 89 94 29 bd f5 cb 8e be
       0.037077542 0.13332392 -0.04140142 -0.27889982
000350 a3 f4 10 3e 9f c2 50 3e be 4c 6c be 80 7a a9 bd
       0.14155822 0.20386742 -0.2307615 -0.08275318
000360 64 30 01 3e 0c 16 f4 bd 53 1f 2c bd 64 ce 82 3e
       0.12616116 -0.119182676 -0.04202206 0.2554809
000370 e9 9d 83 be 72 0d 26 be b6 6b 63 3d 6d 12 74 3e
       -0.25706413 -0.16216066 0.055522643 0.23835154
000380 8e ed 5f 3e 70 9c 50 3e 97 f3 e9 bb 2d 89 64 3e
       0.21867964 0.20372176 -0.007139634 0.22317953
000390 c8 6b 1e be 68 20 91 3e 9d 01 83 3e e3 39 d1 bd
       -0.15470803 0.28345037 0.25587168 -0.10216119
0003a0 85 7f ba 3d 71 ba 2b bc 75 9e 80 3e 1e 6d 7f bd
       0.09106354 -0.010481463 0.25120893 -0.06235992
0003b0 f1 95 6d be 91 75 95 3e ca 8a 9c 3e a4 29 89 be
       -0.2320173 0.2919126 0.30574638 -0.26789582
0003c0 21 ff 89 3e a2 90 37 be 9a f5 77 be 8a 33 fe bd
       0.2695246 -0.17926267 -0.24214783 -0.12412174
0003d0 96 98 f8 bd 5e 79 53 3d 6d a2 43 3e ec 45 9e 3e
       -0.121384785 0.051629417 0.1910493 0.3091272
0003e0 ca 40 4d be 52 90 37 3e 0c 91 24 be 60 e2 80 be
       -0.20044246 0.17926148 -0.16070956 -0.2517271
0003f0 45 f1 80 bd 73 df 85 3e 7d f2 74 3e f3 4d 80 be
       -0.062960185 0.2614704 0.23920627 -0.2505947

gat2.lin_dst.weight f4 [7, 64]
000000 0f d2 2e be 51 23 28 be f2 3a 2b bd 4e af 53 be
       -0.17072318 -0.16419722 -0.04180426 -0.20672342
000010 84 de 3b be 9a 9b 8a 3e 8a 46 2c 3e 82 70 a4 bd
       -0.18346602 0.2707184 0.16823784 -0.08029272
000020 ab 40 ba 3d 80 1f 44 3e 7b 91 8f be b3 b8 42 3e
       0.09094366 0.19152641 -0.2804068 0.1901577
000030 d9 03 be bc fe 54 49 bd 96 c5 4a be ec bc a7 bc
       -0.023195194 -0.04915332 -0.19801936 -0.020475827
000040 d5 47 5b 3d 18 c8 f4 3d b3 53 ab 3d 46 5d 34 3e
       0.0535353 0.11952227 0.08365574 0.17613706
000050 9f d9 45 3e 00 1c de bc 08 c4 84 3d bc d2 3b be
       0.19321297 -0.02711296 0.064827025 -0.18342108
000060 70 67 83 bc 13 12 27 be 13 d1 a5 be 1f 7d 8d be
       -0.016040534 -0.16315489 -0.32386073 -0.27634522
000070 b1 7e 8c be 61 2c 5a be c1 46 fc 3d 9e d1 81 3e
       -0.27440408 -0.21305992 0.12318183 0.25355238
000080 0e 8d 46 3c 96 ea 00 be 03 13 30 3e e1 08 81 be
       0.012118591 -0.12589487 0.17194752 -0.25202087
000090 a6 bc 4f 3c b5 4e 4c be 78 67 83 3e 38 86 5b 3e
       0.012679255 -0.199519 0.25664878 0.21437919
0000a0 09 cc 34 be a6 4d 7e be 68 a8 49 be 9f a1 c3 3d
       -0.17655958 -0.24834308 -0.19693148 0.09552311
0000b0 a0 04 c5 3c 9c 6e ad be 4c 40 b8 3d 50 b2 6a be
       0.024050057 -0.3387345 0.08996639 -0.22919583
0000c0 6e 68 5e 3e 41 b9 cb bd 8e 12 b2 3b 69 63 a4 bd
       0.21719524 -0.09947444 0.005434341 -0.080267735
0000d0 e8 8e 26 be 94 2a c9 bd 78 e2 88 3d 40 c0 7d 3e
       -0.16265452 -0.09822574 0.066838205 0.24780369
0000e0 f8 10 bf 3d 71 42 18 be fa cf fe 3b 53 bb ce 3c
       0.093294084 -0.14869095 0.0077762576 0.025235808
0000f0 82 a2 83 3e 65 c4 78 be 4a bc 44 3e 34 16 3e be
       0.2570992 -0.24293669 0.19212452 -0.18563157
000100 a2 16 a3 be ef c2 7e be ea 81 2e be 76 ca ae bb
       -0.31853205 -0.24879049 -0.17041746 -0.005334194
000110 82 24 20 be d2 29 2c 3e 86 72 20 bd 19 6b 90 3e
       -0.15638927 0.16812828 -0.039171718 0.2820671
000120 d0 14 7e be 51 7f ee bd 0d 1e c8 3d 7f 96 95 be
       -0.24812627 -0.116453774 0.09771357 -0.29216382
000130 10 48 97 be 86 d3 14 3d bf e9 bb bd ba cb 56 3d
       -0.29547167 0.036334537 -0.09175443 0.052440383
000140 f1 f0 46 3e 63 52 14 be ad 2f 51 3e f8 0a e0 bd
       0.1942785 -0.14484553 0.20428343 -0.10939592
000150 0d 10 41 3e 22 22 d7 3d 71 8d f4 3d 2d 8b 06 3e
       0.18853779 0.10504557 0.1194104 0.13139029
000160 6e 1a 36 3e b8 aa 01 be ad f5 35 be 67 b1 3f bd
       0.1778352 -0.1266278 -0.17769499 -0.046800043
000170 b2 f8 84 be 2d a5 21 be 92 6b 0d 3e f3 6e 00 be
       -0.2597099 -0.15785666 0.13810566 -0.12542324
000180 7e a3 e2 bc a6 67 46 3e 85 88 8d be cb 4d 39 3e
       -0.02766585 0.19375476 -0.2764322 0.18096082
000190 9e 25 2a be 54 e9 16 3e 58 99 23 bd d5 71 36 be
       -0.16615912 0.14737445 -0.039941162 -0.17816861
0001a0 05 09 5d 3e 82 13 66 bd 32 a4 16 3d 5f 57 a6 3c
       0.21585472 -0.056170948 0.036777683 0.020305334
0001b0 18 9c 72 be e1 8d 53 3e 2b b8 18 3d f0 5a 76 3d
       -0.23692358 0.20659591 0.03728501 0.06014532
0001c0 e3 bd 7e 3e 6a f6 87 bc e8 f6 8e be 9d b3 a6 bc
       0.24877124 -0.016596992 -0.2792275 -0.020349318
0001d0 15 0c 67 bd 57 bf 78 be 62 49 d3 bc ab d5 4f bc
       -0.056408007 -0.2429174 -0.025791828 -0.01268522
0001e0 9c bd 67 3e 62 55 f9 3d 5b 45 73 be db 12 fa 3d
       0.22630924 0.121744886 -0.23756926 0.12210628
0001f0 cb 95 83 be 8b da cc bd e8 8b d9 3b a1 ad 85 bd
       -0.2570022 -0.10002621 0.0066389926 -0.06527258
000200 1d 14 70 3c ab 63 06 bc 9b 26 82 be 73 da 18 be
       0.014653233 -0.008202474 -0.2542008 -0.14927082
000210 f0 1e 67 be 18 b9 0a 3e 9e fe 22 bd 34 c9 6a 3e
       -0.22570395 0.1354717 -0.039793603 0.22928315
000220 46 6e a8 3d bf e2 99 3e 08 b8 74 bd 55 fc 15 3e
       0.08224158 0.30055806 -0.05974582 0.14647038
000230 a3 b4 4f be e1 13 8b be 79 9e d3 bd 51 b5 26 bd
       -0.20283751 -0.27163604 -0.10332961 -0.04070026
000240 78 26 7a 3e 56 67 50 be 62 4e 9b 3e a1 45 06 be
       0.24428737 -0.2035192 0.3033324 -0.13112499
000250 46 96 fc bd 67 52 e1 bd 92 24 b0 3c 45 bf 16 bd
       -0.1233335 -0.11002045 0.021501813 -0.036803503
000260 1c b5 4d be ee 86 13 3e b8 2a 3c 3e 70 19 0e be
       -0.20088619 0.1440694 0.18375671 -0.13876891
000270 fd cd 2d 3e fe e8 4d 3d 40 29 29 ba 66 40 81 be
       0.1697311 0.050271027 -0.0006452985 -0.25244445
000280 8d 59 88 bd 05 5e 0a 3d a7 c0 44 3e 3e 8b d8 bc
       -0.066577055 0.03378107 0.19214116 -0.026433583
000290 be 2e 53 be 68 f8 34 be 5f 43 32 be 79 53 9d 3e
       -0.206233 -0.17672884 -0.17408513 0.30727747
0002a0 cc e6 6f 3e 8e 0f 26 bd 92 82 92 be b3 47 8d bd
       0.23427886 -0.040542178 -0.28615242 -0.06898441
0002b0 af aa 72 3e 57 e3 a7 bd 80 d2 9c bd fe 9a 8b 3e
       0.23697923 -0.081976585 -0.07657337 0.27266687
0002c0 15 29 fb 3c 03 ca 90 be 52 03 66 be 9a 17 80 be
       0.030659238 -0.28279123 -0.22462204 -0.25018007
0002d0 9d c7 31 3e 13 89 94 3e 91 09 d7 bd 39 6a f6 3d
       0.17361303 0.2901083 -0.104998715 0.12031979
0002e0 9b 63 70 be 88 62 a1 bd c9 d4 77 be 69 ae 5b 3e
       -0.23475496 -0.078801215 -0.24202265 0.21453251
0002f0 39 75 d7 3c 51 1c fe 3d 3b f8 67 3e 9e be 77 be
       0.026301013 0.12407745 0.22653286 -0.24193808
000300 16 fb 66 3e 2d 21 1b be ff aa 9e 3c cf 7c 7e be
       0.22556719 -0.15149374 0.019368647 -0.24852298
000310 bd d5 0e 3e 3b 4c 8b 3e 91 2f 55 be f2 bb 0f be
       0.13948722 0.27206597 -0.20818926 -0.14036539
000320 43 da ff bd 67 fc 33 bc 75 4e be 3d a3 8e 5a be
       -0.12492802 -0.01098547 0.09292308 -0.21343474
000330 ca a8 86 be 9c 8b 46 3e ba 48 e3 3d a0 bc 0b be
       -0.2630065 0.19389194 0.11097856 -0.13646173
000340 9f de 17 3d 11 86 08 3e 89 94 29 bd f5 cb 8e be
       0.037077542 0.13332392 -0.04140142 -0.27889982
000350 a3 f4 10 3e 9f c2 50 3e be 4c 6c be 80 7a a9 bd
       0.14155822 0.20386742 -0.2307615 -0.08275318
000360 64 30 01 3e 0c 16 f4 bd 53 1f 2c bd 64 ce 82 3e
       0.12616116 -0.119182676 -0.04202206 0.2554809
000370 e9 9d 83 be 72 0d 26 be b6 6b 63 3d 6d 12 74 3e
       -0.25706413 -0.16216066 0.055522643 0.23835154
000380 8e ed 5f 3e 70 9c 50 3e 97 f3 e9 bb 2d 89 64 3e
       0.21867964 0.20372176 -0.007139634 0.22317953
000390 c8 6b 1e be 68 20 91 3e 9d 01 83 3e e3 39 d1 bd
       -0.15470803 0.28345037 0.25587168 -0.10216119
0003a0 85 7f ba 3d 71 ba 2b bc 75 9e 80 3e 1e 6d 7f bd
       0.09106354 -0.010481463 0.25120893 -0.06235992
0003b0 f1 95 6d be 91 75 95 3e ca 8a 9c 3e a4 29 89 be
       -0.2320173 0.2919126 0.30574638 -0.26789582
0003c0 21 ff 89 3e a2 90 37 be 9a f5 77 be 8a 33 fe bd
       0.2695246 -0.17926267 -0.24214783 -0.12412174
0003d0 96 98 f8 bd 5e 79 53 3d 6d a2 43 3e ec 45 9e 3e
       -0.121384785 0.051629417 0.1910493 0.3091272
0003e0 ca 40 4d be 52 90 37 3e 0c 91 24 be 60 e2 80 be
       -0.20044246 0.17926148 -0.16070956 -0.2517271
0003f0 45 f1 80 bd 73 df 85 3e 7d f2 74 3e f3 4d 80 be
       -0.062960185 0.2614704 0.23920627 -0.2505947
