mutation/target_models/lastfm_gcn.pt (torch, 504799 bytes, 4 tensors)

conv1.bias f4 [16]
0	0x3a262733	0.00063382386
1	0x3c3a0072	0.011352645
2	0xbd2b1cf0	-0.041775644
3	0xbc557697	-0.013028762
4	0xbd2b7ca6	-0.04186692
5	0x3c87f3bc	0.016595714
6	0xbd2b3eef	-0.041808065
7	0x3c2de036	0.010612538
8	0x3c865d64	0.016401954
9	0xbc4113cf	-0.011784508
10	0xbd0150f9	-0.031571362
11	0x3c8d1baa	0.017225105
12	0xbc9257dc	-0.01786416
13	0xbd2c1783	-0.04201461
14	0x3c63af6d	0.013896805
15	0xbd0fbe60	-0.035093665

conv1.lin.weight f4 [16, 7842]
0	0x3afbdb2c	0.0019215099
1	0xbd6806d6	-0.056647144
2	0xbd0b860c	-0.034063384
3	0xbd90e2b3	-0.070744894
4	0xbcde584a	-0.027141709
5	0x3d1a286c	0.037636206
6	0x3d7baddc	0.061445102
7	0xbcf95a64	-0.03043861
8	0x3dacf721	0.084455736
9	0xbd1386de	-0.03601729
10	0xbabcdb92	-0.0014408699
11	0xbc77c046	-0.015121525
12	0xbd004486	-0.03131535
13	0xbb2d6c34	-0.00264622
14	0x3c0c33c5	0.008557265
15	0xbb1f69ca	-0.002432453
16	0x3cce2d24	0.02516801
17	0xbd507c61	-0.050899867
18	0xbd45c628	-0.04828468
19	0xbd68810d	-0.056763697
20	0x3c9b69c2	0.018971328
21	0xbcdf05e4	-0.027224489
22	0xbcac9bbe	-0.021070357
23	0xbd0c9266	-0.034319304
24	0x3c95c548	0.018282548
25	0x3cd0d44e	0.02549186
26	0x3cf0c874	0.029392458
27	0x3c31c310	0.010849729
28	0xbd403ae8	-0.046931177
29	0xbc9c3756	-0.019069355
30	0x3d90134f	0.07034933
31	0x3c3cdca1	0.011527211
32	0xbacd425c	-0.0015660035
33	0x3d76e1d2	0.060273953
34	0x3d6281e4	0.055299655
35	0x3d50c4a4	0.05096878
36	0xbd323a22	-0.04351247
37	0x3da52aff	0.080648415
38	0x3d453f57	0.04815611
39	0xbcc36574	-0.023852088
40	0xbced81f4	-0.02899263
41	0x3da2e2ca	0.07953413
42	0x3ce31db2	0.02772412
43	0x3c8dce7c	0.017310373
44	0x3c85da37	0.016339405
45	0x3cd0788e	0.02544811
46	0xbc8a162f	-0.016856281
47	0xbce1cdf1	-0.02756402
48	0xbd8fddae	-0.07024704
49	0xbce7d987	-0.028301967
50	0x3d533116	0.051560484
51	0xbd6f4a21	-0.058420304
52	0xbcb04e24	-0.021521635
53	0x3d2500f7	0.040284123
54	0xbc78e81f	-0.015192061
55	0x3d118ffc	0.035537705
56	0x3d460505	0.04834463
57	0xbbb6b0e7	-0.0055752876
58	0xbd18eebd	-0.037337054
59	0xbd5fb425	-0.05461516
60	0x3ca48d25	0.020086834
61	0xbc6e93ea	-0.014561633
62	0x3d9f4499	0.07776756
63	0x39b00093	0.00033569764
64	0xbccf462c	-0.025302015
65	0x3db5c35f	0.08875155
66	0xbd37b3ef	-0.044849332
67	0x3d07286d	0.032997537
68	0xbd4cc949	-0.049996648
69	0x3d8222b2	0.06354274
70	0x3cc69533	0.024241066
71	0x3cdd89ce	0.02704325
72	0x3d9e28cb	0.077226244
73	0xbcc0e544	-0.023546822
74	0x3cc350f4	0.023842312
75	0xbbbc3a9d	-0.005744292
76	0x3d2c23c7	0.042026307
77	0x3d8ab789	0.06773288
78	0xbcf4864a	-0.02984919
79	0x3ccc00e3	0.024902767
80	0xbbd5af8a	-0.00652117
81	0xbc81ddc4	-0.015852816
82	0xbd4e58ac	-0.050377533
83	0xbd2ec824	-0.042671338
84	0xbd330a9d	-0.043711293
85	0x3d0dbeb2	0.03460569
86	0xbd8484e2	-0.06470658
87	0x3da098bb	0.07841631
88	0xbd7e6d09	-0.062115703
89	0x3da7b6c4	0.08189157
90	0xbd1b2dac	-0.037885353
91	0x3d6af87f	0.05736589
92	0xbd57eca7	-0.052715924
93	0xbc88cf45	-0.016700396
94	0xbcb165ca	-0.021654982
95	0x3bd0445e	0.0063558063
96	0x3d15e66d	0.036596704
97	0x3d249afa	0.04018686
98	0xbd1ec0a4	-0.038757935
99	0xbd75b188	-0.05998376
100	0x3d88291b	0.06648465
101	0xbc749b03	-0.014929536
102	0x3d702c57	0.058636036
103	0xbd45cfcc	-0.048293874
104	0x3ce8337b	0.02834486
105	0xbc94c3d0	-0.018159777
106	0xbd5db024	-0.05412306
107	0x3d7d6da4	0.06187214
108	0x3d988842	0.07447864
109	0x3d8d1b94	0.06890026
110	0x3c0ec51d	0.008713988
111	0xbcf353bc	-0.029703014
112	0x3d34e1a2	0.044160493
113	0x3d93e068	0.072205365
114	0xbd9e1a7f	-0.077198975
115	0xbd3322d8	-0.0437344
116	0xbc58c153	-0.013229686
117	0xbb55c37e	-0.0032617743
118	0x3d91cdcd	0.071193315
119	0x3d6f85e0	0.058477283
120	0xbca8aa7c	-0.020589106
121	0xbd18badc	-0.037287578
122	0xbd002175	-0.031281907
123	0xbd04a3cd	-0.032382775
124	0x3c7c06b6	0.015382459
125	0xbd3ea1c5	-0.046540994
126	0xbd47693b	-0.04868434
127	0x3dd06ae6	0.10176639
128	0xbd9ce066	-0.07659988
129	0x3cf1e038	0.029525861
130	0x3cc55fb8	0.024093494
131	0x3bb6b14a	0.0055753337
132	0xbce41e94	-0.027846612
133	0xbd7a38e9	-0.06108943
134	0x3d1dfe97	0.038572874
135	0xbc42e3c2	-0.011895122
136	0xbb710b15	-0.0036780287
137	0xbcbb5608	-0.022868171
138	0xbcf1afb4	-0.029502727
139	0xbbcc91d5	-0.0062429705
140	0x3d036824	0.032081738
141	0xbd481010	-0.048843443
142	0xbd5a7c22	-0.05334104
143	0xbbfbd9b1	-0.007685863
144	0xbd5fbd8f	-0.054624137
145	0xbd5b439a	-0.053531267
146	0xbd05acf6	-0.03263565
147	0x3d0ae858	0.033912987
148	0x3d7f0502	0.062260635
149	0x3d543ad3	0.05181391
150	0xbd9796a8	-0.07401782
151	0x3d53baeb	0.05169193
152	0xbcff9304	-0.031198032
153	0xbc5f6129	-0.013634005
154	0xbd22c89d	-0.0397421
155	0xbd6eda90	-0.058313906
156	0xbcb453d3	-0.022012627
157	0xbcdeb28e	-0.02718475
158	0xbd0f5ad9	-0.03499875
159	0x3c05d643	0.00816876
160	0x3d923590	0.071391225
161	0xbd4800d6	-0.048828922
162	0x3c127f16	0.008941432
163	0xbd542c0c	-0.05179982
164	0x3cecbe2d	0.028899277
165	0xbd49cbde	-0.04926669
166	0x3d2a55c8	0.041585714
167	0xbc489ea6	-0.012244856
168	0x3cff3623	0.031153744
169	0x3d89d55b	0.067301475
170	0x3d4191b1	0.047258083
171	0x3cd06223	0.02543742
172	0xba7b6d28	-0.00095911557
173	0xbd099fb9	-0.03359959
174	0xbcbc20fc	-0.022964947
175	0xbdb9f464	-0.09079817
176	0xbc8a49ef	-0.016880957
177	0xbd1261e7	-0.0357379
178	0xbce36cae	-0.027761783
179	0xbd0e09dd	-0.034677375
180	0xbd1e2b9f	-0.03861582
181	0xbcd2f4a5	-0.025751421
182	0xbd6e5bfc	-0.058193192
183	0x3d6c8103	0.057740223
184	0x3da5e11e	0.08099578
185	0xbd119c8a	-0.035549678
186	0xbbba0256	-0.005676548
187	0x3ce78f01	0.028266432
188	0xbd19a8bb	-0.03751443
189	0x3a9137e0	0.0011079274
190	0x3d3eb86c	0.046562597
191	0xbd08f176	-0.0334334
192	0x3d5406aa	0.051764168
193	0x3cf2d436	0.029642206
194	0xbd2b9f45	-0.041899938
195	0x3c85cc03	0.016332632
196	0x3d55878f	0.052131232
197	0xbd323585	-0.04350807
198	0xbd067c0c	-0.032833144
199	0x3d798e61	0.0609268
200	0x3c5b87d6	0.013399085
201	0xbd4ed5a9	-0.05049673
202	0x3d8c1f71	0.068419345
203	0xbd89bb22	-0.06725146
204	0x3bedd530	0.00725808
205	0x3d36e203	0.044649135
206	0x3d99e7a0	0.07514882
207	0x3da7009b	0.08154412
208	0xbd3b57e8	-0.04573813
209	0x3d67bcc0	0.05657649
210	0xbd79c4c0	-0.06097865
211	0xbd05c583	-0.032659065
212	0xbcb1d61f	-0.021708546
213	0xbd96308f	-0.073334806
214	0x3d2d1847	0.04225948
215	0xbcfaf905	-0.03063632
216	0x3db43fd4	0.08801237
217	0xbce3d4e1	-0.02781147
218	0xbd61ab20	-0.05509484
219	0x3d35991a	0.044335462
220	0x3d6d66fa	0.057959534
221	0xbcbd9177	-0.023140652
222	0xbb9bee86	-0.004758659
223	0x3c7df46b	0.015500168
224	0xbc04c9bd	-0.008104739
225	0x3dab9cbf	0.08379506
226	0x3d816ad4	0.06319204
227	0x3cf3dac6	0.029767405
228	0x3d835135	0.064119734
229	0x3d0c90a3	0.034317624
230	0x3d48b6a8	0.04900232
231	0xbcaf1b63	-0.021375364
232	0xbc02cc28	-0.007983245
233	0xbcf41db4	-0.02979932
234	0xbd2a9d72	-0.041654058
235	0xbbc30476	-0.0059514595
236	0xbb073d6f	-0.0020635983
237	0xbd94d46e	-0.0726708
238	0xbd53de93	-0.051725935
239	0xbd1b69b5	-0.037942607
240	0xbccdb240	-0.02510941
241	0xbdba487f	-0.09095859
242	0xbd8bf692	-0.06834139
243	0xbdb70263	-0.08936002
244	0xbd3fee55	-0.04685815
245	0xbda484a7	-0.08033114
246	0x3bea25b4	0.007145608
247	0xbd49ae3f	-0.04923844
248	0x3d2be809	0.041969333
249	0xbd16522e	-0.036699466
250	0xbd0b8fad	-0.034072567
251	0x3d37a2e3	0.044833075
252	0x3d4e1e83	0.050322067
253	0xbd30f51d	-0.04320251
254	0xbcf5c594	-0.03000144
255	0xbd7a9dca	-0.061185636

conv2.bias f4 [18]
0	0x3d8a8665	0.06763915
1	0xbdb7609f	-0.08953976
2	0xbdb4f20a	-0.08835228
3	0x3da02edc	0.07821438
4	0xbdb344eb	-0.087533794
5	0x3d92c841	0.07167102
6	0x3db85462	0.0900047
7	0xbdafa8e0	-0.08577132
8	0x3d8c4a0b	0.0685006
9	0xbdb6fb05	-0.08934597
10	0x3cd9ebb4	0.02660165
11	0xbd839618	-0.064251125
12	0xbd86eb49	-0.06587846
13	0xbd45c089	-0.04827932
14	0x3c01ea94	0.007929463
15	0xbc70dd90	-0.014701262
16	0x3d411362	0.047137626
17	0x3d5d0efa	0.05396936

conv2.lin.weight f4 [18, 16]
0	0xbdcc7a8b	-0.09984311
1	0xbebfaa2a	-0.37434512
2	0xbe6dcd73	-0.23222904
3	0x3e1eebfb	0.15519707
4	0x3caa4d71	0.02078888
5	0xbe9b2e00	-0.30308533
6	0x3e2f72f3	0.17133693
7	0xbe78dd16	-0.24303088
8	0x3ecd6ab2	0.40120465
9	0xbd9a0056	-0.07519595
10	0xbe048a5e	-0.12943408
11	0x3e8712ed	0.26381627
12	0x3ee2a3d3	0.44265613
13	0xbbfb6ecf	-0.0076731215
14	0xbe32de09	-0.17467512
15	0xbea75b75	-0.32686964
16	0x3ea4d2af	0.3219199
17	0xbefc22f7	-0.49245426
18	0x3d484c7d	0.04890107
19	0x3c05b6be	0.008161245
20	0xbdee0b21	-0.116232164
21	0xbe13d9b9	-0.14438523
22	0x3ea2f7d6	0.3182971
23	0x3ea4b042	0.32165724
24	0xbe232405	-0.15931709
25	0x3e3b7774	0.18307287
26	0xbdc73d58	-0.09728497
27	0xbe23eb82	-0.16007808
28	0x3e73af45	0.23797329
29	0x3eb72976	0.3577382
30	0xbeac33a9	-0.33633164
31	0xbdec3c59	-0.11534948
32	0xbe91cfb6	-0.28478783
33	0x3e0d12cd	0.13776703
34	0xbde39092	-0.11111559
35	0xbbb628fa	-0.005559084
36	0xbd9ae2e5	-0.07562808
37	0xbd17c5cc	-0.03705387
38	0xbe54a2e0	-0.20765257
39	0xbd6f02b3	-0.058352184
40	0xbe48fd83	-0.19627957
41	0x3e899220	0.26869297
42	0xbdf39dc0	-0.11895323
43	0x3db53207	0.088474326
44	0xbe43dcff	-0.19127272
45	0xbd9a10f9	-0.075227685
46	0x3d8daa3a	0.06917234
47	0x3e8ac1d2	0.27100998
48	0xbed8acfc	-0.42319477
49	0xbebc540e	-0.3678288
50	0x3e880f8f	0.2657437
51	0x3df25296	0.11832158
52	0xbe64f5a0	-0.22359324
53	0x3eb6068b	0.35551867
54	0xbdbe97d6	-0.09306304
55	0xbdaa80ac	-0.083253235
56	0x3ea35510	0.31900835
57	0x3e77fb26	0.242169
58	0xbeab3656	-0.33439893
59	0xbe0b46b5	-0.13601191
60	0xbe70e8d8	-0.23526323
61	0x3e8a33a2	0.26992518
62	0xbea79b98	-0.32735896
63	0x3eb10ccd	0.3458008
64	0xbdd2005a	-0.10253973
65	0x3d95b806	0.0731049
66	0xbe5566b5	-0.20839961
67	0xbe778298	-0.24170911
68	0xbcbdf26e	-0.023186889
69	0xbd9bed55	-0.07613627
70	0x3dde1918	0.1084463
71	0x3cce8a86	0.025212537
72	0x3ea20a31	0.316484
73	0xbee9708d	-0.45593682
74	0xbe06fe5c	-0.13182968
75	0xbd838cc0	-0.0642333
76	0xbe757e38	-0.2397393
77	0x3e06c404	0.13160712
78	0xbea93548	-0.33048463
79	0x3bb03c0c	0.005378252
80	0xbe28c2d1	-0.16480567
81	0x3b5d62c6	0.0033780797
82	0xbe94bb01	-0.29048923
83	0xbe25fb8d	-0.1620924
84	0x3e803255	0.250384
85	0x3ba4e448	0.005032096
86	0x3e83d4eb	0.2574838
87	0x3ec8d9fe	0.39228815
88	0xbe3daaec	-0.18522233
89	0xbedb3b0c	-0.42818487
90	0xbd1323fc	-0.03592299
91	0x3e433def	0.19066595
92	0xbe49d3af	-0.19709657
93	0xbe7391c0	-0.23786068
94	0x3e84ab7d	0.25912085
95	0x3d4010cd	0.046891022
96	0x3ea3c940	0.3198948
97	0xbeb25497	-0.34830162
98	0x3ec3af5f	0.38219735
99	0xbea0ab74	-0.31380808
100	0xbe23ea2d	-0.160073
101	0xbd902e74	-0.0704011
102	0x3cde1b81	0.027112724
103	0x3eb945f8	0.36186194
104	0xbd65cdb6	-0.056104384
105	0xbe6a43a4	-0.22877365
106	0x3ef7c97f	0.48395917
107	0x3e34de65	0.17662962
108	0xbde238bf	-0.1104598
109	0x3e0bba01	0.13645174
110	0xbeb079a8	-0.34467816
111	0xbd9bb1b4	-0.076022536
112	0xbe341aea	-0.17588392
113	0x3d325f89	0.04354814
114	0x3e6ca5c2	0.23110107
115	0xbe8de3b0	-0.27712774
116	0xbe96acba	-0.29428655
117	0x3e0b291b	0.13589899
118	0x3df8cd8a	0.121485785
119	0xbec937d9	-0.3930042
120	0x3c0532b5	0.008129765
121	0xbd4263ce	-0.047458462
122	0x3dae9da0	0.08526158
123	0xbdc5cfea	-0.09658797
124	0x3e62f641	0.22164251
125	0xbe8ebe5f	-0.27879617
126	0x3ea1635e	0.31521124
127	0x3ea66b4a	0.3250373
128	0x3edb5c77	0.42843983
129	0x3e53f2e7	0.20698129
130	0x3eaa30fa	0.3324049
131	0xbe15d0a6	-0.14630374
132	0x3eaaea6c	0.33381975
133	0xbec13506	-0.37735766
134	0x3e769a03	0.24082188
135	0x3ee38441	0.4443684
136	0x3e7d85d7	0.24758087
137	0xbdce4b8c	-0.10073003
138	0xbea82486	-0.32840365
139	0x3deeedf3	0.11666479
140	0xbe983c84	-0.2973367
141	0xbe30e3c9	-0.17274393
142	0xbed313dc	-0.4122609
143	0xbeb9bbfa	-0.36276227
144	0x3e964c74	0.29355204
145	0x3e9098a0	0.28241444
146	0xbe724b95	-0.23661645
147	0xbe66fb44	-0.22556788
148	0x3cc041d4	0.02346889
149	0xbcd9386e	-0.026516166
150	0x3e535f38	0.20641792
151	0x3db76207	0.08954244
152	0xbdd66ea5	-0.104703225
153	0xbc31bf59	-0.0108488435
154	0x3dc17305	0.09445766
155	0xbea2815d	-0.3173932
156	0xbcbe852d	-0.023256863
157	0xbecfdf06	-0.4059984
158	0x3e5f0528	0.2177931
159	0xbebc1d59	-0.3674114
160	0x3d53b092	0.051682062
161	0x3ee24779	0.44195154
162	0xbc1e6e2a	-0.00966982
163	0x3dbb8beb	0.091575466
164	0xbe850425	-0.25979725
165	0x3e0e5d91	0.1390288
166	0x3e012d25	0.12614878
167	0x3e955368	0.29165196
168	0xbea76cd9	-0.32700232
169	0xbdecd3e9	-0.11563856
170	0x3ea514e9	0.32242516
171	0x3e0e7dee	0.13915226
172	0x3e8f1919	0.27948835
173	0xbe3a5dc0	-0.18199825
174	0xbecbefc5	-0.39831367
175	0x3db45e5f	0.08807062
176	0x3ea573c6	0.3231489
177	0xbe950a79	-0.29109553
178	0x3d375b9c	0.0447651
179	0x3e368fa3	0.1782823
180	0x3e850f4d	0.25988236
181	0xbe42278d	-0.189604
182	0x3e1880b8	0.14892852
183	0xbec488fd	-0.38385764
184	0x3dfab2a7	0.122411065
185	0x3d104cdc	0.03522955
186	0xbe628ff7	-0.2212523
187	0x3e1601ce	0.14649126
188	0xbedbd859	-0.42938498
189	0xbeabfcb2	-0.3359123
190	0xbec2a26e	-0.3801455
191	0x3d7a5862	0.061119445
192	0xbdfa7ed6	-0.12231223
193	0xbe4524a5	-0.1925226
194	0x3df8aa2f	0.12141835
195	0x3d6758ac	0.05648105
196	0x3e418797	0.1889938
197	0xbd090e7a	-0.03346107
198	0x3e86a346	0.26296443
199	0xbe7abd75	-0.24486335
200	0xbee5f44b	-0.44912943
201	0x3e933b2c	0.28756082
202	0x3e5cc87f	0.21560858
203	0xbed6ab29	-0.4192746
204	0x3dd42d35	0.10360185
205	0x3e466283	0.19373517
206	0xbee2219c	-0.44166267
207	0xbedabefd	-0.42723837
208	0x3e2de6f6	0.16982636
209	0x3e217000	0.15765381
210	0x3e7b8c31	0.24565198
211	0x3e6b25a5	0.22963579
212	0x3e96e5c4	0.29472172
213	0xbe87c179	-0.26514795
214	0x3df5a2a2	0.1199391
215	0x3d9dc8ef	0.07704341
216	0xbeb1cca6	-0.34726447
217	0xbea846ea	-0.32866603
218	0xbe4210b1	-0.1895168
219	0xbdbf720e	-0.09347926
220	0xbe4d6b86	-0.20060548
221	0xbe420380	-0.18946648
222	0xbee11263	-0.4395934
223	0x3e28c308	0.16480649
224	0xbdb84453	-0.08997407
225	0x3e7d9a38	0.24765861
226	0x3e751e26	0.23937282
227	0xbea01da3	-0.3127261
228	0x3e522da0	0.20525217
229	0xbe0fa697	-0.14028393
230	0xbe4020ca	-0.18762508
231	0x3d5f623c	0.054537043
232	0x3e6c6234	0.23084337
233	0x3b062fc4	0.0020475248
234	0x3db5d845	0.08879141
235	0x3ea2b9d5	0.31782404
236	0xbe066f5d	-0.13128419
237	0xbda2cf46	-0.079496905
238	0xbe557b75	-0.20847876
239	0x3eb3f498	0.35147548
240	0x3c7b1d26	0.015326774
241	0x3ec94291	0.393086
242	0xbdc308c2	-0.09523155
243	0x3e00034c	0.12501258
244	0x3e2ced4c	0.16887397
245	0xbdca17fc	-0.09867856
246	0xbe3dda8d	-0.18540402
247	0xbe8216bf	-0.2540798
248	0x3d7f876c	0.062385008
249	0x3e935fd5	0.28784052
250	0xbd93ff4d	-0.07226429
251	0xbec8d0a2	-0.39221674
252	0x3e4ec045	0.20190533
253	0xbe08ef26	-0.13372478
254	0xbdb45110	-0.08804524
255	0x3e8a21c6	0.26978892
