mutation/target_models/pubmed_gat.pt (torch, 132303 bytes, 10 tensors)

gat1.att_src f4 [1, 4, 16]
0.052871503 -0.12982908 0.21579173 0.1689525 -0.17029873 0.3725465 -0.03849509 0.049986668
-0.3047102 0.017446443 -0.38152304 0.09643603 -0.013881015 -0.23939946 -0.24724749 0.26787296
-0.13934068 0.3309559 0.42088315 -0.31268328 -0.30307788 -0.0034744642 0.18396762 -0.3998752
0.09279015 0.06592631 0.31441173 -0.38821757 0.014653203 -0.1894444 0.007052708 0.024354545
0.3390742 -0.22526999 -0.11600843 -0.3676769 0.069240205 0.2803363 0.19111659 -0.22380985
0.17173697 0.18783134 0.10871009 0.18195775 0.11937846 0.022196205 0.34889647 0.24747303
0.3018173 -0.22130777 -0.028032888 0.41713104 0.14911357 -0.19623797 -0.07818383 0.12834726
-0.021777462 -0.038724847 0.31893715 0.096929856 0.23968068 -0.34174317 -0.07081082 -0.040296517
00000000: ca8f 583d eaf1 04be 82f8 5c3e e201 2d3e
00000010: ca62 2ebe 6abe be3e 07ad 1dbd d2be 4c3d
00000020: fa02 9cbe d8eb 8e3c fd56 c3be 4180 c53d
00000030: 326d 63bc 2225 75be 722e 7dbe a526 893e
00000040: 53af 0ebe 0d73 a93e ff7d d73e 0618 a0be
00000050: 062d 9bbe d6b3 63bb 0262 3c3e 71bc ccbe
00000060: c308 be3d 6004 873d 93fa a03e 74c4 c6be
00000070: fd13 703c b6fd 41be 671a e73b 2f83 c73c
00000080: 229b ad3e 2dad 66be d495 edbd 2640 bcbe
00000090: cfcd 8d3d 3d88 8f3e 11b4 433e 692e 65be
000000a0: d1db 2f3e dc56 403e 65a3 de3d 2253 3a3e
000000b0: b27c f43d d1d4 b53c 8fa2 b23e 9269 7d3e
000000c0: cc87 9a3e 819e 62be 3aa5 e5bc 3392 d53e
000000d0: 3ab1 183e 9bf2 48be d81e a0bd 776d 033e
000000e0: a666 b2bc f29d 1ebd bb4b a33e 2983 c63d
000000f0: da6e 753e f6f8 aebe 4305 91bd f60d 25bd

gat1.att_dst f4 [1, 4, 16]
0.043067228 -0.2649909 -0.07264079 -0.11503304 -0.43850878 -0.030554675 0.03455446 -0.35523576
-0.09517805 0.039492212 -0.10337129 0.41848078 0.33871758 -0.004000149 0.13793287 0.05411353
0.03181024 0.016727692 0.0018958319 0.12317104 -0.44032204 -0.18284546 0.2146136 0.32044005
-0.046353105 0.4293943 0.16224729 -0.37589106 0.39355353 -0.3969785 -0.24596801 -0.01180147
0.2100645 -0.028300505 0.026037795 -0.02959311 0.3309976 0.20781311 0.13136297 -0.18043773
-0.13284154 0.060679976 -0.22328277 -0.010343027 0.25139457 -0.3089373 -0.10055317 0.029848097
0.14282233 -0.050792214 -0.08949314 -0.3732865 -0.36818862 0.02829957 0.18730584 -0.31545106
-0.05021631 0.36108008 0.10199019 -0.040431585 -0.307154 -0.2613862 -0.05673883 0.04338276
00000000: 4367 303d e3ac 87be b2c4 94bd 7196 ebbd
00000010: 3984 e0be cc4d fabc fa88 0d3d 76e1 b5be
00000020: b6ec c2bd 96c2 213d 54b4 d3bd 1d43 d63e
00000030: 646c ad3e af13 83bb 463e 0d3e 26a6 5d3d
00000040: 744b 023d 8308 893c 907d f83a 1941 fc3d
00000050: e471 e1be d73b 3bbe abc3 5b3e b810 a43e
00000060: c1dc 3dbd 92d9 db3e 2724 263e cb74 c0be
00000070: d97f c93e c440 cbbe 0adf 7bbe f45a 41bc
00000080: 261b 573e 76d6 e7bc 374d d53c 406d f2bc
00000090: 8478 a93e f6cc 543e 0484 063e abc4 38be
000000a0: 9d07 08be 918b 783d 3da4 64be cd75 29bc
000000b0: cab6 803e 082d 9ebe d2ee cdbd ff83 f43c
000000c0: 0440 123e 7f0b 50bd 2e48 b7bd 681f bfbe
000000d0: 3883 bcbe 80d4 e73c 1acd 3f3e cd82 a1be
000000e0: 9eaf 4dbd 7ddf b83e 3ce0 d03d 979b 25bd
000000f0: 4a43 9dbe 69d4 85be fa66 68bd 1fb2 313d

gat1.bias f4 [64]
0.024393521 0.07063054 0.08452624 0.009575216 -0.04272415 0.08043968 0.028595325 0.06551081
0.08821224 0.01123799 0.078384705 -0.041593097 0.07653755 0.09047208 0.024313051 0.024389924
0.03970757 -0.03904041 0.07838841 -0.062145125 0.077621795 -0.041438933 -0.041793145 -0.043007027
0.03400785 0.043090105 0.08717455 0.03740937 -0.022923438 0.08756165 0.09421684 0.076236665
0.024268525 0.07541695 0.027451705 0.08304473 0.05404777 0.030083386 0.07904513 0.062448613
-0.040973756 -0.0433483 -0.041351143 0.0296609 0.036668964 0.03130238 0.06621821 0.06666433
0.07825761 -0.036243748 0.04599105 0.0574241 0.052353974 -0.038906988 0.043553896 0.053363822
0.036573723 0.06130577 0.054964878 0.09068627 0.03324196 0.076664165 0.08353199 0.026129484
00000000: ecd4 c73c bfa6 903d 181c ad3d 5ee1 1c3c
00000010: 85ff 2ebd 8fbd a43d be40 ea3c 882a 863d
00000020: 9ea8 b43d 8c1f 383c 2988 a03d 865d 2abd
00000030: b8bf 9c3d 6d49 b93d 2a2c c73c 61cd c73c
00000040: 68a4 223d d6e8 1fbd 1a8a a03d e38b 7ebd
00000050: 2df8 9e3d dfbb 29bd 4a2f 2bbd 2328 30bd
00000060: d14b 0b3d 407f 303d 9288 b23d 913a 193d
00000070: efc9 bbbc 8653 b33d c2f4 c03d f821 9c3d
00000080: c9ce c63c 3474 9a3d 66e2 e03c 5b13 aa3d
00000090: 3261 5d3d 6f71 f63c 6ae2 a13d 1eca 7f3d
000000a0: 19d4 27bd fd8d 31bd d15f 29bd 6afb f23c
000000b0: 3232 163d ed36 003d 6a9d 873d 4f87 883d
000000c0: 8745 a03d 5374 14bd 1c61 3c3d 8835 6b3d
000000d0: 1f71 563d ef5c 1fbd 9265 323d 0694 5a3d
000000e0: 54ce 153d c21b 7b3d da22 613d b9b9 b93d
000000f0: b928 083d 1a02 9d3d d212 ab3d 800d d63c

gat1.lin_src.weight f4 [64, 500]
0.01035919 -0.040695284 0.020528812 0.0061973175 0.07417734 0.01852394 0.073147565 0.011583478
0.1085831 0.007045968 -0.040543012 0.0032796701 0.0010343634 0.06309954 0.040550847 0.015837625
-0.04413282 0.007604868 -0.033001676 0.026771657 -0.028011827 0.11555943 0.0118225515 0.094320014
0.032139212 0.06004716 -0.02704981 -0.004020876 0.0039398437 -0.04813894 -0.0429779 -0.027521541
0.026701318 0.08209345 -0.025851838 0.061101913 -0.035904374 0.02663406 -0.0062746634 0.0350969
-0.042558894 0.0026384068 0.051447228 0.06214322 -0.043050855 0.017811302 0.025130391 0.047709446
0.0027686618 -0.056301326 0.00022174977 0.007857401 -0.05119344 -0.019585608 0.0016506012 0.05306693
-0.03705857 -0.022562005 -0.02864768 0.046660278 0.0042831753 0.045151174 -0.03857242 0.06970314
0.04698061 -0.0019132253 0.041765198 -0.043051206 -0.02444601 -0.07560151 0.052215062 0.037046064
0.009664897 -0.004116278 0.08062526 0.047217112 0.07699646 0.04535168 -0.00038699352 -0.03953574
-0.0061895866 0.039523583 0.057899885 0.07318234 0.020201992 0.0143895205 -0.032826863 0.015989248
0.014791898 -0.015152292 0.0012933731 0.12096258 0.0029926617 0.0034592636 0.030129593 0.026216377
-0.01666839 0.047376044 0.06240736 -0.003112934 0.0639448 -0.055616476 -0.056247227 0.028695814
-0.0020418381 0.00913488 0.021072302 0.009113417 0.033245243 -0.009398166 0.026222618 0.037658617
0.02751224 0.04863966 0.042903207 0.012909079 0.021237595 -6.237638e-05 -0.0294406 -0.039983775
-0.03801742 0.004915865 0.022318913 -0.069462 0.026045932 -0.028055362 -0.041594554 -0.0132998135
0.01336087 -0.023286697 -0.019491864 0.057148285 -0.05989022 -0.012890533 0.014765247 -0.02122029
-0.017928043 -0.05131509 -0.0008033639 0.012181162 0.018918231 0.063312404 -0.019942902 0.009298179
-0.022101903 0.011348675 0.028420333 -0.046644244 -0.04794792 -0.05731042 0.0123466365 -0.0031425133
-0.010824789 0.027549323 0.03157391 0.022689927 0.05235699 0.01539746 -0.0369912 0.067637235
0.0063559655 -0.057246104 -0.045524295 0.014123239 0.036189497 -0.011226761 0.022592207 -0.041894596
0.028385231 -0.023120746 0.014482364 -0.02907369 0.04531212 0.071369685 0.016172629 0.019136626
-0.022622548 0.063194975 -0.004704944 -0.013916714 0.043996286 0.020038586 -0.0003572125 -0.012702083
0.0604011 0.065380216 0.030498017 0.006738439 0.01652684 -0.028263552 0.00364942 -0.017548105
-0.038427565 0.079458214 0.0054250476 0.08083016 0.1457393 0.0109944865 -0.01713505 -0.0026895227
0.03304039 0.03501282 0.053063992 -0.04720108 0.17430285 0.009377995 -0.042750433 0.07325915
0.013514733 0.020339373 0.016946098 -0.056842364 -0.028521463 -0.00477995 0.03943873 0.014609571
0.021685425 -0.04913932 -0.069823794 0.001619379 0.11787334 -0.016351018 0.004496007 0.009360951
-0.019404829 -0.028215438 -0.074253224 0.027374033 -0.028505806 0.0010364545 0.04868913 0.007034151
0.090590805 0.047790278 0.024861807 -0.11257623 -0.004067123 -0.0045452937 0.0400224 0.0076235775
0.051770758 0.023272088 0.004069803 -0.009677129 -0.05746649 -0.010633677 -0.018805211 0.03247038
-0.00072507747 -0.016978774 0.040961005 -0.055269632 0.018499915 -0.059871547 0.06338614 -0.017405737
00000000: 98b9 293c 19b0 26bd 0a2c a83c de12 cb3b
00000010: 4aea 973d 85bf 973c 64ce 953d a1c8 3d3c
00000020: d160 de3d dde1 e63b 6e10 26bd bcef 563b
00000030: 7a93 873a 553a 813d a518 263d e8bd 813c
00000040: 9ec4 34bd 4232 f93b c42c 07bd 3c50 db3c
00000050: 0f79 e5bc 6caa ec3d 60b3 413c da2a c13d
00000060: 68a4 033d 03f4 753d 9097 ddbc 8dc1 83bb
00000070: ce19 813b 562d 45bd 9809 30bd db74 e1bc
00000080: b9bc da3c 9c20 a83d 3cc7 d3bc 0046 7a3d
00000090: 7710 13bd ac2f da3c b19b cdbb c4c1 0f3d
000000a0: 3c52 2ebd 1fe9 2c3b 54ba 523d e489 7e3d
000000b0: 1856 30bd 02e9 913c 40de cd3c fb6a 433d
000000c0: 7072 353b 389c 66bd 8085 6839 54bc 003c
000000d0: 36b0 51bd ff71 a0bc fc58 d83a b65c 593d
000000e0: baca 17bd f4d3 b8bc 8aae eabc d91e 3f3d
000000f0: e159 8c3b 70f0 383d 1dfe 1dbd 85c0 8e3d
00000100: bd6e 403d 30c5 faba fc11 2b3d 7656 30bd
00000110: 0043 c8bc f7d4 9abd 76df 553d 9dbd 173d
00000120: 8459 1e3c d8e1 86bb db1e a53d bb66 413d
00000130: 52b0 9d3d afc2 393d 64e5 cab9 3af0 21bd
00000140: 04d2 cabb 7be3 213d 6e28 6d3d 9fe0 953d
00000150: a67e a53c 06c2 6b3c 7675 06bd e2fb 823c
00000160: b859 723c 5241 78bc 6686 a93a 3bbb f73d
00000170: 8820 443b d0b4 623b 56d2 f63c bac3 d63c
00000180: 268c 88bc 620d 423d dc9e 7f3d 5e02 4cbb
00000190: 7ef5 823d 1ace 63bd 7e63 66bd 7c13 eb3c
000001a0: 5cd0 05bb 77aa 153c d29f ac3c 7150 153c
000001b0: 2a2c 083d c4fa 19bc d1d0 d63c ec3f 1a3d
000001c0: 5961 e13c 613a 473d 46bb 2f3d 9a80 533c
000001d0: 77fa ad3c 10d0 82b8 6a2d f1bc 07c6 23bd
000001e0: 27b8 1bbd 4415 a13b 27d6 b63c 1842 8ebd
000001f0: 475e d53c 5cd4 e5bc 0d5f 2abd 76e7 59bc
00000200: 8de7 5a3c bec3 bebc 67ad 9fbc 5214 6a3d
00000210: 734f 75bd d032 53bc efe9 713c 2cd6 adbc
00000220: d5dd 92bc c62f 52bd d798 52ba 7f93 473c
00000230: 68fa 9a3c efa9 813d 4c5f a3bc 6457 183c
00000240: 0d0f b5bc cbef 393c c2d1 e83c 090e 3fbd
00000250: 0a65 44bd 55be 6abd 8c49 4a3c a0f2 4dbb
00000260: 755a 31bc 1eaf e13c a553 013d 3ae0 b93c
00000270: 4874 563d a145 7c3c 1684 17bd 6485 8a3d
00000280: b445 d03b e47a 6abd af77 3abd 2865 673c
00000290: 703b 143d 73f0 37bc 4b13 b93c ab99 2bbd
000002a0: 2588 e83c b867 bdbc 7047 6d3c f22b eebc
000002b0: 3499 393d 452a 923d 767c 843c 6ac4 9c3c
000002c0: ec52 b9bc 5e6c 813d ee2b 9abb ee02 64bc
000002d0: 7335 343d f627 a43c 4048 bbb9 661c 50bc
000002e0: 2567 773d 10e6 853d fad6 f93c 20ce dc3b
000002f0: 4c63 873c f788 e7bc 1c2b 6f3b 0bc1 8fbc
00000300: 3966 1dbd fdba a23d 99c4 b13b 488a a53d
00000310: af3c 153e 3822 343c ce5e 8cbc b442 30bb
00000320: 5c55 073d 9a69 0f3d a159 593d eb55 41bd
00000330: 727c 323e 29a6 193c 141b 2fbd e508 963d
00000340: e66c 5d3c c29e a63c 8bd2 8a3c 8ad3 68bd
00000350: d8a5 e9bc 20a1 9cbb 818a 213d fb5c 6f3c
00000360: a2a5 b13c 5046 49bd c7ff 8ebd 5841 d43a
00000370: 9467 f13d 92f2 85bc 3e53 933b ad5e 193c
00000380: e0f6 9ebc 1024 e7bc 1312 98bd 823f e03c
00000390: 0285 e9bc a4d9 873a 416e 473d bc7e e63b
000003a0: ac87 b93d bdbf 433d fdaa cb3c 5e8e e6bd
000003b0: 8045 85bb b0f0 94bb 87ee 233d 34cf f93b
000003c0: 930d 543d 1ba5 be3c fb5b 853b d28c 1ebc
000003d0: fb61 6bbd e038 2ebc 630d 9abc a9ff 043d
000003e0: 2013 3eba 1217 8bbc bac6 273d 6962 62bd
000003f0: 228d 973c de3b 75bd 98d0 813d 7a96 8ebc

gat1.lin_dst.weight f4 [64, 500]
0.01035919 -0.040695284 0.020528812 0.0061973175 0.07417734 0.01852394 0.073147565 0.011583478
0.1085831 0.007045968 -0.040543012 0.0032796701 0.0010343634 0.06309954 0.040550847 0.015837625
-0.04413282 0.007604868 -0.033001676 0.026771657 -0.028011827 0.11555943 0.0118225515 0.094320014
0.032139212 0.06004716 -0.02704981 -0.004020876 0.0039398437 -0.04813894 -0.0429779 -0.027521541
0.026701318 0.08209345 -0.025851838 0.061101913 -0.035904374 0.02663406 -0.0062746634 0.0350969
-0.042558894 0.0026384068 0.051447228 0.06214322 -0.043050855 0.017811302 0.025130391 0.047709446
0.0027686618 -0.056301326 0.00022174977 0.007857401 -0.05119344 -0.019585608 0.0016506012 0.05306693
-0.03705857 -0.022562005 -0.02864768 0.046660278 0.0042831753 0.045151174 -0.03857242 0.06970314
0.04698061 -0.0019132253 0.041765198 -0.043051206 -0.02444601 -0.07560151 0.052215062 0.037046064
0.009664897 -0.004116278 0.08062526 0.047217112 0.07699646 0.04535168 -0.00038699352 -0.03953574
-0.0061895866 0.039523583 0.057899885 0.07318234 0.020201992 0.0143895205 -0.032826863 0.015989248
0.014791898 -0.015152292 0.0012933731 0.12096258 0.0029926617 0.0034592636 0.030129593 0.026216377
-0.01666839 0.047376044 0.06240736 -0.003112934 0.0639448 -0.055616476 -0.056247227 0.028695814
-0.0020418381 0.00913488 0.021072302 0.009113417 0.033245243 -0.009398166 0.026222618 0.037658617
0.02751224 0.04863966 0.042903207 0.012909079 0.021237595 -6.237638e-05 -0.0294406 -0.039983775
-0.03801742 0.004915865 0.022318913 -0.069462 0.026045932 -0.028055362 -0.041594554 -0.0132998135
0.01336087 -0.023286697 -0.019491864 0.057148285 -0.05989022 -0.012890533 0.014765247 -0.02122029
-0.017928043 -0.05131509 -0.0008033639 0.012181162 0.018918231 0.063312404 -0.019942902 0.009298179
-0.022101903 0.011348675 0.028420333 -0.046644244 -0.04794792 -0.05731042 0.0123466365 -0.0031425133
-0.010824789 0.027549323 0.03157391 0.022689927 0.05235699 0.01539746 -0.0369912 0.067637235
0.0063559655 -0.057246104 -0.045524295 0.014123239 0.036189497 -0.011226761 0.022592207 -0.041894596
0.028385231 -0.023120746 0.014482364 -0.02907369 0.04531212 0.071369685 0.016172629 0.019136626
-0.022622548 0.063194975 -0.004704944 -0.013916714 0.043996286 0.020038586 -0.0003572125 -0.012702083
0.0604011 0.065380216 0.030498017 0.006738439 0.01652684 -0.028263552 0.00364942 -0.017548105
-0.038427565 0.079458214 0.0054250476 0.08083016 0.1457393 0.0109944865 -0.01713505 -0.0026895227
0.03304039 0.03501282 0.053063992 -0.04720108 0.17430285 0.009377995 -0.042750433 0.07325915
0.013514733 0.020339373 0.016946098 -0.056842364 -0.028521463 -0.00477995 0.03943873 0.014609571
0.021685425 -0.04913932 -0.069823794 0.001619379 0.11787334 -0.016351018 0.004496007 0.009360951
-0.019404829 -0.028215438 -0.074253224 0.027374033 -0.028505806 0.0010364545 0.04868913 0.007034151
0.090590805 0.047790278 0.024861807 -0.11257623 -0.004067123 -0.0045452937 0.0400224 0.0076235775
0.051770758 0.023272088 0.004069803 -0.009677129 -0.05746649 -0.010633677 -0.018805211 0.03247038
-0.00072507747 -0.016978774 0.040961005 -0.055269632 0.018499915 -0.059871547 0.06338614 -0.017405737
00000000: 98b9 293c 19b0 26bd 0a2c a83c de12 cb3b
00000010: 4aea 973d 85bf 973c 64ce 953d a1c8 3d3c
00000020: d160 de3d dde1 e63b 6e10 26bd bcef 563b
00000030: 7a93 873a 553a 813d a518 263d e8bd 813c
00000040: 9ec4 34bd 4232 f93b c42c 07bd 3c50 db3c
00000050: 0f79 e5bc 6caa ec3d 60b3 413c da2a c13d
00000060: 68a4 033d 03f4 753d 9097 ddbc 8dc1 83bb
00000070: ce19 813b 562d 45bd 9809 30bd db74 e1bc
00000080: b9bc da3c 9c20 a83d 3cc7 d3bc 0046 7a3d
00000090: 7710 13bd ac2f da3c b19b cdbb c4c1 0f3d
000000a0: 3c52 2ebd 1fe9 2c3b 54ba 523d e489 7e3d
000000b0: 1856 30bd 02e9 913c 40de cd3c fb6a 433d
000000c0: 7072 353b 389c 66bd 8085 6839 54bc 003c
000000d0: 36b0 51bd ff71 a0bc fc58 d83a b65c 593d
000000e0: baca 17bd f4d3 b8bc 8aae eabc d91e 3f3d
000000f0: e159 8c3b 70f0 383d 1dfe 1dbd 85c0 8e3d
00000100: bd6e 403d 30c5 faba fc11 2b3d 7656 30bd
00000110: 0043 c8bc f7d4 9abd 76df 553d 9dbd 173d
00000120: 8459 1e3c d8e1 86bb db1e a53d bb66 413d
00000130: 52b0 9d3d afc2 393d 64e5 cab9 3af0 21bd
00000140: 04d2 cabb 7be3 213d 6e28 6d3d 9fe0 953d
00000150: a67e a53c 06c2 6b3c 7675 06bd e2fb 823c
00000160: b859 723c 5241 78bc 6686 a93a 3bbb f73d
00000170: 8820 443b d0b4 623b 56d2 f63c bac3 d63c
00000180: 268c 88bc 620d 423d dc9e 7f3d 5e02 4cbb
00000190: 7ef5 823d 1ace 63bd 7e63 66bd 7c13 eb3c
000001a0: 5cd0 05bb 77aa 153c d29f ac3c 7150 153c
000001b0: 2a2c 083d c4fa 19bc d1d0 d63c ec3f 1a3d
000001c0: 5961 e13c 613a 473d 46bb 2f3d 9a80 533c
000001d0: 77fa ad3c 10d0 82b8 6a2d f1bc 07c6 23bd
000001e0: 27b8 1bbd 4415 a13b 27d6 b63c 1842 8ebd
000001f0: 475e d53c 5cd4 e5bc 0d5f 2abd 76e7 59bc
00000200: 8de7 5a3c bec3 bebc 67ad 9fbc 5214 6a3d
00000210: 734f 75bd d032 53bc efe9 713c 2cd6 adbc
00000220: d5dd 92bc c62f 52bd d798 52ba 7f93 473c
00000230: 68fa 9a3c efa9 813d 4c5f a3bc 6457 183c
00000240: 0d0f b5bc cbef 393c c2d1 e83c 090e 3fbd
00000250: 0a65 44bd 55be 6abd 8c49 4a3c a0f2 4dbb
00000260: 755a 31bc 1eaf e13c a553 013d 3ae0 b93c
00000270: 4874 563d a145 7c3c 1684 17bd 6485 8a3d
00000280: b445 d03b e47a 6abd af77 3abd 2865 673c
00000290: 703b 143d 73f0 37bc 4b13 b93c ab99 2bbd
000002a0: 2588 e83c b867 bdbc 7047 6d3c f22b eebc
000002b0: 3499 393d 452a 923d 767c 843c 6ac4 9c3c
000002c0: ec52 b9bc 5e6c 813d ee2b 9abb ee02 64bc
000002d0: 7335 343d f627 a43c 4048 bbb9 661c 50bc
000002e0: 2567 773d 10e6 853d fad6 f93c 20ce dc3b
000002f0: 4c63 873c f788 e7bc 1c2b 6f3b 0bc1 8fbc
00000300: 3966 1dbd fdba a23d 99c4 b13b 488a a53d
00000310: af3c 153e 3822 343c ce5e 8cbc b442 30bb
00000320: 5c55 073d 9a69 0f3d a159 593d eb55 41bd
00000330: 727c 323e 29a6 193c 141b 2fbd e508 963d
00000340: e66c 5d3c c29e a63c 8bd2 8a3c 8ad3 68bd
00000350: d8a5 e9bc 20a1 9cbb 818a 213d fb5c 6f3c
00000360: a2a5 b13c 5046 49bd c7ff 8ebd 5841 d43a
00000370: 9467 f13d 92f2 85bc 3e53 933b ad5e 193c
00000380: e0f6 9ebc 1024 e7bc 1312 98bd 823f e03c
00000390: 0285 e9bc a4d9 873a 416e 473d bc7e e63b
000003a0: ac87 b93d bdbf 433d fdaa cb3c 5e8e e6bd
000003b0: 8045 85bb b0f0 94bb 87ee 233d 34cf f93b
000003c0: 930d 543d 1ba5 be3c fb5b 853b d28c 1ebc
000003d0: fb61 6bbd e038 2ebc 630d 9abc a9ff 043d
000003e0: 2013 3eba 1217 8bbc bac6 273d 6962 62bd
000003f0: 228d 973c de3b 75bd 98d0 813d 7a96 8ebc

gat2.att_src f4 [1, 1, 3]
-0.13221662 -0.27869788 0.37020478
00000000: cb63 07be 7db1 8ebe 7b8b bd3e

gat2.att_dst f4 [1, 1, 3]
0.3494984 0.6919206 0.2702961
00000000: 74f1 b23e b521 313f 4064 8a3e

gat2.bias f4 [3]
-0.07839986 0.09144518 0.05581155
00000000: 1b90 a0bd 9c47 bb3d a79a 643d

gat2.lin_src.weight f4 [3, 64]
0.057095423 -0.26274502 -0.1937789 0.0004952103 0.1612329 0.025852442 0.12187893 -0.32540253
-0.263445 0.029011328 -0.33174264 0.082566455 -0.35967502 0.29330257 0.090106204 0.21208513
-0.14273804 -0.2000667 -0.041006334 0.088023975 -0.2569196 0.111486085 0.102313496 0.016125087
0.34652832 0.23356134 -0.29671818 0.31742334 0.025137575 -0.093099274 0.15679789 0.0928594
0.2461865 -0.1803369 0.17622373 -0.31007624 0.27202493 0.28416818 -0.17453067 -0.13946411
0.22670238 0.21026054 0.097747914 0.30840114 0.22430393 0.33828112 0.04447314 -0.23771441
-0.15206623 0.15154247 0.35535032 -0.31387734 -0.265431 0.012617163 -0.1720019 0.03959056
0.16253327 -0.34649634 -0.17354767 -0.18146603 0.22476907 -0.3222586 -0.19456914 0.00487586
-0.11898359 -0.02143548 0.30205652 -0.10768679 -0.08350851 0.2633809 -0.18904367 -0.16838571
0.34145406 -0.24004996 0.106558666 -0.14332333 -0.12643994 0.24077997 -0.18185908 -0.09124148
0.3114456 -0.21902558 0.2313201 0.14804523 0.17630753 -0.17812875 0.17444438 -0.18081564
-0.29059353 0.12451279 0.17354462 -0.13836631 -0.1523721 0.30618638 0.27996093 0.0922689
-0.14224859 0.13306749 -0.15827803 0.288714 0.20895064 -0.17490901 0.2814509 -0.026280914
-0.14795135 0.1309782 0.12619801 -0.19878846 -0.37746754 -0.28369328 -0.18529505 -0.048586328
0.275927 -0.042379763 0.07474336 -0.23823278 -0.29662248 -0.0028048712 -0.27764827 0.3234021
0.19434738 -0.22491297 -0.36357945 0.09102243 -0.24154772 0.18428877 0.27965572 -0.314407
0.1861044 0.21070462 0.030727884 -0.15665977 0.043804724 0.29839957 -0.06941299 0.18285401
-0.2957067 0.035129733 0.23583849 0.1389262 0.037717443 -0.2301431 0.14159022 0.3508113
-0.27364343 0.08379519 0.2983905 0.11880067 0.3670989 -0.15330541 -0.059748087 -0.103418276
-0.06027498 -0.2998729 -0.0320455 -0.03511039 0.07614693 0.036628667 -0.21405046 -0.2659153
0.29867518 0.22823666 0.16719452 0.13443284 -0.36375138 0.24643588 0.34691858 0.38424745
0.09627226 0.18438493 -0.17773114 -0.29413337 -0.21925089 0.22146708 0.360556 0.26878196
0.37973168 0.062140036 -0.18560684 0.26729178 0.052787907 0.02521391 0.28472325 -0.22037524
-0.23711872 0.23944856 0.09486604 -0.19719164 0.24056388 0.26296023 0.004381501 0.1561287
00000000: e4dc 693d 8486 86be fa6d 46be 00d1 013a
00000010: 3d1a 253e 80c8 d33c a99b f93d 299b a6be
00000020: 43e2 86be 2aa9 ed3c 2cda a9be 9a18 a93d
00000030: 5327 b8be c12b 963e 9a89 b83d d82c 593e
00000040: ec29 12be 49de 4cbe 42f6 27bd ea45 b43d
00000050: f78a 83be d152 e43d bd89 d13d c218 843c
00000060: 296c b13e b42a 6f3e 72eb 97be 5085 a23e
00000070: 51ed cd3c d5aa bebd a08f 203e 122d be3d
00000080: 5018 7c3e 3caa 38be fe73 343e 50c2 9ebe
00000090: da46 8b3e 7e7e 913e 2bb8 32be aecf 0ebe
000000a0: ab24 683e 8a4e 573e 0f30 c83d c1e6 9d3e
000000b0: eeaf 653e 2f33 ad3e 7829 363d 686b 73be
000000c0: 40b7 1bbe f32d 1b3e 7af0 b53e 88b4 a0be
000000d0: 92e6 87be 38b8 4e3c 4421 30be b629 223d
000000e0: 1f6f 263e f867 b1be 7bb6 31be 3bd2 39be
000000f0: dd29 663e 14ff a4be 223d 47be aec5 9f3b
00000100: abad f3bd 7699 afbc 27a7 9a3e e48a dcbd
00000110: 8206 abbd dcd9 863e aa94 41be 4e6d 2cbe
00000120: 11d3 ae3e a8cf 75be 6e3b da3d 5ac3 12be
00000130: 7979 01be 068f 763e 4439 3abe d0dc babd
00000140: cc75 9f3e 3e48 60be 2ddf 6c3e 2b99 173e
00000150: f689 343e 6267 36be 8ca1 323e bc27 39be
00000160: adc8 94be 9000 ff3d aeb5 313e e6af 0dbe
00000170: 6f07 1cbe 76c4 9c3e 0a57 8f3e 7af7 bc3d
00000180: 9da9 11be d842 083e a313 22be 52d2 933e
00000190: 28f7 553e 591b 33be 551a 903e 124b d7bc
000001a0: 8f80 17be 261f 063e 0d3a 013e 348f 4bbe
000001b0: 6d43 c1be 3f40 91be fcbd 3dbe 7502 47bd
000001c0: 4e46 8d3e 6796 2dbd 0c13 993d 4bf3 73be
000001d0: e7de 97be eed1 37bb ea27 8ebe f694 a53e
000001e0: 0003 473e 964f 66be 1627 babe f869 ba3d
000001f0: 4958 77be 32b6 3c3e 092f 8f3e f4f9 a0be
00000200: 2792 3e3e f4c2 573e 0bb9 fb3c 6b6b 20be
00000210: 956c 333d d4c7 983e 6628 8ebd 153e 3b3e
00000220: de66 97be 32e4 0f3d a57f 713e ab42 0e3e
00000230: 9b7d 1a3d a2aa 6bbe 07fd 103e 8a9d b33e
00000240: fe1a 8cbe d09c ab3d a4c6 983e c44d f33d
00000250: 63f4 bb3e 18fc 1cbe 69ba 74bd f6cc d3bd
00000260: e6e2 76bd f188 99be 2442 03bd eacf 0fbd
00000270: ecf2 9b3d f107 163d 0b30 5bbe 0d26 88be
00000280: f4eb 983e dfb6 693e 0a35 2b3e c3a8 093e
00000290: 9f3d babe b059 7c3e 509f b13e 15bc c43e
000002a0: 642a c53d 67cf 3c3e 27ff 35be a698 96be
000002b0: 4e83 60be 44c8 623e cc9a b83e ca9d 893e
000002c0: 316c c23e 8d86 7e3d b80f 3ebe 78da 883e
000002d0: 2238 583d 678d ce3c 3fc7 913e 0caa 61be
000002e0: 40cf 72be 0132 753e 2049 c23d 9bec 49be
000002f0: 6156 763e b9a2 863e b292 8f3b 34e0 1f3e

gat2.lin_dst.weight f4 [3, 64]
0.057095423 -0.26274502 -0.1937789 0.0004952103 0.1612329 0.025852442 0.12187893 -0.32540253
-0.263445 0.029011328 -0.33174264 0.082566455 -0.35967502 0.29330257 0.090106204 0.21208513
-0.14273804 -0.2000667 -0.041006334 0.088023975 -0.2569196 0.111486085 0.102313496 0.016125087
0.34652832 0.23356134 -0.29671818 0.31742334 0.025137575 -0.093099274 0.15679789 0.0928594
0.2461865 -0.1803369 0.17622373 -0.31007624 0.27202493 0.28416818 -0.17453067 -0.13946411
0.22670238 0.21026054 0.097747914 0.30840114 0.22430393 0.33828112 0.04447314 -0.23771441
-0.15206623 0.15154247 0.35535032 -0.31387734 -0.265431 0.012617163 -0.1720019 0.03959056
0.16253327 -0.34649634 -0.17354767 -0.18146603 0.22476907 -0.3222586 -0.19456914 0.00487586
-0.11898359 -0.02143548 0.30205652 -0.10768679 -0.08350851 0.2633809 -0.18904367 -0.16838571
0.34145406 -0.24004996 0.106558666 -0.14332333 -0.12643994 0.24077997 -0.18185908 -0.09124148
0.3114456 -0.21902558 0.2313201 0.14804523 0.17630753 -0.17812875 0.17444438 -0.18081564
-0.29059353 0.12451279 0.17354462 -0.13836631 -0.1523721 0.30618638 0.27996093 0.0922689
-0.14224859 0.13306749 -0.15827803 0.288714 0.20895064 -0.17490901 0.2814509 -0.026280914
-0.14795135 0.1309782 0.12619801 -0.19878846 -0.37746754 -0.28369328 -0.18529505 -0.048586328
0.275927 -0.042379763 0.07474336 -0.23823278 -0.29662248 -0.0028048712 -0.27764827 0.3234021
0.19434738 -0.22491297 -0.36357945 0.09102243 -0.24154772 0.18428877 0.27965572 -0.314407
0.1861044 0.21070462 0.030727884 -0.15665977 0.043804724 0.29839957 -0.06941299 0.18285401
-0.2957067 0.035129733 0.23583849 0.1389262 0.037717443 -0.2301431 0.14159022 0.3508113
-0.27364343 0.08379519 0.2983905 0.11880067 0.3670989 -0.15330541 -0.059748087 -0.103418276
-0.06027498 -0.2998729 -0.0320455 -0.03511039 0.07614693 0.036628667 -0.21405046 -0.2659153
0.29867518 0.22823666 0.16719452 0.13443284 -0.36375138 0.24643588 0.34691858 0.38424745
0.09627226 0.18438493 -0.17773114 -0.29413337 -0.21925089 0.22146708 0.360556 0.26878196
0.37973168 0.062140036 -0.18560684 0.26729178 0.052787907 0.02521391 0.28472325 -0.22037524
-0.23711872 0.23944856 0.09486604 -0.19719164 0.24056388 0.26296023 0.004381501 0.1561287
00000000: e4dc 693d 8486 86be fa6d 46be 00d1 013a
00000010: 3d1a 253e 80c8 d33c a99b f93d 299b a6be
00000020: 43e2 86be 2aa9 ed3c 2cda a9be 9a18 a93d
00000030: 5327 b8be c12b 963e 9a89 b83d d82c 593e
00000040: ec29 12be 49de 4cbe 42f6 27bd ea45 b43d
00000050: f78a 83be d152 e43d bd89 d13d c218 843c
00000060: 296c b13e b42a 6f3e 72eb 97be 5085 a23e
00000070: 51ed cd3c d5aa bebd a08f 203e 122d be3d
00000080: 5018 7c3e 3caa 38be fe73 343e 50c2 9ebe
00000090: da46 8b3e 7e7e 913e 2bb8 32be aecf 0ebe
000000a0: ab24 683e 8a4e 573e 0f30 c83d c1e6 9d3e
000000b0: eeaf 653e 2f33 ad3e 7829 363d 686b 73be
000000c0: 40b7 1bbe f32d 1b3e 7af0 b53e 88b4 a0be
000000d0: 92e6 87be 38b8 4e3c 4421 30be b629 223d
000000e0: 1f6f 263e f867 b1be 7bb6 31be 3bd2 39be
000000f0: dd29 663e 14ff a4be 223d 47be aec5 9f3b
00000100: abad f3bd 7699 afbc 27a7 9a3e e48a dcbd
00000110: 8206 abbd dcd9 863e aa94 41be 4e6d 2cbe
00000120: 11d3 ae3e a8cf 75be 6e3b da3d 5ac3 12be
00000130: 7979 01be 068f 763e 4439 3abe d0dc babd
00000140: cc75 9f3e 3e48 60be 2ddf 6c3e 2b99 173e
00000150: f689 343e 6267 36be 8ca1 323e bc27 39be
00000160: adc8 94be 9000 ff3d aeb5 313e e6af 0dbe
00000170: 6f07 1cbe 76c4 9c3e 0a57 8f3e 7af7 bc3d
00000180: 9da9 11be d842 083e a313 22be 52d2 933e
00000190: 28f7 553e 591b 33be 551a 903e 124b d7bc
000001a0: 8f80 17be 261f 063e 0d3a 013e 348f 4bbe
000001b0: 6d43 c1be 3f40 91be fcbd 3dbe 7502 47bd
000001c0: 4e46 8d3e 6796 2dbd 0c13 993d 4bf3 73be
000001d0: e7de 97be eed1 37bb ea27 8ebe f694 a53e
000001e0: 0003 473e 964f 66be 1627 babe f869 ba3d
000001f0: 4958 77be 32b6 3c3e 092f 8f3e f4f9 a0be
00000200: 2792 3e3e f4c2 573e 0bb9 fb3c 6b6b 20be
00000210: 956c 333d d4c7 983e 6628 8ebd 153e 3b3e
00000220: de66 97be 32e4 0f3d a57f 713e ab42 0e3e
00000230: 9b7d 1a3d a2aa 6bbe 07fd 103e 8a9d b33e
00000240: fe1a 8cbe d09c ab3d a4c6 983e c44d f33d
00000250: 63f4 bb3e 18fc 1cbe 69ba 74bd f6cc d3bd
00000260: e6e2 76bd f188 99be 2442 03bd eacf 0fbd
00000270: ecf2 9b3d f107 163d 0b30 5bbe 0d26 88be
00000280: f4eb 983e dfb6 693e 0a35 2b3e c3a8 093e
00000290: 9f3d babe b059 7c3e 509f b13e 15bc c43e
000002a0: 642a c53d 67cf 3c3e 27ff 35be a698 96be
000002b0: 4e83 60be 44c8 623e cc9a b83e ca9d 893e
000002c0: 316c c23e 8d86 7e3d b80f 3ebe 78da 883e
000002d0: 2238 583d 678d ce3c 3fc7 913e 0caa 61be
000002e0: 40cf 72be 0132 753e 2049 c23d 9bec 49be
000002f0: 6156 763e b9a2 863e b292 8f3b 34e0 1f3e
