mutation/target_models/pubmed_graphsage.pt (torch, 66583 bytes, 6 tensors)

sage1.lin_l.weight f4 [16, 500]
-0.02031886 -0.009103864 -0.039690595 -0.016769629 -0.01520946 -0.028130537 -0.048129205 -0.030065918
-0.023624228 -0.016644463 0.00822039 -0.014057277 -0.015684836 -0.06045502 -0.015607244 -0.008556032
-0.0031275216 -0.026933981 -0.018119846 -0.008004233 -0.005836812 -0.033113174 -0.02039732 -0.029932246
-0.016212674 -0.025292119 -0.016433908 -0.01651846 0.014088822 -0.021618426 0.0075390385 -0.010305541
-0.02403989 -0.020257805 -0.00370384 -0.010027126 -0.016104558 -0.025725307 -0.017875334 0.008204715
-0.00022546877 -0.014326272 -0.01816339 -0.031184984 -0.016916662 -0.0067622196 -0.019949526 -0.028722143
-0.015392867 -0.038017552 -0.0023113384 -0.017355131 -0.0072133746 -0.04894466 0.00526816 -0.0404118
-0.013716868 -0.021735173 0.012711017 -0.014237699 0.009401988 -0.020088466 -0.01242326 -0.00854279
-0.024293616 -0.01134623 -0.00421847 -0.040310748 -0.01476772 0.0152102625 -0.052292515 -0.028711852
-0.028740864 0.013530828 -0.034422193 -0.016504806 -0.016171163 -0.00884982 0.0007189382 0.014372686
-0.05053771 -0.016167138 -0.016096503 -0.017129121 -0.02273581 0.011274409 -0.01477075 0.008586236
-0.007394324 -0.0632907 -0.047982465 -0.040163547 0.008704605 0.0038226878 -0.015023664 -0.037275866
-0.0033010188 -0.02030323 -0.02752325 0.004167961 -0.012731233 0.0035273049 -0.01394356 -0.015755584
-0.018774018 -0.020667972 -0.028545449 0.012488489 -0.028895304 -0.016984403 0.014792922 -0.02679806
-0.030957013 -0.014656331 -0.022406336 -0.014257012 -0.017315688 -0.016696543 -0.0028035035 -0.01078072
-0.0019793082 -0.026379101 -0.023750901 0.0039144056 -0.017046165 0.00027922634 -0.010312081 -0.009076624
-0.017080542 -0.0052690245 -0.0062905187 -0.03423133 -0.014976758 -0.011557241 -0.01666965 -0.0005417436
-0.01632751 0.003949248 -0.017890396 -0.042233523 -0.017128086 -0.030131584 -0.016465675 -0.017375011
0.005809649 -0.012462315 -0.025560526 -0.010211766 0.0014654291 -0.023656031 -0.015183135 -0.014785638
-0.016676323 -0.016494935 -0.017300753 -0.019660585 -0.012817573 0.007823373 -0.02150333 -0.022925885
0.00038776174 -0.0054005934 -0.012839234 -0.011491061 0.0070776767 -0.016799042 -0.016941259 -0.0075148544
-0.015395103 -0.016421108 -0.016489942 -0.0065179477 -0.017333975 -0.018259186 -0.017197622 -0.0006197011
0.0071781976 -0.0027393848 -0.012571522 -0.011774386 -0.02488052 -0.012633154 -0.012066414 0.010735506
0.021073263 -0.022537103 -0.018009696 0.011521709 0.0006446121 -0.002155415 -0.00046788994 -0.020327006
-0.014613761 -0.026920531 0.010301182 -0.02011578 -0.006063553 -0.008372908 -0.0084319115 -0.016778396
-0.0167965 -0.036816366 -0.030954003 -0.01607693 -0.027780095 -0.035518207 -0.004073562 -0.037660617
-0.005510712 -0.016168606 -0.0067318664 -0.0028659154 0.025081336 -0.007053956 -0.013319403 -0.0108677
-0.021354806 0.0021140566 -0.002490945 -0.01718842 -0.017501906 0.0017240006 -0.01844166 0.0011260591
-0.0047531063 0.0034247767 -0.014564242 -0.023455685 -0.0024171155 -0.015303045 -0.024668125 -0.018299114
-0.042273354 -0.032668 -0.029299956 0.021313928 -0.016383287 -0.011590425 -0.03864581 0.011836778
-0.038167585 -0.0035386705 -0.0031129566 -0.0038280915 -0.017641569 -0.008047363 -0.010550757 -0.012936611
-0.007203911 -0.0056772083 -0.018451026 -0.03036264 -0.00031330343 0.009932641 -0.025679318 0.018514931
00000000: bd73 a6bc 6028 15bc 9b92 22bd 7660 89bc
00000010: 1931 79bc 0372 e6bc 2123 45bd cd4c f6bc
00000020: 9987 c1bc f859 88bc d1ae 063c 7e50 66bc
00000030: 7c7d 80bc af9f 77bd 87b5 7fbc 992e 0cbc
00000040: 1bf7 4cbb a7a4 dcbc 1270 94bc 3024 03bc
00000050: ba42 bfbb aea1 07bd 4818 a7bc 7834 f5bc
00000060: 71d0 84bc 6b31 cfbc 67a0 86bc b951 87bc
00000070: cdd4 663c 2019 b1bc 0a0a f73b 92d8 28bc
00000080: 4eef c4bc b2f3 a5bc 20bc 72bb d148 24bc
00000090: b5ed 83bc e1bd d2bc 4b6f 92bc 126d 063c
000000a0: d06b 6cb9 bdb8 6abc 64cb 94bc a777 ffbc
000000b0: d094 8abc 9c95 ddbb 306d a3bc b34a ebbc
000000c0: 5d32 7cbc 4bb8 1bbd d379 17bb 592c 8ebc
000000d0: 2c5e ecbb 327a 48bd 87a0 ac3b d886 25bd
000000e0: b7bc 60bc f60d b2bc df41 503c 3d45 69bc
000000f0: cc0a 1a3c 9190 a4bc ee8a 4bbc 0ff7 0bbc
00000100: 6803 c7bc 8ae5 39bc 173b 8abb e21c 25bd
00000110: 4ff4 71bc 7734 793c ad30 56bd 1e35 ebbc
00000120: f671 ebbc 68b0 5d3c 49fe 0cbd 1635 87bc
00000130: 6379 84bc d6fe 10bc 2077 3c3a 6a7b 6b3c
00000140: a100 4fbd f270 84bc d0dc 83bc 5f52 8cbc
00000150: 7340 babc 4cb8 383c 0401 72bc 49ad 0c3c
00000160: 164c f2bb 8e9e 81bd 4389 44bd 8882 24bd
00000170: c29d 0e3c 0f86 7a3b d025 76bc 94ae 18bd
00000180: e855 58bb f652 a6bc 7078 e1bc 6493 883b
00000190: a996 50bc 5b2a 673b 8873 64bc db11 81bc
000001a0: f8cb 99bc e14f a9bc 25d8 e9bc 859c 4c3c
000001b0: d8b5 ecbc e022 8bbc 035e 723c 9b87 dbbc
000001c0: 9099 fdbc 1c21 70bc 7e8d b7bc 3e96 69bc
000001d0: a1d9 8dbc 30c7 88bc fcba 37bb 9ea1 30bc
000001e0: 48b7 01bb fc18 d8bc 4091 c2bc 6a44 803b
000001f0: 66a4 8bbc 2065 9239 01f4 28bc 1fb6 14bc
00000200: 7eec 8bbc c8a7 acbb b220 cebb 2736 0cbd
00000210: 1361 75bc 955a 3dbc ca8e 88bc cc03 0eba
00000220: 45c1 85bc b268 813b e18e 92bc 0ffd 2cbd
00000230: 3350 8cbc 83d6 f6bc 06e3 86bc 0a56 8ebc
00000240: de5e be3b bd2e 4cbc 4f64 d1bc 404f 27bc
00000250: a413 c03a 4bca c1bc afc2 78bc 763f 72bc
00000260: c99c 88bc 6320 87bc 4fba 8dbc 3c0f a1bc
00000270: cc00 52bc 9b2d 003c c027 b0bc 11cf bbbc
00000280: 804c cb39 76f7 b0bb a75b 52bc 0145 3cbc
00000290: dbeb e73b 259e 89bc 65c8 8abc 2b3f f6bb
000002a0: be3b 7cbc 8f85 86bc ea15 87bc 8294 d5bb
000002b0: fbff 8dbc 4a94 95bc 07e2 8cbc 7073 22ba
000002c0: 1637 eb3b 4087 33bb c9f8 4dbc 5be9 40bc
000002d0: 3bd2 cbbc 4afb 4ebc 35b2 45bc fae3 2f3c
000002e0: d6a1 ac3c bb9f b8bc 1289 93bc 8dc5 3c3c
000002f0: 30fb 283a dd41 0dbb 204f f5b9 d284 a6bc
00000300: 8e6e 6fbc 7288 dcbc 4ac6 283c d9c9 a4bc
00000310: c5b0 c6bb 862e 09bc 0026 0abc d972 89bc
00000320: d098 89bc c2cc 16bd 4093 fdbc c4b3 83bc
00000330: 1593 e3bc 8a7b 11bd 847b 85bb 0542 1abd
00000340: 3493 b4bb 0674 84bc fd96 dcbb 15d2 3bbb
00000350: 6077 cd3c df24 e7bb a039 5abc 700e 32bc
00000360: 46f0 aebc fc8b 0a3b 1f3f 23bb bbce 8cbc
00000370: 2860 8fbc dcf7 e13a f712 97bc 4698 933a
00000380: f2bf 9bbb 3872 603b dc9e 6ebc 2326 c0bc
00000390: 7868 1ebb 9fb9 7abc cf14 cabc 06e8 95bc
000003a0: d326 2dbd e1ce 05bd 7606 f0bc 8c9a ae3c
000003b0: 3e36 86bc c4e5 3dbc 124b 1ebd 0cef 413c
000003c0: 9d55 1cbd 0ae9 67bb bf02 4cbb b8e0 7abb
000003d0: 0d85 90bc 16d9 03bc 15dd 2cbc 14f4 53bc
000003e0: c90e ecbb e007 babb 9b26 97bc 12bb f8bc
000003f0: e042 a4b9 84bc 223c 6f5d d2bc a0ac 973c

sage1.lin_l.bias f4 [16]
-0.05581984 0.060017794 0.12937884 0.10143107 0.07331343 0.050638605 0.030588808 0.10822357
0.060640436 -0.022198774 0.05389003 0.07514639 -0.0065447786 0.062385716 0.13603298 0.040168352
00000000: 58a3 64bd 38d5 753d e37b 043e 18bb cf3d
00000010: 5a25 963d 6d6a 4f3d 6195 fa3c 52a4 dd3d
00000020: 1b62 783d 34da b5bc cbbb 5c3d 5ae6 993d
00000030: 9575 d6bb 2a88 7f3d 3b4c 0b3e 9287 243d

sage1.lin_r.weight f4 [16, 500]
0.016243948 0.005395266 -0.031964354 -0.0067432066 -0.028148286 -0.020478593 -0.01905584 -0.013373567
0.0006911652 -0.025585009 -0.0024703026 -0.020010853 -0.0150301475 -0.046006706 -0.02427992 -0.007286978
-0.007810413 -0.028210817 -0.016240716 0.005694556 -0.011116767 -0.030220713 -0.019384284 0.0037323507
-0.0009175129 -0.01947061 0.008971962 -0.018908618 0.005815426 -0.031631775 -0.006429702 0.0045022694
-0.025020037 -0.034420423 0.00609146 -0.0268444 -0.010307051 -0.01729794 -0.02177449 0.0069015664
-0.006376898 -0.017119575 -0.016820233 -0.02188333 -0.005179739 -0.0139048025 -0.016350588 -0.017784435
-0.04292684 -0.019299254 -0.016185215 -0.019254208 0.007326723 -0.026680345 -0.01680555 -0.034616295
0.002780914 -0.018405186 0.015116469 -0.022219352 -0.017178543 -0.025111051 -0.0075476305 0.011214007
-0.023333628 -0.010266863 -0.0024946588 -0.02469622 -0.013723867 0.012510065 -0.017724292 -0.018316885
-0.018389834 -0.015792811 -0.013278184 -0.015882585 -0.022360839 -0.013807165 -0.023708127 -0.005042677
-0.027099602 -0.02054974 -0.015960317 -0.035301916 -0.022739712 0.01680125 -0.021137228 -0.011886486
-0.01615187 -0.038840186 -0.01239349 -0.02680621 0.01842139 0.0018221831 -0.045480512 -0.016224077
0.01107405 -0.018843701 -0.01918346 0.0052786404 -0.0394124 0.003845567 -0.0015454611 -0.015687749
-0.020966668 -0.022137376 -0.032701503 -0.011252413 -0.018264486 -0.017252015 0.0031570992 -0.011720467
-0.027892571 -0.016096953 -0.03110691 -0.03011563 -0.011822641 0.010978181 -0.0019548512 0.0050834594
0.0067318347 -0.022317132 -0.03637136 0.013224804 -0.016714407 0.009771313 0.017395446 -0.021049151
-0.0060516503 -0.016632505 -0.013103842 -0.037237767 -0.0013940621 0.0030082776 -0.015762266 0.00029354077
-0.013031158 0.008013328 -0.028536394 -0.045901835 0.0022847007 -0.027429545 -0.016658511 0.0012683554
0.0066651395 -0.003900996 -0.009379746 -0.019381227 -0.010623958 -0.024089992 0.003582661 0.0060803373
-0.015137949 -0.0066480786 -0.019646602 -0.018877318 0.0030359542 0.020223908 -0.018466659 -0.01671357
0.002013739 -0.005317943 -0.017520312 -0.0046487013 -0.012395271 -0.014260518 -0.05106038 0.0006310872
-0.015622217 -0.003752074 0.012976447 -0.012462288 -0.008316807 -0.022923412 -0.028791154 -0.0032254932
-0.015358383 -0.008948323 0.016114842 0.0034739499 -0.023634948 0.009714833 -0.014917838 0.008321164
-0.01668895 -0.01565434 -0.015457075 -0.01648952 -0.015832001 -0.018005345 -0.01934547 -0.025284141
-0.0067563206 -0.019543309 -0.0034978264 -0.019161396 -0.025467772 -0.018377787 0.0047727693 0.0008350271
-0.027435562 -0.042908434 -0.05872389 0.007275907 -0.046790175 -0.04022139 -0.010778835 -0.03980763
-0.0062022577 -0.020861873 -0.0051753735 0.0372134 0.018178191 -0.014386527 0.007173283 -0.006373761
-0.020916069 0.0056590983 -0.011966689 -0.026485883 -0.012993402 -0.0010421572 -0.015373792 -0.017210029
-0.0002285426 -0.0059090354 -0.018669942 -0.012217431 -0.00826247 0.009395768 -0.01613738 -0.027122786
-0.009351394 -0.03382119 -0.039834093 0.017043153 -0.016545856 -0.008157052 -0.030655785 -0.0004261972
-0.030279081 -0.018179853 -0.01151187 -0.008333128 0.014956378 0.0058386177 0.001774074 -0.043527316
0.01761834 0.0063077896 -0.0173861 -0.024895532 -0.008570605 0.02085608 -0.016010875 0.0075652525
00000000: 0712 853c c6ca b03b 0eed 02bd 1ef6 dcbb
00000010: 3c97 e6bc b9c2 a7bc fe1a 9cbc ce1c 5bbc
00000020: 502f 353a a797 d1bc cde4 21bb cded a3bc
00000030: 0241 76bc 8771 3cbd afe6 c6bc 9ac7 eebb
00000040: 7eee ffbb 5f1a e7bc 400b 85bc 6699 ba3b
00000050: 1a23 36bc 6e91 f7bc cacb 9ebc 749a 743b
00000060: 4085 70ba d480 9fbc 23ff 123c 3fe6 9abc
00000070: 548f be3b 5290 01bd 40b0 d2bb c687 933b
00000080: d2f6 ccbc 6efc 0cbd df9a c73b cae8 dbbc
00000090: e8de 28bc 69b4 8dbc 6a60 b2bc 8926 e23b
000000a0: 4cf5 d0bb 5a3e 8cbc 96ca 89bc ab44 b3bc
000000b0: cdba a9bb f8d0 63bc abf1 85bc aab0 91bc
000000c0: 0ed4 2fbd 7819 9ebc db96 84bc 00bb 9dbc
000000d0: 0215 f03b bd90 dabc cbab 89bc d1c9 0dbd
000000e0: ff3f 363b 79c6 96bc 11ab 773c 5c05 b6bc
000000f0: 04ba 8cbc b1b5 cdbc 1d52 f7bb f4ba 373c
00000100: 2a26 bfbc 5836 28bc 6e7d 23bb ba4f cabc
00000110: 12da 60bc 04f7 4c3c 8932 91bc 4b0d 96bc
00000120: 47a6 96bc ed5f 81bc be8c 59bc 321c 82bc
00000130: 142e b7bc 7337 62bc 8c37 c2bc 0a3d a5bb
00000140: fcff ddbc ee57 a8bc 36bf 82bc be98 10bd
00000150: a248 babc c6a2 893c fb27 adbc 89bf 42bc
00000160: ed50 84bc e316 1fbd 110e 4bbc b298 dbbc
00000170: 74e8 963c 52d6 ee3a c649 3abd 5be8 84bc
00000180: ef6f 353c 1b5e 9abc a226 9dbc 72f8 ac3b
00000190: e66e 21bd e805 7c3b 1291 caba 9883 80bc
000001a0: 4ac2 abbc 7159 b5bc 03f2 05bd 0a5c 38bc
000001b0: 679f 95bc 1954 8dbc 56e7 4e3b 3407 40bc
000001c0: f67e e4bc c2dd 83bc ebd3 febc 0eb5 f6bc
000001d0: c0b3 41bc d4dd 333c f61c 00bb 2693 a63b
000001e0: b996 dc3b 6bd2 b6bc 23fa 14bd d9ac 583c
000001f0: a7ec 88bc db17 203c e580 8e3c 456f acbc
00000200: ec4c c6bb e440 88bc 7fb1 56bc a186 18bd
00000210: f6b8 b6ba 8626 453b de1f 81bc 60e6 9939
00000220: a380 55bc 554a 033c 28c5 e9bc 9003 3cbd
00000230: ebba 153b edb3 e0bc 6e77 88bc f23e a63a
00000240: 3e67 da3b daa7 7fbb 82ad 19bc 61c5 9ebc
00000250: 1c10 2ebc 6058 c5bc 14cb 6a3b 913d c73b
00000260: 2905 78bc 20d8 d9bb e9f1 a0bc 9ba4 9abc
00000270: dcf6 463b 9cac a53c 6447 97bc e6ea 88bc
00000280: eff8 033b 2442 aebb c286 8fbc 2254 98bb
00000290: 8915 4bbc f3a4 69bc b024 51bd 8c6f 253a
000002a0: 54f4 7fbc 5be5 75bb 2a9b 543c a02e 4cbc
000002b0: 3843 08bc e1c9 bbbc 6ddb ebbc cc62 53bb
000002c0: baa1 7bbc fd9b 12bc 4603 843c 35ab 633b
000002d0: 149e c1bc f72a 1f3c f369 74bc 7e55 083c
000002e0: 44b7 88bc 883d 80bc ac3f 7dbc 0815 87bc
000002f0: 1db2 81bc f27f 93bc 647a 9ebc b020 cfbc
00000300: 2064 ddbb 4a19 a0bc ca3b 65bb 5cf8 9cbc
00000310: caa1 d0bc 038d 96bc e464 9c3b b8e5 5a3a
00000320: 8bc0 e0bc c1c0 2fbd 7688 70bd bb6a ee3b
00000330: 0ea7 3fbd 2fbf 24bd b699 30bc 530d 23bd
00000340: 4f3c cbbb 85e6 aabc 2e96 a9bb 146d 183d
00000350: 6eea 943c 78b5 6bbc dc0d eb3b fcda d0bb
00000360: 2d58 abbc f56f b93b ee0f 44bc ecf8 d8bc
00000370: 47e2 54bc fe98 88ba 5be2 7bbc 0cfc 8cbc
00000380: f0a4 6fb9 95a0 c1bb b5f1 98bc 9f2b 48bc
00000390: 505f 07bc b5f0 193c 8a32 84bc 9b30 debc
000003a0: 9736 19bc 1788 0abd 1329 23bd 159e 8b3c
000003b0: 2d8b 87bc 28a5 05bc d721 fbbc 3873 dfb9
000003c0: d60b f8bc eaed 94bc 489c 3cbc ac87 08bc
000003d0: 990b 753c e051 bf3b 0c88 e83a b349 32bd
000003e0: 5654 903c 93b1 ce3b 4b6d 8ebc b7f1 cbbc
000003f0: b96b 0cbc 5fda aa3c 3d29 83bc f0e5 f73b

sage2.lin_l.weight f4 [3, 16]
-0.105835125 0.05814158 -0.3159634 -0.1273468 0.24808346 0.28690705 -0.15630919 -0.19498251
-0.26079607 -0.008050288 0.1583316 -0.12626255 -0.0064278822 0.32459962 -0.35483018 -0.017264988
0.09360213 -0.23552833 -0.079325214 -0.2597347 0.14229272 -0.32715312 -0.15155709 0.28219262
-0.09327971 -0.0012219253 -0.3438734 0.03276886 -0.018722957 -0.15878667 0.19324282 -0.008076475
-0.16609159 0.3078434 0.30583096 -0.012422846 -0.12563886 0.055402018 0.065948606 0.17841882
0.3487234 0.017228603 0.12681423 0.17549123 0.06950935 -0.015711842 0.1936149 0.2177364
00000000: 16c0 d8bd de25 6e3d f4c5 a1be 3367 02be
00000010: 9709 7e3e 7be5 923e 840f 20be 7fa9 47be
00000020: 1087 85be 5be5 03bc ae21 223e f84a 01be
00000030: fca0 d2bb ec31 a63e 4dac b5be 4e6f 8dbc
00000040: 79b2 bf3d 572e 71be 4275 a2bd f2fb 84be
00000050: 2fb5 113e 9d80 a7be c831 1bbe 8d7b 903e
00000060: 6f09 bfbd 0229 a0ba 2d10 b0be a438 063d
00000070: e360 99bc f998 22be 72e1 453e 3153 04bc
00000080: ea13 2abe a69d 9d3e e095 9c3e 3189 4bbc
00000090: 79a7 00be 3aed 623d 1010 873d 6cb3 363e
000000a0: e08b b23e 0023 8d3c 97db 013e f9b3 333e
000000b0: eb5a 8e3d 1fb6 80bc fc42 463e 4af6 5e3e

sage2.lin_l.bias f4 [3]
0.038947288 0.3995758 0.024542015
00000000: 3187 1f3d 3395 cc3e 560c c93c

sage2.lin_r.weight f4 [3, 16]
0.16700812 -0.15172167 -0.2383856 -0.17772134 0.2872876 -0.14374202 -0.054747775 -0.18143119
-0.19372384 0.03354177 0.14796586 -0.09334349 -0.02116112 0.33678362 0.043973453 -0.31033075
0.025922684 -0.36831182 0.31773564 -0.32114562 0.18067014 -0.0756532 -0.047660977 0.16288494
-0.347597 -0.003305166 -0.18213695 -0.04767968 -0.00027659675 0.049562942 0.2547238 -0.34508538
0.18464795 0.032002985 -0.10129862 0.34031668 -0.09482097 0.17158827 0.046890937 0.27600038
-0.090381205 0.00035208114 -0.09123373 0.325889 -0.06587552 -0.11670234 0.04559035 0.11347142
00000000: 2d04 2b3e ed5c 1bbe 5b1b 74be 95fc 35be
00000010: 5c17 933e 1c31 13be 343f 60bd 19c9 39be
00000020: 8b5f 46be 1863 093d 5d84 173e df2a bfbd
00000030: 165a adbc e76e ac3e 821d 343d ace3 9ebe
00000040: cf5b d43c 5e93 bcbe 3fae a23e 336d a4be
00000050: 9801 393e 11f0 9abd 2838 43bd 4fcb 263e
00000060: 3cf8 b1be 7c9b 58bb 1c82 3abe c54b 43bd
00000070: 3004 91b9 8302 4b3d 286b 823e 08af b0be
00000080: 5a14 3d3e 9015 033d a775 cfbd fd3d ae3e
00000090: 7f31 c2bd d6b4 2f3e b610 403d ec4f 8d3e
000000a0: c819 b9bd 8897 b839 c0d8 babd ecda a63e
000000b0: bfe9 86bd a301 efbd f2bc 3a3d b463 e83d
