mutation/target_models/pubmed_tagcn.pt (torch, 131911 bytes, 10 tensors)

conv1.bias f4 [16]
0	0x3cba08d9	0.022709297
1	0x3c95ef08	0.018302456
2	0x3d0989d2	0.0335787
3	0x3d6291e6	0.05531492
4	0x3d9712ea	0.073766544
5	0x3db1dc88	0.08684641
6	0xbd268808	-0.040657073
7	0x3d982a72	0.07429971
8	0xbd2b31a7	-0.0417954
9	0x3d80c159	0.06286878
10	0x3d40a2fb	0.04703043
11	0xbd2a0ee4	-0.041518107
12	0x3da0086b	0.078141056
13	0x3d862631	0.06550253
14	0x3c4eb58f	0.012616529
15	0x3d71986a	0.058983244

conv1.lins.0.weight f4 [16, 500]
0	0x3d86a127	0.06573706
1	0xbd02c0e0	-0.03192222
2	0x3d3f71f1	0.046739522
3	0x3d6327de	0.055457942
4	0x3b872113	0.004123816
5	0x3b0b5dc0	0.0021265596
6	0x3ce07aed	0.027402366
7	0xbca88b85	-0.02057434
8	0x3ddb2356	0.10700099
9	0x3d67bcb7	0.056576457
10	0xbbc5c3d0	-0.0060353056
11	0x3d85cb63	0.065329336
12	0x3d056385	0.032565612
13	0x3c8dcefd	0.017310614
14	0x3d2b94ef	0.04189008
15	0x3ddb0d30	0.10695875
16	0xbc9cfb54	-0.019162811
17	0x3c6fb8de	0.014631478
18	0x3d825fa2	0.06365897
19	0x3d1971e2	0.037462123
20	0x3ba94f8e	0.0051669544
21	0x3de5bde2	0.11217858
22	0xbbd15863	-0.0063887103
23	0x3d930a4f	0.071797006
24	0x3dbb9006	0.0915833
25	0x3d7e5402	0.062091835
26	0x3c9ad8ab	0.018902143
27	0x3d29811b	0.04138289
28	0x3d9e9733	0.07743683
29	0x3d44fb80	0.04809141
30	0x3ccc0a8d	0.024907375
31	0x3dbf0d06	0.09328656
32	0x3da7b593	0.081889294
33	0x3d6b5599	0.05745468
34	0x3dee652e	0.11640392
35	0x3d89d7c4	0.06730607
36	0x3bd15532	0.00638833
37	0x3d89c5f5	0.067272104
38	0x3d6f05cc	0.058355138
39	0x3d42e9c0	0.047586203
40	0x3d4fa824	0.05069746
41	0x3cc8071b	0.02441745
42	0x3c52e913	0.012872952
43	0x3d93bb2e	0.07213436
44	0xbd517d02	-0.051144607
45	0x3ccc05b2	0.02490506
46	0x3d05cdfc	0.032667145
47	0x3c9965f1	0.018725367
48	0x3c77b046	0.01511771
49	0xbd2afb3a	-0.041743495
50	0x3dedf16a	0.11618312
51	0xbcbb21ff	-0.022843359
52	0x3d4b9628	0.049703747
53	0x3da95cdc	0.08269665
54	0x3dc82000	0.097717285
55	0xbc32f98f	-0.010923757
56	0xbbc135c2	-0.005896301
57	0xbcaa7d4f	-0.020811705
58	0x3a001668	0.00048861513
59	0x3c30dfc8	0.010795541
60	0x3de9a71e	0.11408828
61	0x3d00b1d8	0.031419605
62	0x3da8b357	0.08237331
63	0x3dade608	0.084911406
64	0xbb816a3a	-0.003949431
65	0x3dc0b523	0.09409549
66	0x3d54e7db	0.051978927
67	0x3d3045eb	0.04303543
68	0xbc83992a	-0.016064245
69	0xbd3816b4	-0.044943526
70	0xbdac38b9	-0.084092565
71	0x3d9b2181	0.0757475
72	0x3cd8549a	0.026407529
73	0x3cac2bf3	0.02101705
74	0x3d9cd5ee	0.07657991
75	0x3c909b46	0.017652165
76	0x3d2c9e6b	0.042143267
77	0x3dd1823c	0.10229918
78	0x3d790505	0.060795803
79	0x3db6fc9a	0.08934899
80	0x3c8cb420	0.017175734
81	0x3c3c5793	0.011495489
82	0x3cd54d73	0.026037907
83	0x3d258355	0.04040845
84	0x3d1c7e18	0.03820619
85	0xbc5bd0d4	-0.013416488
86	0xbc946a04	-0.018116958
87	0xbd153e60	-0.03643644
88	0xbcd38cb0	-0.025823921
89	0xbd85d74f	-0.065352075
90	0xbd032127	-0.03201404
91	0xbd0c7e97	-0.034300413
92	0x3df5615f	0.11981463
93	0x3e02b348	0.12763703
94	0x3d5ba7c8	0.053626806
95	0x3d73e30c	0.0595427
96	0x3d79d60a	0.06099514
97	0x3c34c943	0.011034313
98	0x3d4fe293	0.050753187
99	0x3d7522c8	0.059847623
100	0xbc11b076	-0.008892169
101	0x3c70d97b	0.014700289
102	0x3ccbe474	0.024889208
103	0x3ce2b8ba	0.027675975
104	0x3cf6292f	0.030048935
105	0x3cae9c94	0.021314897
106	0x3d6065e5	0.054784674
107	0x3cb50c56	0.022100609
108	0xbd215f5c	-0.039397582
109	0x3d2c9d24	0.04214205
110	0x3d67f1a0	0.056626916
111	0xbd24dcd7	-0.04024967
112	0x3c97c024	0.018524237
113	0x3ca6ea13	0.020375287
114	0xbd0485bc	-0.0323541
115	0x3d0bf513	0.034169268
116	0x3d2aa0b7	0.041657176
117	0x3bf43547	0.00745264
118	0x3d2468fb	0.04013918
119	0x3d9a4f73	0.07534685
120	0xbc66f390	-0.014096156
121	0xbd3764e3	-0.044773947
122	0x3ceda7be	0.02901065
123	0x3c15ae36	0.009135773
124	0xbd1d1c25	-0.03835692
125	0xbd848108	-0.06469923
126	0xbd1587c1	-0.03650642
127	0xbd18b419	-0.03728113
128	0xbc47470c	-0.012162935
129	0xbd24ec4c	-0.040264413
130	0x3bff996a	0.007800271
131	0x3d058c4d	0.032604504
132	0xbcdefa1a	-0.027218867
133	0xbd4e3ef9	-0.050353024
134	0xbc81b298	-0.01583223
135	0x3bd1d697	0.006403755
136	0x3a0709dc	0.00051513105
137	0xbbe0373a	-0.006842521
138	0x3cc56014	0.024093665
139	0x3d0acb1d	0.03388511
140	0x3a909070	0.0011029374
141	0x3cbb2f44	0.022849686
142	0x3cc4e583	0.024035221
143	0xbd59e064	-0.05319251
144	0xbd8b4a83	-0.06801321
145	0xbd2c8634	-0.042120174
146	0x3ce64587	0.028109325
147	0x3cdc86e7	0.026919795
148	0xbcfbb661	-0.030726613
149	0x3cb41bf1	0.02198598
150	0x3d24454b	0.040105145
151	0x3c266d46	0.010157889
152	0xbcb70950	-0.022343308
153	0xbc2f9077	-0.010715595
154	0x3c573346	0.013134783
155	0x3cf719d2	0.03016368
156	0x3dde55df	0.10856222
157	0x3d55090a	0.052010573
158	0xbd13e18b	-0.036103766
159	0x3da8a6b7	0.08234923
160	0xbc3df842	-0.011594834
161	0x3c7ba5d3	0.01535936
162	0x3d181aae	0.03713482
163	0xbbeae73b	-0.007168678
164	0x3dd40550	0.10352576
165	0x3d2903cf	0.041263398
166	0x3d2f0f97	0.042739477
167	0x3dab2a41	0.08357669
168	0x3d79bc2a	0.060970463
169	0x3d28ef75	0.04124399
170	0x3da5d11f	0.08096527
171	0x3dc2bae0	0.095083
172	0x3dd2f4ad	0.103005745
173	0x3e0b78ac	0.13620251
174	0x3d019ef9	0.03164575
175	0x3d927d9e	0.07152866
176	0xbca928a1	-0.020649256
177	0x3da17121	0.07882906
178	0x3d961a7a	0.07329269
179	0x3d80dda2	0.06292273
180	0xbb91781a	-0.004439366
181	0x3cbbef82	0.022941355
182	0x3b48af2b	0.0030621986
183	0x3dc90292	0.098149434
184	0x3db579d6	0.08861129
185	0x3d9a4d63	0.075342916
186	0xbb895c3c	-0.0041919034
187	0x3d30937f	0.043109413
188	0x3ca5b8ca	0.020229716
189	0xbd435574	-0.047688916
190	0xbc70c851	-0.014696197
191	0x3d59a82a	0.05313889
192	0x3d4f4b42	0.05060888
193	0x3c1e2957	0.009653411
194	0x3d8c062c	0.06837115
195	0x3bbf3985	0.0058357143
196	0x3d80307d	0.062592484
197	0x3b1ae5e6	0.0023635565
198	0x3da4ea8c	0.08052549
199	0xbaee2e87	-0.0018171825
200	0x3dbd30d3	0.09237828
201	0x3b034f88	0.0020036418
202	0x3e0371fd	0.12836452
203	0xbd783ad0	-0.060602963
204	0x3d615d51	0.055020634
205	0xbd49068c	-0.04907851
206	0xbc8efe93	-0.017455375
207	0x3d05f051	0.032699887
208	0x3d5d6b39	0.054057334
209	0x3c9811a5	0.018563101
210	0x39fec1fa	0.0004859118
211	0x3d839044	0.06424001
212	0xbd5a3efd	-0.053282727
213	0xbd9849e4	-0.074359685
214	0x3bf0a0d7	0.0073433924
215	0xbd63a53a	-0.055577494
216	0xbb9b339e	-0.004736378
217	0xbd6780e0	-0.05651939
218	0xbd7958ea	-0.06087581
219	0xbcf973a5	-0.030450651
220	0x3c7cd5d7	0.015431843
221	0xbd5cb8e9	-0.05388728
222	0xbba1d986	-0.004939261
223	0x3c9bea5f	0.019032655
224	0xbb854265	-0.0040667527
225	0xbd488dd9	-0.0489634
226	0xbd0fd957	-0.03511938
227	0x3c60a397	0.013710878
228	0x3ddeaf9c	0.108733386
229	0xba0d9e0c	-0.0005402274
230	0xbbe2061f	-0.0068977023
231	0xbc0da359	-0.008644902
232	0xbd74588c	-0.059654757
233	0x3bc255d2	0.0059306407
234	0xbc95e5a8	-0.018297985
235	0xbc554964	-0.013017986
236	0x3dde4a75	0.10854045
237	0xbc92d0dd	-0.01792186
238	0x3c1e52a0	0.009663254
239	0xbd77f573	-0.060536813
240	0x3bc80c3e	0.006104975
241	0x3d54804c	0.051880166
242	0x3d111c5e	0.035427444
243	0xbd672e20	-0.056440473
244	0x3c105ac8	0.008810706
245	0xbd7285dc	-0.05920969
246	0xbced6de2	-0.02898306
247	0xbd33c586	-0.043889545
248	0x3dd0dda9	0.10198528
249	0xbbd43b7a	-0.0064768167
250	0x3c1d2488	0.009591229
251	0xbd8fee54	-0.07027879
252	0x3dacccde	0.08437513
253	0x3cc0e55f	0.023546873
254	0xbd0863ae	-0.033298187
255	0xbd740a98	-0.059580415

conv1.lins.1.weight f4 [16, 500]
0	0x3def5a9c	0.11687204
1	0x3c959612	0.018260036
2	0x3d07474b	0.033026975
3	0x3d068171	0.03283829
4	0x3d45604a	0.04818753
5	0xbcb11868	-0.021618083
6	0x3cbdd256	0.023171585
7	0x3a335110	0.00068403874
8	0x3e07290c	0.13199252
9	0x3d37eb44	0.0449021
10	0x3d292e08	0.041303664
11	0x3d4b196c	0.04958479
12	0x3cfddf10	0.030990154
13	0xbbb26dde	-0.005445226
14	0x3da67563	0.081278585
15	0x3d42c602	0.047552116
16	0x3ca8daf8	0.020612225
17	0x3cb30374	0.021852233
18	0x3d85899d	0.06520388
19	0x3d34b2ce	0.044115834
20	0x3ce75c99	0.028242396
21	0x3dd16f16	0.10226266
22	0x3d61a600	0.05508995
23	0x3e03c15e	0.12866732
24	0x3dd5fcc0	0.10448599
25	0x3dedd486	0.11612801
26	0x3bf2930a	0.0074027823
27	0x3cf7931c	0.030221514
28	0x3de71bf6	0.1128463
29	0x3d91b68e	0.07114898
30	0x3d90afb4	0.07064763
31	0x3e0db93f	0.13840197
32	0x3df6198f	0.12016594
33	0x3dc4edc8	0.09615666
34	0x3db4c78c	0.08827123
35	0x3da762d2	0.08173145
36	0x3d98bd83	0.074580215
37	0x3d8f88db	0.07008525
38	0x3dee8605	0.11646656
39	0x3da9328e	0.08261596
40	0x3dc48ad2	0.095967904
41	0x3d248cbc	0.040173277
42	0x3d826c16	0.06368272
43	0x3dc6afa9	0.09701473
44	0x3c5a5e31	0.013328121
45	0x3d84a901	0.064775474
46	0x3ca0152c	0.019541346
47	0x3d8f6f3f	0.070036404
48	0x3ccd53ba	0.025064338
49	0xbccf9210	-0.025338203
50	0x3d63e91c	0.055642232
51	0xbba3139f	-0.0049767043
52	0x3d60f220	0.05491841
53	0x3d2e4823	0.042549264
54	0x3dad362a	0.084575966
55	0x3d5a9e89	0.053373847
56	0x3bc468bf	0.005993932
57	0x3d2817f8	0.041038483
58	0x3ca7caa6	0.020482372
59	0x3d15069d	0.03638326
60	0x3dd18bde	0.10231756
61	0x3d6fd6eb	0.05855457
62	0x3dc0fb32	0.09422912
63	0x3dbaa852	0.09114136
64	0x3b93ac5b	0.0045066304
65	0x3daf710f	0.08566486
66	0x3dba809d	0.09106562
67	0x3d5427a8	0.05179563
68	0x3c897839	0.01678096
69	0xbbac48ce	-0.0052577024
70	0xbd84f166	-0.064913556
71	0x3d0be738	0.034156054
72	0x3d947c42	0.07250263
73	0x3af568c0	0.0018723235
74	0x3d85f0e3	0.06540086
75	0x3d127640	0.035757303
76	0x3db4d7dd	0.08830235
77	0x3db50bcc	0.08840141
78	0x3d7f2e0e	0.06229978
79	0x3db387d7	0.08766144
80	0xbc2a93a6	-0.010411179
81	0x3d6cfbf1	0.057857458
82	0x3d5f38f0	0.05449766
83	0xbae43484	-0.001741067
84	0x3cf1aeb7	0.029502256
85	0xbd5bb7b5	-0.053641994
86	0xbc26d13e	-0.010181723
87	0x3a3a5faa	0.0007109592
88	0xbba26959	-0.004956406
89	0xbd8048e2	-0.06263901
90	0xbd6d7da2	-0.05798114
91	0x3c1c0a04	0.009523872
92	0x3d7d6b8c	0.061870143
93	0x3dcd5912	0.100267544
94	0x3cb69768	0.022288993
95	0x3d65530d	0.055987407
96	0x3d5f2152	0.054475136
97	0x3d69c534	0.057072833
98	0x3d9aeb4c	0.075644106
99	0x3dde9d58	0.10869855
100	0x3c789aeb	0.015173654
101	0x3cb221ad	0.021744573
102	0x3bda69d0	0.006665446
103	0x3d0f3881	0.034965996
104	0x3c770ba2	0.015078457
105	0x3d393af8	0.045222253
106	0x3d6a3ef5	0.057188947
107	0x3d5abb2d	0.05340116
108	0xbc0123f0	-0.007882103
109	0x3c05ab64	0.0081585385
110	0x3d4edec4	0.050505415
111	0x392b6040	0.00016343687
112	0x3cfde4f7	0.030992968
113	0x3d7a10b6	0.061051093
114	0x3c624374	0.013810027
115	0xbc81a214	-0.015824355
116	0x3d0afed5	0.033934433
117	0x3a5e1a68	0.0008472563
118	0x3d5fa234	0.05459805
119	0x3d99df76	0.07513325
120	0xbc5b2c4e	-0.013377262
121	0xb9d761bc	-0.00041080813
122	0x3d208a74	0.03919454
123	0x3d469999	0.048486326
124	0x3b98999c	0.0046569835
125	0xbd2a111c	-0.041520223
126	0xbd0ed2d0	-0.034869015
127	0xbd02fbf0	-0.031978548
128	0xbcac6531	-0.021044346
129	0x3a1ebd90	0.00060554687
130	0xbb00889f	-0.0019612683
131	0xbc850317	-0.016236825
132	0xbd87afce	-0.06625329
133	0xbd513e16	-0.0510846
134	0xbd270ae4	-0.04078187
135	0x3cade9e7	0.021229697
136	0xbd14fa01	-0.036371235
137	0xbd5bfcb1	-0.053707782
138	0x3b889c01	0.0041689877
139	0xbba1de34	-0.0049398188
140	0x3d2d2d3d	0.04227947
141	0x3cce183e	0.025158044
142	0x3d4a929c	0.049456224
143	0xbd26e309	-0.04074386
144	0xbd51ee50	-0.051252663
145	0xbd3b459c	-0.04572068
146	0x3dd55945	0.104174174
147	0x3d5e1f1d	0.05422889
148	0xbcc3be79	-0.023894535
149	0x3cd2b99a	0.025723267
150	0x3c8b1d97	0.016981883
151	0x399c8060	0.00029850286
152	0xbc394bd3	-0.011309582
153	0xbc9aa4e5	-0.018877456
154	0x3cb05832	0.02152643
155	0x3d87fa6f	0.06639563
156	0x3dad2bd6	0.08455627
157	0x3dddd70b	0.10832032
158	0xbca050fc	-0.019569866
159	0x3db77f29	0.08959801
160	0x3d22d9c7	0.03975847
161	0xbca55674	-0.020182826
162	0x3d1168da	0.035500385
163	0xbb701150	-0.0036631413
164	0x3da61b24	0.081106454
165	0x3ca52fe4	0.020164438
166	0x3c60db3c	0.013724145
167	0x3de61941	0.112352856
168	0x3e0d6d6f	0.13811277
169	0x3d8ac562	0.06775929
170	0x3d633a7b	0.055475693
171	0x3dd80ba8	0.10549098
172	0x3dbd601b	0.09246846
173	0x3e0c8960	0.1372428
174	0xbbdfbc82	-0.006827892
175	0x3ce36656	0.027758759
176	0xbc0fe104	-0.008781675
177	0x3da54bc0	0.08071089
178	0x3d818fcc	0.06326255
179	0x3d809e79	0.06280226
180	0xbcd2c3b3	-0.025728082
181	0x3cd2a610	0.02571395
182	0x39fdaf28	0.00048386422
183	0x3d690a84	0.056894794
184	0x3dbb8b84	0.0915747
185	0x3dc2fb8c	0.09520635
186	0x3ce2a2cd	0.02766552
187	0x3c95068c	0.018191598
188	0x3d55a1da	0.052156307
189	0xbcaa1869	-0.020763593
190	0x3cb826c3	0.02247942
191	0x3cda8d9b	0.02667885
192	0x3dde0b00	0.10841942
193	0x3c958755	0.018253008
194	0x3e03dd36	0.12877354
195	0xba87ddf0	-0.0010365825
196	0x3ce6d0b2	0.028175686
197	0xbc7ae14a	-0.015312502
198	0x3d95d3bc	0.07315776
199	0x3c5e1e4c	0.013557028
200	0x3e05c568	0.13063586
201	0x3c246734	0.010034371
202	0x3ddf04b2	0.108895674
203	0xbd4c4256	-0.04986795
204	0x3de67ec1	0.11254645
205	0xbcf3f9e3	-0.029782241
206	0xbd550faa	-0.05201689
207	0x3ca37222	0.019951884
208	0x3d6eb1d6	0.058275066
209	0x3d490776	0.04907938
210	0x3c70e526	0.014703071
211	0x3d018edd	0.031630386
212	0xbd8684ed	-0.06568322
213	0xbd5fb45d	-0.054615367
214	0x3c4b45c4	0.01240677
215	0xbc78b3e8	-0.015179612
216	0xbbc5ca5c	-0.006036086
217	0xbd08c499	-0.033390615
218	0xbd0379b2	-0.03209848
219	0x3d19f8c0	0.037590742
220	0x3cce002c	0.025146566
221	0xbc264204	-0.010147575
222	0x3c98491e	0.018589552
223	0x3d420db9	0.04737637
224	0xbbd42fcc	-0.0064754244
225	0xbcfc7eb4	-0.030822136
226	0xbd82cd33	-0.06386795
227	0x3bf4b7f5	0.0074682184
228	0x3e060982	0.13089564
229	0xbc4adf28	-0.012382306
230	0x3c4b4d98	0.0124086365
231	0x3bcd1a1c	0.006259216
232	0xbcc5deb9	-0.024154054
233	0xbced9518	-0.029001758
234	0x3bffcc54	0.00780634
235	0xbd8cf4dc	-0.06882641
236	0x3df935c1	0.12168456
237	0xbb4723ce	-0.0030386331
238	0x3ac2f2e4	0.0014873412
239	0xbd7a03d6	-0.061038814
240	0x3bf6e46e	0.007534555
241	0x3d36e659	0.04465327
242	0x3d15a5f3	0.036535215
243	0xbd050b6a	-0.03248159
244	0x3bed9d6b	0.0072514317
245	0xbd027144	-0.0318463
246	0xbc4b6f1c	-0.012416627
247	0xbc8d4369	-0.017244058
248	0x3d8ab78d	0.06773291
249	0x3c3bab8a	0.011454472
250	0x3bfd3b84	0.007728042
251	0xbd17264b	-0.036901753
252	0x3dbbaa02	0.09163286
253	0xbbec31cc	-0.0072080847
254	0xbbc8cb76	-0.00612777
255	0xbbe17166	-0.006879973

conv1.lins.2.weight f4 [16, 500]
0	0x3df3546b	0.11881336
1	0xbc58036f	-0.013184412
2	0xbcaecb59	-0.021337198
3	0x3ba9c188	0.0051805414
4	0x3cef01d9	0.029175686
5	0x3bbb9dc4	0.0057255942
6	0xbc1ef982	-0.009703042
7	0x3c05be02	0.008162977
8	0x3dbf592f	0.09343182
9	0x3d53c299	0.051699255
10	0x3d420c29	0.047374878
11	0x3d5041e0	0.050844073
12	0x3d1af0e6	0.037827395
13	0x3c477da7	0.012175954
14	0x3d2ed379	0.042682145
15	0x3db29efa	0.087217286
16	0xbcb1705e	-0.021660026
17	0xbc823a4d	-0.01589694
18	0x3d3297d2	0.04360182
19	0x3d36aac9	0.044596467
20	0xbc6a0112	-0.014282482
21	0x3dbe2411	0.09284223
22	0x3d60f92a	0.05492512
23	0x3de6a8e1	0.1126268
24	0x3dc7e95f	0.09761309
25	0x3e0bb0e4	0.13641697
26	0x3d6c146a	0.057636656
27	0xbbbbf51d	-0.005736007
28	0x3d9dede7	0.07711392
29	0x3c0b1d86	0.008490926
30	0x3d0afed1	0.033934418
31	0x3e0d1b33	0.13779907
32	0x3de8a21b	0.11359044
33	0x3dfee0d8	0.12445229
34	0x3dd4f645	0.10398535
35	0x3d85a6b1	0.065259345
36	0x3d0c087c	0.03418778
37	0x3d371ffd	0.04470824
38	0x3daaa353	0.08331933
39	0x3e00c300	0.12574387
40	0x3dbb0217	0.09131258
41	0x3d20a224	0.03921713
42	0x3d743c73	0.05962796
43	0x3ca202d6	0.019776743
44	0xbd1d5dd8	-0.038419574
45	0x3d624a62	0.05524672
46	0xbc578a34	-0.013155509
47	0x3c01f2e3	0.007931444
48	0x3d43c0d0	0.047791302
49	0xbc202b77	-0.009775988
50	0x3da3a3e3	0.07990243
51	0xbcd4e99b	-0.025990298
52	0x3da09f86	0.07842927
53	0x3d41b6c6	0.047293447
54	0x3dc1ff76	0.094725534
55	0x3d261c82	0.04055453
56	0x3cd81b01	0.026380064
57	0xbbbbe0da	-0.0057335915
58	0x3cb3ca75	0.021947125
59	0x3ce22042	0.027603272
60	0x3dd815c1	0.10551024
61	0x3bb99e1d	0.0056646005
62	0x3c8e607c	0.017379992
63	0x3dabfcc2	0.08397819
64	0x3cac6ce6	0.02104802
65	0x3d722f1e	0.059126966
66	0x3d8b60e6	0.06805591
67	0x3d623a90	0.05523163
68	0x3b1a162c	0.002351175
69	0x3cafbb38	0.021451578
70	0xbc8ccdb7	-0.017187936
71	0x3d2bf42e	0.041980915
72	0xbb3b06dc	-0.0028538024
73	0x3cf4b8bb	0.029873243
74	0x3cbb6932	0.02287731
75	0x3d3b858a	0.04578165
76	0x3c1469e1	0.009058447
77	0x3db6065b	0.08887931
78	0x3c91cea2	0.017798726
79	0x3da882cd	0.08228073
80	0xbbfff558	-0.0078112297
81	0x3b468f72	0.0030297902
82	0x3d719ee7	0.05898943
83	0xbc4bb7fc	-0.012434002
84	0x3ca049a4	0.019566365
85	0xbcc8fa4a	-0.02453341
86	0xbcd90591	-0.026491912
87	0x3bc996df	0.0061520184
88	0xbc51f2b3	-0.012814212
89	0xbd33f3e2	-0.043933757
90	0xbcd93c16	-0.026517909
91	0xbc30ac12	-0.010783212
92	0x3de0e9ca	0.10982092
93	0x3dad85c3	0.08472779
94	0x3d20acd8	0.039227337
95	0x3ca75fbb	0.02043139
96	0x3d7a8ef6	0.061171494
97	0x3cacc26c	0.021088801
98	0x3d9e7d84	0.07738784
99	0x3dacf658	0.08445424
100	0x3c89b336	0.016809087
101	0x3be96778	0.00712293
102	0x3d1ed066	0.038772963
103	0x3d597aa1	0.053095464
104	0x3d009724	0.03139414
105	0x3d0a600e	0.03378301
106	0xbbc23e6c	-0.0059278514
107	0x3ca3afa8	0.01998122
108	0x3cfd1c92	0.030897412
109	0x3938bf00	0.0001761876
110	0x3dc87e63	0.09789731
111	0xbd005dde	-0.03133952
112	0x3cc64e0a	0.024207134
113	0x3ce88916	0.02838568
114	0x3c94fdd9	0.01818745
115	0xbc03f118	-0.008053087
116	0x3c2f8422	0.010712655
117	0x3bb117b2	0.005404436
118	0x3d90c462	0.07068707
119	0x3da6860c	0.08131036
120	0xbcf9e92c	-0.030506693
121	0x3c611013	0.013736743
122	0xbbd8aa3e	-0.0066120913
123	0x3c443164	0.011974666
124	0xbce74b4a	-0.028234143
125	0xbd2dd536	-0.042439662
126	0xbcfab134	-0.030602075
127	0xbc5cb913	-0.0134718595
128	0x3bed77ec	0.007246962
129	0x3c4a68c5	0.012354081
130	0x3c16c4cb	0.009202193
131	0xbc76e3ec	-0.015068989
132	0xbbf0c3f8	-0.00734758
133	0xbca0e6f8	-0.019641384
134	0xbccb55de	-0.024821218
135	0x3cc89f10	0.02448991
136	0xbcb0cf80	-0.021583319
137	0xbc3174b2	-0.010831045
138	0x3cf0100a	0.029304523
139	0x3ce93f0e	0.02847245
140	0x3d1917c5	0.037376184
141	0xbaed63a4	-0.001811136
142	0x3c92dfba	0.017928947
143	0xbcd72b92	-0.026265893
144	0xbca6787c	-0.020321123
145	0xbc312be1	-0.010813684
146	0x3c9e6d9a	0.019339371
147	0x3ce31214	0.027718581
148	0xbcdbc6b5	-0.02682815
149	0x3c94f429	0.01818283
150	0x3ce87fb3	0.028381204
151	0x3c17d476	0.009266963
152	0xbd276b04	-0.040873542
153	0xbd0e5aed	-0.034754682
154	0x3c3115a4	0.010808382
155	0x3d5e552b	0.05428044
156	0x3d5a1efe	0.053252213
157	0x3de315f9	0.11088175
158	0xbc9ebd30	-0.019377321
159	0x3dcd9845	0.10038809
160	0x3d13da23	0.036096703
161	0xbb9362f0	-0.0044978783
162	0x3c83a0bc	0.016067855
163	0xbbcc59fc	-0.006236313
164	0x3e08eb1b	0.13370936
165	0xbc328484	-0.010895852
166	0x3aaf075c	0.0013353634
167	0x3d8904ee	0.066903934
168	0x3e00d42b	0.12580936
169	0x3d894e26	0.06704359
170	0x3d958b8c	0.07302007
171	0x3dd9cae7	0.10634404
172	0x3db007c4	0.08595231
173	0x3db56def	0.08858859
174	0xbc8cd0ca	-0.017189402
175	0x3c808850	0.015689999
176	0x3b631466	0.003464961
177	0x3d87e207	0.06634908
178	0x3d7ef6ce	0.06224709
179	0x3d8ef33b	0.06979986
180	0xbc9e4541	-0.019320132
181	0x3d83d6bb	0.06437441
182	0xbd074b7b	-0.03303097
183	0x3d9ae315	0.07562844
184	0x3dbac800	0.09120178
185	0x3db4a1b9	0.08819909
186	0x3c126dbf	0.008937298
187	0x3cd55060	0.026039302
188	0x3d384e3f	0.044996496
189	0xbbb0e64d	-0.0053985477
190	0x3c5251fe	0.012836931
191	0x3caeb669	0.021327214
192	0x3dc38a27	0.09547835
193	0x3d8e2b4e	0.069418535
194	0x3dfc8b2a	0.12331231
195	0xbc9b1293	-0.018929755
196	0x3c8862e6	0.016648721
197	0xbc35f435	-0.011105587
198	0x3da2c726	0.07948141
199	0xbc1ebc65	-0.009688471
200	0x3daba94a	0.08381899
201	0xbc88d8a5	-0.016704867
202	0x3d915007	0.07095342
203	0xbd7dfa96	-0.062006555
204	0x3dfb1fe0	0.12261939
205	0xbc0a6e16	-0.008449098
206	0xbcc28d29	-0.023748951
207	0x3c8d03dd	0.017213756
208	0x3c253154	0.0100825615
209	0x3d4a4d24	0.049389973
210	0xbab17764	-0.001353961
211	0x3d6a61ff	0.057222363
212	0xbd6af935	-0.05736657
213	0xbce319f1	-0.02772233
214	0x3d31dfb0	0.043426216
215	0x3bb35110	0.00547231
216	0xbd1311f2	-0.035905786
217	0x3a5d8948	0.00084509375
218	0xbd00b7b0	-0.031425178
219	0xbcc78247	-0.024354113
220	0x3c4c676b	0.012475829
221	0xbcf3c66e	-0.029757705
222	0x3cf3e6d6	0.029773157
223	0x3d2ec25e	0.04266583
224	0xbc11f4e5	-0.008908485
225	0x3b8f9cdc	0.0043827128
226	0xbd86864c	-0.06568584
227	0x3c919cac	0.017774902
228	0x3dad73c3	0.084693454
229	0x3b2980fc	0.0025864234
230	0x3c0ac708	0.008470304
231	0xbce41a9d	-0.027844721
232	0xbd1ea2b7	-0.038729396
233	0xbc930ddc	-0.017950945
234	0x3c5f1cd4	0.013617713
235	0xbd5ddc53	-0.054165196
236	0x3d933852	0.071884766
237	0xb918ec10	-0.0001458379
238	0x3d0c297d	0.034219254
239	0xbba0498f	-0.0048915814
240	0x3cbe062c	0.023196302
241	0x3cc7c94e	0.024387982
242	0x3d2e7c14	0.0425988
243	0xbb51fee2	-0.003204279
244	0xbb892a5e	-0.0041859588
245	0xbd378d9b	-0.04481278
246	0xbd844692	-0.06458773
247	0xbd8a013e	-0.06738518
248	0x3dbfd14d	0.09366093
249	0xbc803a3c	-0.015652768
250	0x3c0d05e4	0.0086073615
251	0xbd934e20	-0.071926355
252	0x3daf752b	0.0856727
253	0xbc89f2c3	-0.01683939
254	0x3c9638a9	0.018337565
255	0xbcb8be3e	-0.022551652

conv1.lins.3.weight f4 [16, 500]
0	0x3dcabbde	0.09899114
1	0x3aacd1d6	0.0013185095
2	0x3d48c23e	0.04901337
3	0x3d6e19ce	0.058130078
4	0x3cc9b13a	0.024620641
5	0x3c4c9f2c	0.012489121
6	0x3cc9daa2	0.024640385
7	0x3d36de53	0.04464562
8	0x3da9d8bc	0.08293292
9	0x3d43887a	0.047737576
10	0x3d60a1f0	0.054841936
11	0x3db86212	0.090030804
12	0x3d89e6b7	0.067334585
13	0x3d7eec42	0.06223703
14	0x3d8b2614	0.06794372
15	0x3d3bf542	0.045888193
16	0xbc9b479e	-0.018955048
17	0x3cf6f7fa	0.030147541
18	0x3cb4037a	0.021974314
19	0x3d81d388	0.063391745
20	0x3cd6e41c	0.026231818
21	0x3df43219	0.11923618
22	0x3d3894b5	0.045063693
23	0x3e009da0	0.12560129
24	0x3deaddde	0.11468099
25	0x3da111be	0.07864712
26	0x3c99fb79	0.01879667
27	0x3d02ea00	0.03196144
28	0x3d60f928	0.054925114
29	0x3d0302ca	0.03198508
30	0x3d082630	0.033239543
31	0x3d96e5b4	0.07368031
32	0x3d8414f7	0.06449311
33	0x3e0e1de8	0.13878596
34	0x3dc8f666	0.09812622
35	0x3d8e71ca	0.06955297
36	0x3c14c724	0.009080682
37	0x3cf08610	0.029360801
38	0x3dc7300d	0.09725962
39	0x3d6d0815	0.057869036
40	0x3e04fef2	0.12987879
41	0x3d8ba77d	0.06819055
42	0x3da06791	0.07832254
43	0x3d62c927	0.055367615
44	0xbc2aabe4	-0.0104169585
45	0x3d3f52a2	0.046709664
46	0x3a57f2a8	0.0008237758
47	0x3d9858d6	0.07438819
48	0x3d33be0c	0.043882415
49	0x3b9ab495	0.004721234
50	0x3d4a91d9	0.049455497
51	0xba3045e7	-0.00067242834
52	0x3d756571	0.059911195
53	0x3d274842	0.040840395
54	0x3d8107cf	0.063003175
55	0x3c105d51	0.008811311
56	0x3d671c3f	0.056423422
57	0x3c93c3e3	0.018037742
58	0x3c165bd4	0.009177167
59	0x3cf657e8	0.030071214
60	0x3dcb86d6	0.09937827
61	0x3d3d3df9	0.04620168
62	0x3d834b5e	0.064108595
63	0x3d899116	0.06717126
64	0x3d45b586	0.048268817
65	0x3d754f33	0.059889983
66	0x3d8473a6	0.06467371
67	0x3bedda06	0.0072586564
68	0x3c9810f2	0.018562768
69	0x3d035e65	0.032072444
70	0xbd3c47e5	-0.045967
71	0x3d961fc9	0.07330281
72	0x3cfeb862	0.03109378
73	0xbcd14a05	-0.02554799
74	0x3d3ecbc0	0.04658103
75	0x3d82a498	0.0637905
76	0x3d55b833	0.05217762
77	0x3df18272	0.117924586
78	0x3c567b52	0.013090925
79	0x3dd62fcd	0.10458336
80	0xbd08279f	-0.03324091
81	0x3d51f138	0.051255435
82	0x3ce6e892	0.02818707
83	0x3d6354c9	0.05550078
84	0x3d5f84dc	0.054570064
85	0xbbcdcf10	-0.0062807873
86	0x3d45fe54	0.04833825
87	0x3c6e81ce	0.014557315
88	0x3c8935d4	0.0167493
89	0xbd68ac72	-0.05680508
90	0xbd2191d8	-0.039445728
91	0xbd4e050e	-0.05029779
92	0x3e08cd28	0.13359511
93	0x3d9e4147	0.077272944
94	0x3d9c772e	0.07639919
95	0x3d9fadbf	0.07796811
96	0x3dec0ae1	0.115255125
97	0x3d8cfb9d	0.06883929
98	0x3d8f03ef	0.06983172
99	0x3dc3a604	0.09553149
100	0x3d7af697	0.061270323
101	0x3d3c8fe9	0.04603568
102	0x3bbd1aa6	0.005770999
103	0x3cfb3786	0.030666124
104	0x3d8e5f3b	0.069517575
105	0x3d8749ae	0.0660585
106	0x3d80f87d	0.062973954
107	0x3d75b011	0.059982363
108	0x3c26dda5	0.01018468
109	0x3b8a8dda	0.004228336
110	0x3d7d9749	0.061911855
111	0xbc977a10	-0.018490821
112	0x3d17eb54	0.03708966
113	0x3d3c0993	0.04590757
114	0x3c8fe24c	0.017563961
115	0x3b2a0602	0.0025943522
116	0x3cdb0ecd	0.026740456
117	0x3b91c5d1	0.0044486304
118	0x3d88d012	0.06680311
119	0x3e036a52	0.12833527
120	0xbcb2c413	-0.021822011
121	0x3b8aa867	0.004231501
122	0x3d80cb5a	0.06288786
123	0x3d2ba46b	0.041904848
124	0x3c9a689e	0.018848713
125	0xbd0f99a6	-0.03505864
126	0xbc130b64	-0.008974884
127	0xbd25dd90	-0.0404945
128	0xbbb3dd96	-0.0054890616
129	0x3ad67d61	0.001636427
130	0x3d2c77ba	0.042106368
131	0x3d5cce3f	0.05390763
132	0xbd09f67c	-0.03368233
133	0xbc0eda57	-0.008719048
134	0xbc9b9118	-0.018990085
135	0x3ca2f8e0	0.019894063
136	0xbbefae79	-0.0073145
137	0xbc804aab	-0.015660604
138	0x3b63c2c8	0.003475355
139	0x3d10e9dc	0.035379276
140	0x3c8f8e8e	0.01752403
141	0x3c237fbc	0.009979185
142	0x3d508444	0.05090739
143	0xbd18b206	-0.03727915
144	0xbd3885f5	-0.045049626
145	0xbd34e72e	-0.044165783
146	0x3d66d605	0.05635645
147	0x3ca559b6	0.02018438
148	0xbd2e6fe9	-0.042587195
149	0xbbfa331d	-0.0076354877
150	0x3c9fb7ee	0.019496884
151	0x378fb000	1.7128885e-05
152	0xbc65051f	-0.013978272
153	0xbcde03e5	-0.027101466
154	0x3d842d14	0.064539105
155	0x3d839b1e	0.06426071
156	0x3daf3132	0.08554305
157	0x3d5a209e	0.053253762
158	0xbd102ba2	-0.03519786
159	0x3d610288	0.054934055
160	0x3cd12238	0.025529012
161	0xbb8b3e6f	-0.004249386
162	0x3c33d096	0.010975024
163	0x3c09a9d0	0.008402303
164	0x3dbc7325	0.092016496
165	0x3cb5a1ec	0.022171937
166	0x3d45fcfa	0.04833696
167	0x3e0289d1	0.12747885
168	0x3e06108e	0.13092253
169	0x3d58ca48	0.052927285
170	0x3de72f3f	0.11288308
171	0x3dc0f019	0.09420795
172	0x3deacf3a	0.114653066
173	0x3df0fc4a	0.1176687
174	0x3ca86b3d	0.020558948
175	0x3d19dff9	0.037567113
176	0x3ce8491a	0.02835517
177	0x3e052c6f	0.13005231
178	0x3df782fa	0.12085529
179	0x3db6c9ac	0.089251846
180	0xba8649ea	-0.0010245417
181	0x3cae1b54	0.021253265
182	0xbcfdce5d	-0.03098219
183	0x3e096a83	0.13419537
184	0x3e0b51dc	0.13605446
185	0x3da046ac	0.078259796
186	0x3d25c7cf	0.040473755
187	0x3c71873b	0.014741714
188	0x3c0e0505	0.008668189
189	0xbbf177e7	-0.00736903
190	0x3d4182be	0.047243826
191	0x3d2eeebc	0.042708144
192	0x3e03e3ae	0.12879822
193	0x3cdcbd62	0.026945774
194	0x3d728697	0.059210386
195	0xbcdf53e7	-0.027261687
196	0x3d17cee0	0.037062526
197	0xbc25af6e	-0.0101126265
198	0x3daf86c1	0.08570624
199	0x3c85744c	0.016290806
200	0x3dfa4163	0.12219503
201	0x3c9910eb	0.018684825
202	0x3dae6038	0.08514446
203	0xbcf5c287	-0.029999984
204	0x3d9ac497	0.07557028
205	0xbc8043e4	-0.015657373
206	0xbd3ed765	-0.046592135
207	0xbb57f376	-0.003295151
208	0x3c7e4b39	0.015520864
209	0x3d554436	0.052067004
210	0xbca3dbaa	-0.020002205
211	0x3d8ec18e	0.069705114
212	0xbd5633fe	-0.052295677
213	0xbd611a34	-0.05495663
214	0x3d386e24	0.045026913
215	0xbca84ae0	-0.020543516
216	0xbbea84ec	-0.007156959
217	0xbd4386b9	-0.047735903
218	0xbc407dc5	-0.011748736
219	0x3c9413d6	0.018075865
220	0x3cf3fa88	0.029782549
221	0xbd863a54	-0.06554094
222	0x3c3f1d59	0.011664712
223	0x3caf40c4	0.021393187
224	0xbd6c74cb	-0.05772857
225	0xbd0bd0be	-0.03413462
226	0xbd3beca9	-0.045879994
227	0x3c991894	0.018688478
228	0x3d75a384	0.059970394
229	0xbc019b82	-0.007910611
230	0xbc1000fa	-0.008789295
231	0xbcc2fe04	-0.023802765
232	0xbd088444	-0.033329263
233	0xbbffc7a2	-0.0078057805
234	0xbce798f1	-0.02827117
235	0xbd19d565	-0.037557025
236	0x3da33065	0.07968215
237	0xbcce02ed	-0.02514788
238	0x3d4043d5	0.04693969
239	0xbb566dfa	-0.003271936
240	0xbc91e6c0	-0.017810225
241	0x3d12a3e4	0.03580083
242	0x3d973cd0	0.07384646
243	0xbbfd91da	-0.007738334
244	0x3cf621d8	0.030045435
245	0xbcc3a298	-0.023881242
246	0xbd016118	-0.031586736
247	0xbbd4c291	-0.0064929207
248	0x3d7b60ff	0.0613718
249	0x3ccf343c	0.025293462
250	0x3d287dce	0.0411356
251	0xbd0ec39a	-0.03485451
252	0x3d8d38d8	0.06895608
253	0xbb8fcf59	-0.0043887314
254	0x3cbda400	0.02314949
255	0xbcb788d2	-0.022404108

conv2.bias f4 [3]
0	0xbda79564	-0.08182791
1	0x3db6c324	0.08923939
2	0x3d8eb7db	0.069686614

conv2.lins.0.weight f4 [3, 16]
0	0x3e851d92	0.25999123
1	0x3e3bde12	0.18346432
2	0x3e276d08	0.16350186
3	0xbe8de225	-0.27711597
4	0xbe08ad87	-0.13347445
5	0xbe3b7860	-0.18307638
6	0x3d1e5866	0.038658522
7	0xbdced725	-0.10099629
8	0xbd4c7e7c	-0.049925312
9	0xbe259500	-0.1617012
10	0xbd59fad2	-0.053217717
11	0x3d1b8a5c	0.037973747
12	0xbe7d76bb	-0.24752323
13	0xbe2a7aba	-0.16648379
14	0x3e7bf9ba	0.24606982
15	0xbe4d0f0e	-0.20025274
16	0xbe8e1bea	-0.27755672
17	0x3d17f293	0.03709657
18	0xbd2fcf45	-0.042922277
19	0xbe0c7d34	-0.13719636
20	0x3e7f4aa0	0.24930811
21	0x3e86cee7	0.2632973
22	0x3df6bc7b	0.120476685
23	0x3e44271d	0.19155546
24	0x3cdd9c3b	0.027052036
25	0xbdb0285b	-0.08601447
26	0xbe0314a0	-0.12800837
27	0x3d41e49f	0.04733717
28	0x3e1f59c9	0.15561594
29	0x3cb4ef3d	0.022086734
30	0xbdf35a4c	-0.11882457
31	0xbe587ac2	-0.21140578
32	0xbe5b46a2	-0.21413663
33	0xbdcd814d	-0.10034428
34	0x3e6c46db	0.23073904
35	0xbd6f388d	-0.05840354
36	0x3e09bbde	0.13450572
37	0xbcd08fb8	-0.025459155
38	0xbd47f21e	-0.048814885
39	0x3e79ea9e	0.24405906
40	0x3e77854a	0.2417194
41	0xbbc2b36c	-0.005941799
42	0xbe0390a5	-0.12848146
43	0x3e18085a	0.14846936
44	0x3d3e70bf	0.04649424
45	0xbdad12bb	-0.08450838
46	0x3e426b3a	0.18986216
47	0x3e77cd2a	0.24199358

conv2.lins.1.weight f4 [3, 16]
0	0x3e7318f4	0.23739988
1	0x3e146ca0	0.14494562
2	0xbcddfd3d	-0.027098292
3	0x3d8c497c	0.068499535
4	0xbe73dfea	-0.23815885
5	0x3e0f23ca	0.13978496
6	0xbdcbe1fe	-0.09955214
7	0x3ba63cb4	0.0050731543
8	0xbd14c901	-0.036324505
9	0x3e32929d	0.17438741
10	0x3e882458	0.26590228
11	0x3e244d4c	0.16045111
12	0x3d0ff7fd	0.03514861
13	0xbe80085d	-0.2500638
14	0x3c5659fe	0.013082979
15	0xbb6d24d0	-0.0036185272
16	0xbd5ea655	-0.054357845
17	0xbe506236	-0.20349964
18	0xbea5f66d	-0.3241457
19	0x3e8740c1	0.2641659
20	0x3d8a3756	0.06748836
21	0x3e65384d	0.22384758
22	0xbd9a6aea	-0.075399235
23	0x3e804e02	0.25059515
24	0xbd7f56ad	-0.06233852
25	0xbe839bda	-0.25704843
26	0xbd78ad50	-0.06071216
27	0xbe0c2de8	-0.13689387
28	0x3deb58c7	0.11491542
29	0x3e766a8c	0.24064082
30	0xbd278a11	-0.040903155
31	0x3dd63f18	0.10461253
32	0x3d4b77ed	0.049674917
33	0xbe18022f	-0.14844583
34	0x3ea18e1a	0.31553727
35	0xbe3b4872	-0.18289354
36	0x3e219702	0.15780261
37	0xbdd90a5a	-0.105976775
38	0xbdf1b7fc	-0.1180267
39	0x3e88e85e	0.26739782
40	0xbcbd0457	-0.023073358
41	0x3e85bcf5	0.26120725
42	0xbc81d5c0	-0.015848994
43	0xbdac6588	-0.08417803
44	0x3e967647	0.29387113
45	0xbe53a331	-0.20667721
46	0x3e1ddae7	0.15415536
47	0x3ea6659a	0.3249939

conv2.lins.2.weight f4 [3, 16]
0	0x3e4a1732	0.19735411
1	0x3e1c9956	0.15292868
2	0xbcd0c440	-0.025484204
3	0x3db4aabe	0.08821629
4	0x3c22f5dc	0.009946313
5	0x3d8bb79b	0.06822129
6	0x3d9510dd	0.07278607
7	0xbe15d92d	-0.14633627
8	0x3d619e0a	0.05508236
9	0xbe8b8171	-0.27247193
10	0x3cf15900	0.029461384
11	0xbd186dda	-0.037214138
12	0x3c59def4	0.013297785
13	0xbe745931	-0.23862149
14	0xbe11705e	-0.14203021
15	0xbe6c1398	-0.2305435
16	0x3db39406	0.087684676
17	0x3e0dbf11	0.13842417
18	0xbe8c041f	-0.27346894
19	0xbd9c3b22	-0.07628466
20	0x3c8a9b2a	0.016919691
21	0x3d90e032	0.07074012
22	0xbc8d0f2c	-0.017219149
23	0x3e8adb34	0.27120364
24	0xbd282546	-0.04105117
25	0xbdec2b21	-0.11531664
26	0xbe51a035	-0.2047127
27	0x3d7f12ae	0.062273674
28	0x3d95de80	0.07317829
29	0x3d639153	0.055558514
30	0xbe4674a8	-0.19380438
31	0xbe3482f4	-0.1762808
32	0xbe321ea0	-0.17394495
33	0xbe3768b8	-0.17911041
34	0x3db6ce61	0.089260824
35	0x3d63ea08	0.05564311
36	0xbd732190	-0.05935818
37	0xbde59ed0	-0.11211932
38	0x3e527b02	0.20554736
39	0x3e059089	0.13043417
40	0xbe3ad117	-0.18243824
41	0x3e47cd6c	0.19511956
42	0xbe73b612	-0.23799923
43	0x3d8b8c78	0.06813902
44	0x3e975b66	0.2956192
45	0xbe911569	-0.28336647
46	0xbdd4d8f4	-0.10392943
47	0xbda506ea	-0.080579594

conv2.lins.3.weight f4 [3, 16]
0	0x3d40642f	0.046970543
1	0x3d8a35e8	0.06748563
2	0x3e2fa957	0.17154442
3	0xbe670119	-0.22559012
4	0xbe8f7dc7	-0.28025648
5	0xbd9cc1ea	-0.07654174
6	0xbb9a7cc1	-0.004714579
7	0xbe74370c	-0.23849124
8	0xbe55e85c	-0.2088942
9	0xbd5617e2	-0.05226887
10	0x3e5864af	0.21132158
11	0xbcab3065	-0.0208971
12	0xbd9025a3	-0.07038429
13	0xbcd2079a	-0.02563839
14	0x3c2f7331	0.010708616
15	0x3dfddd36	0.12395708
16	0xbe23929f	-0.159739
17	0xbe0ada3c	-0.13559812
18	0xbd41d020	-0.047317624
19	0x3e2f0320	0.17091036
20	0x3cb3f9e4	0.021969743
21	0x3e5c3150	0.21503186
22	0xbd315cb9	-0.043301318
23	0xbdd1625b	-0.10223838
24	0xbcadcee6	-0.02121682
25	0xbe11846f	-0.14210676
26	0xbe80864f	-0.2510247
27	0xbc0fa871	-0.008768187
28	0x3e5607b8	0.20901382
29	0xbe2108c7	-0.15726005
30	0x3d53a0f7	0.05166718
31	0xbdfe5290	-0.12418091
32	0xbdcfc8c3	-0.10145714
33	0x3e4f5af3	0.20249538
34	0x3e107324	0.14106423
35	0xbe8029a3	-0.25031766
36	0x3e9ae3a3	0.30251798
37	0xbe1bfcab	-0.15233104
38	0x3e119528	0.14217055
39	0x3e1e3c20	0.15452623
40	0xbdbd016a	-0.09228785
41	0xbd5d44ce	-0.054020695
42	0xbe271ded	-0.1632001
43	0x3d1b687f	0.037941452
44	0x3e5de0a8	0.21667731
45	0xbe6642a6	-0.22486362
46	0xbdc3b770	-0.09556472
47	0x3e38a9e2	0.18033555
