mutation/target_models/pubmed_gcn.pt (torch, 33887 bytes, 4 tensors)

conv1.bias f4 [16]
00000000: 6168 be3d b4f4 a53d ca32 fa3c f8bc 3b3d
00000010: f780 c13d 6f1b b33d 3ba3 853d 8228 19bd
00000020: 5b14 bb3d 6ae9 c13d c759 583d cc38 b73d
00000030: 89d8 e93c b6a0 e43c 0d1a c23d ad77 c13d
0.092972524 0.08103314 0.030541796 0.04583451 0.09448426 0.08745467 0.06525274 -0.037392147
0.09134742 0.09468348 0.052819993 0.0894638 0.028545635 0.027908664 0.09477625 0.094466545

conv1.lin.weight f4 [16, 500]
00000000: aa99 35bd d96f 613d 89a6 283d 7048 a33c
00000010: 5fb0 ba3d 4597 103d 61d1 b43d af42 083e
00000020: 5f7f 8fbd a06b 31bc 9f10 3d3c 4bcb b53c
00000030: 6fea fd3c b6b3 ac3c 216c e83c c2af 993d
00000040: 3cdd 543c a449 133e 0bae 223d af6c 0b3d
00000050: 466b b73d 7aee dabc 7a74 ac3d 81c4 92bd
00000060: 2908 89bd c42c afbd ced4 25bd 54ad 953d
00000070: ca16 81bd 2b82 293c 017a 41bd ece3 bdbc
00000080: 1a64 0ebe 68cb c6bd b91c debd 9289 87bc
00000090: 1d8d 893d 5aee dc3c 221e 08be edb9 21be
000000a0: d06b f7bc b9b4 ae3d a90d be3b 1de2 61bc
000000b0: e089 a83d 9cea 323c 3fa2 c43d 1919 6e3d
000000c0: 642d 1b3e 4c01 f53d 7eb4 61bd fd8d cb3d
000000d0: 9886 aabd e68d 593d 8bd7 dfbd b311 b13d
000000e0: 5f8c 7e3c dcdc 57bb 52dd 3a3c 9967 b03d
000000f0: 186d 84bc 2ec7 e13d 18d4 adba 2b07 67bd
00000100: 9838 d53d 33a8 e9bc 201d 67bb b88e 80ba
00000110: 5a7a fa3c 965a 83bb eb27 013e 60d4 3f39
00000120: edf4 033e 8c3a f63c e4be 2d3d 9ab5 7a3d
00000130: 1a0e 8b3d b3c0 97bd c322 4f3d afc6 8fbc
00000140: 24c8 1e3e ae06 e23d dba9 d33c b450 c93d
00000150: 5474 ae3d e0c1 f63b df5d b93d 7eeb 713d
00000160: 1cbc ee3d d10e 813d 7a73 a93c f3f6 c43c
00000170: e96e 09be 7375 d1bd ee9b a83c 40df f63a
00000180: 02af 15bc ff85 ae3d 91f3 353d 50e8 e9bc
00000190: 6a2e 603c 4cba 5abd be92 babc e0ca 59bb
000001a0: 0a1b 093d 89a5 123d aff1 463d 00b5 98bb
000001b0: baf3 ec3d 4aa9 023d b0ff 00be 996f 4b3e
000001c0: b9a7 b73d 2293 9bbb dcb6 183e 1fee 033c
000001d0: 83ed 613c 7a74 c53c 3898 13bd c439 16bd
000001e0: 724b 803d c0cf 6339 a74b b33d 5a7f a33c
000001f0: fa27 9f3d ac4b ca3d db2e b33d 797d 033e
00000200: e927 e73d 723a 273d 6631 1c3d 0982 f73d
00000210: 1678 693d c13b 0abc 1734 db3d a828 2f3b
00000220: fed9 bd3d e441 8b3d c622 cc3c ec42 393d
00000230: 18c2 713d c574 d33c 9478 d93c 10d0 943d
00000240: 22f3 ea3d 0837 953d 80fd 5aba b116 553d
00000250: 87b0 973d 5866 3a3e 44db 57bb 90d9 9e3d
00000260: 1eb2 7d3d 30da d13d 7046 9f3d 802a dab8
00000270: 447b 1cbc 5147 b1bd fd6f e63d 441f 0dbe
00000280: c638 2c3d 4cd7 a63b 7306 bd3d 9ccd b53d
00000290: 5c4e b0bc 1509 8f3d 0a98 e6bb 3fde f9bd
000002a0: 2a0e e2bb a01e a2bd f817 d73c 2de4 41bd
000002b0: 2e97 8bbb 263f 6bbd d62c 173e 64bc 3bbd
000002c0: 5cf9 c63c bee4 d3bd 4fdc adbd 4da3 a1bc
000002d0: 9ae5 003d 0164 563d 231a e83d 1959 7abc
000002e0: 37bf 13be 3e6e c23c 318f 573d 4343 ae3c
000002f0: 5cd4 d93c 77d0 703c 5fbc ab3d f610 8d3d
00000300: 2ac8 cc3b 3908 923d a710 7cbd ce6e f33d
00000310: 6607 853d a113 ca3d 5444 ccbd 1b95 8a3d
00000320: 7fb8 f4bd f2a0 433e 1bdb 16bd 7c2a 0a3e
00000330: 5222 8bbb 307d 9c3c 8922 c43d 1f46 103e
00000340: 9c88 873d da7d 0b3d 9ecb ce3d b084 f43a
00000350: 44d8 2c3c efff 743d 0ba4 8f3d 680f b83a
00000360: 1448 fb3c b9e8 9e3d 36e3 dd3d 1764 863d
00000370: eb10 6b3d e0de aaba f71c 1c3d 0b72 1d3d
00000380: 9d10 023e 70c2 e83d 936a 643c b81c d43d
00000390: c8b5 f2bb fbd7 d23d f7b9 b43d 2925 ee3d
000003a0: 4a58 143d c22a da3d 3a9b 5f3d db4d 1dbd
000003b0: 0c1c 06bd 1eb4 dc3d 535d 9e3d 1967 70bc
000003c0: 3a09 0d3e f254 5c3d 6418 c23a 3aa0 9a3d
000003d0: 7c6e 59bc bd95 3d3d 5fc7 ed3d c042 44b9
000003e0: 5762 b0bd 6139 d13c 531a 943d 2eff 2c3d
000003f0: aad3 32bd 920d 64bc 7292 b03d c289 4d3d
-0.044336 0.055038307 0.041174445 0.019932002 0.09115671 0.035300512 0.08828998 0.13306688
-0.07006716 -0.010828882 0.011539607 0.022191664 0.030995576 0.021081787 0.028371872 0.07504226
0.0129921995 0.1438356 0.03971676 0.034039196 0.08956008 -0.026725043 0.08420654 -0.071663864
-0.066910096 -0.0855346 -0.04048615 0.0730845 -0.06303175 0.010345976 -0.047235493 -0.02317997
-0.13905373 -0.097067654 -0.10845322 -0.01654509 0.06716368 0.026969124 -0.13292745 -0.15793581
-0.030202776 0.08530564 0.0057999683 -0.01378682 0.082294226 0.010920193 0.096012585 0.058129404
0.15154034 0.11963138 -0.05510377 0.099391915 -0.08326453 0.05311384 -0.109297834 0.08645954
0.015536397 -0.003293804 0.011405306 0.0861351 -0.016165301 0.11024319 -0.0013262061 -0.05640332
0.10411185 -0.028522586 -0.0035265163 -0.0009808159 0.03057592 -0.0040086014 0.12612884 0.00018294295
0.128864 0.030057214 0.042418376 0.061208345 0.06789799 -0.07409801 0.05057026 -0.017550794
0.15506035 0.1103643 0.02583783 0.09829846 0.085182816 0.007530436 0.090511076 0.059062473
0.11656973 0.06301654 0.020684946 0.024043536 -0.13421215 -0.1022748 0.020582166 0.0018834844
-0.009135963 0.085216515 0.044421736 -0.028553158 0.013682941 -0.053400323 -0.02277505 -0.0033232495
0.033473052 0.035802398 0.04857033 -0.0046602488 0.11569925 0.031899728 -0.12597537 0.1986679
0.089675374 -0.004747764 0.14913505 0.008052378 0.013789537 0.024103392 -0.03603384 -0.036676183
0.0626439 0.000217258 0.08754664 0.019958187 0.07771297 0.098777145 0.08749171 0.12840833
0.11286909 0.040827222 0.038133048 0.12085349 0.05699929 -0.008437098 0.10703295 0.0026727114
0.09270094 0.06799677 0.024918925 0.045229837 0.059022993 0.025812516 0.026546754 0.07266247
0.11472155 0.07285887 -0.00083538145 0.052023593 0.07406717 0.18203104 -0.003293709 0.077563405
0.061937444 0.10246694 0.07777107 -0.00010402966 -0.009550873 -0.08656181 0.11251829 -0.13781458
0.04204633 0.0050915834 0.09229746 0.088771075 -0.02152174 0.06984154 -0.0070371674 -0.12200593
-0.006898661 -0.079159975 0.026256546 -0.047336746 -0.0042599654 -0.05743327 0.14763197 -0.04583396
0.024288826 -0.103463635 -0.08489286 -0.019731188 0.031468965 0.052341465 0.1133311 -0.015280032
-0.14428411 0.023734208 0.052626792 0.021272307 0.026590519 0.014698139 0.08385538 0.06888001
0.0062494474 0.071304746 -0.06153932 0.11886369 0.06495552 0.09867025 -0.0997397 0.06766721
-0.11949252 0.19104365 -0.03683005 0.13492769 -0.0042460347 0.019102663 0.095768996 0.14089249
0.06617853 0.03405557 0.10097431 0.0018655267 0.010549609 0.05981439 0.070137106 0.0014042677
0.030674018 0.07759232 0.10834353 0.065620594 0.05738918 -0.0013036393 0.03811356 0.038438838
0.1270165 0.11365211 0.013941425 0.1035704 -0.007406924 0.10295101 0.088245325 0.116281815
0.03621701 0.10652687 0.054591395 -0.038404327 -0.03274159 0.10776542 0.07732644 -0.014673018
0.13773051 0.053791948 0.0014808294 0.07550092 -0.01327097 0.04628538 0.11610293 -0.00018716883
-0.08612507 0.025540056 0.072315834 0.042235546 -0.04365889 -0.013919251 0.08621682 0.050180204

conv2.bias f4 [3]
00000000: d332 bdbd ec43 a83d 3696 c53d
-0.092382096 0.0821608 0.09647791

conv2.lin.weight f4 [3, 16]
00000000: 3e83 c0bd cabb 01bf 09f9 1e3f 539b d13e
00000010: 9e2e ecbe 0758 1bbf 8b66 1abe 4b89 90bd
00000020: ee9a b1be 4b1e dabd 007c 3f3e 3b1b 5ebe
00000030: 1848 083f aa2d 813e dc21 b0bd 94bd 9cbd
00000040: 5ee8 253d 0505 e13e e570 0abd 38cb 1e3d
00000050: e05f 2cbe ed09 9e3e aeba 1c3f 1125 733e
00000060: 9dd2 b33d e734 a9bd e610 ce3c 10c9 b43e
00000070: 2499 07be e2fb 703e 6ee5 573e be2f a33c
00000080: 5cd1 783e eaee 04bf 6f64 15bf 3e86 ddbe
00000090: 5919 3dbe abc7 3cbe 25d4 0ebf 6f31 8c3e
000000a0: 820e 5f3e ff66 bf3e baf6 f63e 966c 123f
000000b0: 79a2 edbd 5b08 a3be 8dda ed3e 8450 033f
-0.094000325 -0.5067717 0.6209875 0.40938815 -0.46129316 -0.60681194 -0.1507818 -0.070574366
-0.34688514 -0.10650309 0.18699646 -0.21690075 0.53235006 0.2523015 -0.08600208 -0.07653347
0.040504806 0.43949142 -0.03379907 0.038768023 -0.16833448 0.30866948 0.6122235 0.23744608
0.08780406 -0.082620434 0.025154542 0.3530965 -0.13242012 0.23533586 0.21083614 0.019920226
0.24298614 -0.51927054 -0.58356375 -0.4326648 -0.184667 -0.18435542 -0.55792457 0.27381465
0.21782878 0.37383267 0.48235112 0.5719694 -0.11603255 -0.31842312 0.46455804 0.5129473
